<?xml version="1.0" ?>
<net name="mobilenet_v2_1.0_224" version="10">
	<layers>
		<layer id="0" name="input" type="Parameter" version="opset1">
			<data element_type="f32" shape="1,3,224,224"/>
			<output>
				<port id="0" precision="FP32">
					<dim>1</dim>
					<dim>3</dim>
					<dim>224</dim>
					<dim>224</dim>
				</port>
			</output>
		</layer>
		<layer id="1" name="input/reverse_input_channels14419/Concat14438_const270_const" type="Const" version="opset1">
			<data element_type="f32" offset="0" shape="1,3,1,1" size="12"/>
			<output>
				<port id="1" precision="FP32">
					<dim>1</dim>
					<dim>3</dim>
					<dim>1</dim>
					<dim>1</dim>
				</port>
			</output>
		</layer>
		<layer id="2" name="Mul_/Fused_Mul_" type="Multiply" version="opset1">
			<input>
				<port id="0">
					<dim>1</dim>
					<dim>3</dim>
					<dim>224</dim>
					<dim>224</dim>
				</port>
				<port id="1">
					<dim>1</dim>
					<dim>3</dim>
					<dim>1</dim>
					<dim>1</dim>
				</port>
			</input>
			<output>
				<port id="2" precision="FP32">
					<dim>1</dim>
					<dim>3</dim>
					<dim>224</dim>
					<dim>224</dim>
				</port>
			</output>
		</layer>
		<layer id="3" name="input/reverse_input_channels14421/Concat14446_const272_const" type="Const" version="opset1">
			<data element_type="f32" offset="12" shape="1,3,1,1" size="12"/>
			<output>
				<port id="1" precision="FP32">
					<dim>1</dim>
					<dim>3</dim>
					<dim>1</dim>
					<dim>1</dim>
				</port>
			</output>
		</layer>
		<layer id="4" name="Add_/Fused_Add_" type="Add" version="opset1">
			<input>
				<port id="0">
					<dim>1</dim>
					<dim>3</dim>
					<dim>224</dim>
					<dim>224</dim>
				</port>
				<port id="1">
					<dim>1</dim>
					<dim>3</dim>
					<dim>1</dim>
					<dim>1</dim>
				</port>
			</input>
			<output>
				<port id="2" precision="FP32">
					<dim>1</dim>
					<dim>3</dim>
					<dim>224</dim>
					<dim>224</dim>
				</port>
			</output>
		</layer>
		<layer id="5" name="18971901_const" type="Const" version="opset1">
			<data element_type="f32" offset="24" shape="" size="4"/>
			<output>
				<port id="1" precision="FP32"/>
			</output>
		</layer>
		<layer id="6" name="18981902_const" type="Const" version="opset1">
			<data element_type="f32" offset="28" shape="" size="4"/>
			<output>
				<port id="1" precision="FP32"/>
			</output>
		</layer>
		<layer id="7" name="18991903_const" type="Const" version="opset1">
			<data element_type="f32" offset="24" shape="" size="4"/>
			<output>
				<port id="1" precision="FP32"/>
			</output>
		</layer>
		<layer id="8" name="19001904_const" type="Const" version="opset1">
			<data element_type="f32" offset="28" shape="" size="4"/>
			<output>
				<port id="1" precision="FP32"/>
			</output>
		</layer>
		<layer id="9" name="MobilenetV2/Conv/Conv2D/fq_input_0" type="FakeQuantize" version="opset1">
			<data levels="256"/>
			<input>
				<port id="0">
					<dim>1</dim>
					<dim>3</dim>
					<dim>224</dim>
					<dim>224</dim>
				</port>
				<port id="1"/>
				<port id="2"/>
				<port id="3"/>
				<port id="4"/>
			</input>
			<output>
				<port id="5" precision="FP32">
					<dim>1</dim>
					<dim>3</dim>
					<dim>224</dim>
					<dim>224</dim>
				</port>
			</output>
		</layer>
		<layer id="10" name="MobilenetV2/Conv/Conv2D/fq_weights_1/Convert_to_float/Cast_06057_const" type="Const" version="opset1">
			<data element_type="u8" offset="32" shape="32,3,3,3" size="864"/>
			<output>
				<port id="1" precision="U8">
					<dim>32</dim>
					<dim>3</dim>
					<dim>3</dim>
					<dim>3</dim>
				</port>
			</output>
		</layer>
		<layer id="11" name="MobilenetV2/Conv/Conv2D/fq_weights_1/Convert_to_float" type="Convert" version="opset1">
			<data destination_type="f32"/>
			<input>
				<port id="0">
					<dim>32</dim>
					<dim>3</dim>
					<dim>3</dim>
					<dim>3</dim>
				</port>
			</input>
			<output>
				<port id="1" precision="FP32">
					<dim>32</dim>
					<dim>3</dim>
					<dim>3</dim>
					<dim>3</dim>
				</port>
			</output>
		</layer>
		<layer id="12" name="MobilenetV2/Conv/Conv2D/fq_weights_1/Copy/out_low5285_const" type="Const" version="opset1">
			<data element_type="f32" offset="896" shape="1" size="4"/>
			<output>
				<port id="1" precision="FP32">
					<dim>1</dim>
				</port>
			</output>
		</layer>
		<layer id="13" name="MobilenetV2/Conv/Conv2D/fq_weights_1/Copy/out_high5286_const" type="Const" version="opset1">
			<data element_type="f32" offset="900" shape="1" size="4"/>
			<output>
				<port id="1" precision="FP32">
					<dim>1</dim>
				</port>
			</output>
		</layer>
		<layer id="14" name="19091913_const" type="Const" version="opset1">
			<data element_type="f32" offset="904" shape="32,1,1,1" size="128"/>
			<output>
				<port id="1" precision="FP32">
					<dim>32</dim>
					<dim>1</dim>
					<dim>1</dim>
					<dim>1</dim>
				</port>
			</output>
		</layer>
		<layer id="15" name="19101914_const" type="Const" version="opset1">
			<data element_type="f32" offset="1032" shape="32,1,1,1" size="128"/>
			<output>
				<port id="1" precision="FP32">
					<dim>32</dim>
					<dim>1</dim>
					<dim>1</dim>
					<dim>1</dim>
				</port>
			</output>
		</layer>
		<layer id="16" name="MobilenetV2/Conv/Conv2D/fq_weights_1" type="FakeQuantize" version="opset1">
			<data levels="255"/>
			<input>
				<port id="0">
					<dim>32</dim>
					<dim>3</dim>
					<dim>3</dim>
					<dim>3</dim>
				</port>
				<port id="1">
					<dim>1</dim>
				</port>
				<port id="2">
					<dim>1</dim>
				</port>
				<port id="3">
					<dim>32</dim>
					<dim>1</dim>
					<dim>1</dim>
					<dim>1</dim>
				</port>
				<port id="4">
					<dim>32</dim>
					<dim>1</dim>
					<dim>1</dim>
					<dim>1</dim>
				</port>
			</input>
			<output>
				<port id="5" precision="FP32">
					<dim>32</dim>
					<dim>3</dim>
					<dim>3</dim>
					<dim>3</dim>
				</port>
			</output>
		</layer>
		<layer id="17" name="MobilenetV2/Conv/Conv2D" type="Convolution" version="opset1">
			<data auto_pad="same_upper" dilations="1,1" output_padding="0,0" pads_begin="0,0" pads_end="1,1" strides="2,2"/>
			<input>
				<port id="0">
					<dim>1</dim>
					<dim>3</dim>
					<dim>224</dim>
					<dim>224</dim>
				</port>
				<port id="1">
					<dim>32</dim>
					<dim>3</dim>
					<dim>3</dim>
					<dim>3</dim>
				</port>
			</input>
			<output>
				<port id="2" precision="FP32">
					<dim>1</dim>
					<dim>32</dim>
					<dim>112</dim>
					<dim>112</dim>
				</port>
			</output>
		</layer>
		<layer id="18" name="data_add_98549859/copy_const276_const" type="Const" version="opset1">
			<data element_type="f32" offset="1160" shape="1,32,1,1" size="128"/>
			<output>
				<port id="1" precision="FP32">
					<dim>1</dim>
					<dim>32</dim>
					<dim>1</dim>
					<dim>1</dim>
				</port>
			</output>
		</layer>
		<layer id="19" name="MobilenetV2/Conv/BatchNorm/FusedBatchNormV3/variance/Fused_Add_" type="Add" version="opset1">
			<input>
				<port id="0">
					<dim>1</dim>
					<dim>32</dim>
					<dim>112</dim>
					<dim>112</dim>
				</port>
				<port id="1">
					<dim>1</dim>
					<dim>32</dim>
					<dim>1</dim>
					<dim>1</dim>
				</port>
			</input>
			<output>
				<port id="2" precision="FP32">
					<dim>1</dim>
					<dim>32</dim>
					<dim>112</dim>
					<dim>112</dim>
				</port>
			</output>
		</layer>
		<layer id="20" name="MobilenetV2/Conv/Relu6" type="Clamp" version="opset1">
			<data max="6" min="0"/>
			<input>
				<port id="0">
					<dim>1</dim>
					<dim>32</dim>
					<dim>112</dim>
					<dim>112</dim>
				</port>
			</input>
			<output>
				<port id="1" precision="FP32">
					<dim>1</dim>
					<dim>32</dim>
					<dim>112</dim>
					<dim>112</dim>
				</port>
			</output>
		</layer>
		<layer id="21" name="68346837_const" type="Const" version="opset1">
			<data element_type="f32" offset="1288" shape="32,1,1,3,3" size="1152"/>
			<output>
				<port id="1" precision="FP32">
					<dim>32</dim>
					<dim>1</dim>
					<dim>1</dim>
					<dim>3</dim>
					<dim>3</dim>
				</port>
			</output>
		</layer>
		<layer id="22" name="MobilenetV2/expanded_conv/depthwise/depthwise" type="GroupConvolution" version="opset1">
			<data auto_pad="same_upper" dilations="1,1" output_padding="0,0" pads_begin="1,1" pads_end="1,1" strides="1,1"/>
			<input>
				<port id="0">
					<dim>1</dim>
					<dim>32</dim>
					<dim>112</dim>
					<dim>112</dim>
				</port>
				<port id="1">
					<dim>32</dim>
					<dim>1</dim>
					<dim>1</dim>
					<dim>3</dim>
					<dim>3</dim>
				</port>
			</input>
			<output>
				<port id="2" precision="FP32">
					<dim>1</dim>
					<dim>32</dim>
					<dim>112</dim>
					<dim>112</dim>
				</port>
			</output>
		</layer>
		<layer id="23" name="data_add_98629867/copy_const281_const" type="Const" version="opset1">
			<data element_type="f32" offset="2440" shape="1,32,1,1" size="128"/>
			<output>
				<port id="1" precision="FP32">
					<dim>1</dim>
					<dim>32</dim>
					<dim>1</dim>
					<dim>1</dim>
				</port>
			</output>
		</layer>
		<layer id="24" name="MobilenetV2/expanded_conv/depthwise/BatchNorm/FusedBatchNormV3/variance/Fused_Add_" type="Add" version="opset1">
			<input>
				<port id="0">
					<dim>1</dim>
					<dim>32</dim>
					<dim>112</dim>
					<dim>112</dim>
				</port>
				<port id="1">
					<dim>1</dim>
					<dim>32</dim>
					<dim>1</dim>
					<dim>1</dim>
				</port>
			</input>
			<output>
				<port id="2" precision="FP32">
					<dim>1</dim>
					<dim>32</dim>
					<dim>112</dim>
					<dim>112</dim>
				</port>
			</output>
		</layer>
		<layer id="25" name="MobilenetV2/expanded_conv/depthwise/Relu6" type="Clamp" version="opset1">
			<data max="6" min="0"/>
			<input>
				<port id="0">
					<dim>1</dim>
					<dim>32</dim>
					<dim>112</dim>
					<dim>112</dim>
				</port>
			</input>
			<output>
				<port id="1" precision="FP32">
					<dim>1</dim>
					<dim>32</dim>
					<dim>112</dim>
					<dim>112</dim>
				</port>
			</output>
		</layer>
		<layer id="26" name="10471051_const" type="Const" version="opset1">
			<data element_type="f32" offset="2568" shape="" size="4"/>
			<output>
				<port id="1" precision="FP32"/>
			</output>
		</layer>
		<layer id="27" name="10481052_const" type="Const" version="opset1">
			<data element_type="f32" offset="2572" shape="" size="4"/>
			<output>
				<port id="1" precision="FP32"/>
			</output>
		</layer>
		<layer id="28" name="10491053_const" type="Const" version="opset1">
			<data element_type="f32" offset="2568" shape="" size="4"/>
			<output>
				<port id="1" precision="FP32"/>
			</output>
		</layer>
		<layer id="29" name="10501054_const" type="Const" version="opset1">
			<data element_type="f32" offset="2572" shape="" size="4"/>
			<output>
				<port id="1" precision="FP32"/>
			</output>
		</layer>
		<layer id="30" name="MobilenetV2/expanded_conv/project/Conv2D/fq_input_0" type="FakeQuantize" version="opset1">
			<data levels="256"/>
			<input>
				<port id="0">
					<dim>1</dim>
					<dim>32</dim>
					<dim>112</dim>
					<dim>112</dim>
				</port>
				<port id="1"/>
				<port id="2"/>
				<port id="3"/>
				<port id="4"/>
			</input>
			<output>
				<port id="5" precision="FP32">
					<dim>1</dim>
					<dim>32</dim>
					<dim>112</dim>
					<dim>112</dim>
				</port>
			</output>
		</layer>
		<layer id="31" name="MobilenetV2/expanded_conv/project/Conv2D/fq_weights_1/Convert_to_float/Cast_06097_const" type="Const" version="opset1">
			<data element_type="u8" offset="2576" shape="16,32,1,1" size="512"/>
			<output>
				<port id="1" precision="U8">
					<dim>16</dim>
					<dim>32</dim>
					<dim>1</dim>
					<dim>1</dim>
				</port>
			</output>
		</layer>
		<layer id="32" name="MobilenetV2/expanded_conv/project/Conv2D/fq_weights_1/Convert_to_float" type="Convert" version="opset1">
			<data destination_type="f32"/>
			<input>
				<port id="0">
					<dim>16</dim>
					<dim>32</dim>
					<dim>1</dim>
					<dim>1</dim>
				</port>
			</input>
			<output>
				<port id="1" precision="FP32">
					<dim>16</dim>
					<dim>32</dim>
					<dim>1</dim>
					<dim>1</dim>
				</port>
			</output>
		</layer>
		<layer id="33" name="MobilenetV2/expanded_conv/project/Conv2D/fq_weights_1/Copy/out_low5469_const" type="Const" version="opset1">
			<data element_type="f32" offset="3088" shape="1" size="4"/>
			<output>
				<port id="1" precision="FP32">
					<dim>1</dim>
				</port>
			</output>
		</layer>
		<layer id="34" name="MobilenetV2/expanded_conv/project/Conv2D/fq_weights_1/Copy/out_high5470_const" type="Const" version="opset1">
			<data element_type="f32" offset="900" shape="1" size="4"/>
			<output>
				<port id="1" precision="FP32">
					<dim>1</dim>
				</port>
			</output>
		</layer>
		<layer id="35" name="10591063_const" type="Const" version="opset1">
			<data element_type="f32" offset="3092" shape="16,1,1,1" size="64"/>
			<output>
				<port id="1" precision="FP32">
					<dim>16</dim>
					<dim>1</dim>
					<dim>1</dim>
					<dim>1</dim>
				</port>
			</output>
		</layer>
		<layer id="36" name="10601064_const" type="Const" version="opset1">
			<data element_type="f32" offset="3156" shape="16,1,1,1" size="64"/>
			<output>
				<port id="1" precision="FP32">
					<dim>16</dim>
					<dim>1</dim>
					<dim>1</dim>
					<dim>1</dim>
				</port>
			</output>
		</layer>
		<layer id="37" name="MobilenetV2/expanded_conv/project/Conv2D/fq_weights_1" type="FakeQuantize" version="opset1">
			<data levels="255"/>
			<input>
				<port id="0">
					<dim>16</dim>
					<dim>32</dim>
					<dim>1</dim>
					<dim>1</dim>
				</port>
				<port id="1">
					<dim>1</dim>
				</port>
				<port id="2">
					<dim>1</dim>
				</port>
				<port id="3">
					<dim>16</dim>
					<dim>1</dim>
					<dim>1</dim>
					<dim>1</dim>
				</port>
				<port id="4">
					<dim>16</dim>
					<dim>1</dim>
					<dim>1</dim>
					<dim>1</dim>
				</port>
			</input>
			<output>
				<port id="5" precision="FP32">
					<dim>16</dim>
					<dim>32</dim>
					<dim>1</dim>
					<dim>1</dim>
				</port>
			</output>
		</layer>
		<layer id="38" name="MobilenetV2/expanded_conv/project/Conv2D" type="Convolution" version="opset1">
			<data auto_pad="same_upper" dilations="1,1" output_padding="0,0" pads_begin="0,0" pads_end="0,0" strides="1,1"/>
			<input>
				<port id="0">
					<dim>1</dim>
					<dim>32</dim>
					<dim>112</dim>
					<dim>112</dim>
				</port>
				<port id="1">
					<dim>16</dim>
					<dim>32</dim>
					<dim>1</dim>
					<dim>1</dim>
				</port>
			</input>
			<output>
				<port id="2" precision="FP32">
					<dim>1</dim>
					<dim>16</dim>
					<dim>112</dim>
					<dim>112</dim>
				</port>
			</output>
		</layer>
		<layer id="39" name="data_add_98709875/copy_const286_const" type="Const" version="opset1">
			<data element_type="f32" offset="3220" shape="1,16,1,1" size="64"/>
			<output>
				<port id="1" precision="FP32">
					<dim>1</dim>
					<dim>16</dim>
					<dim>1</dim>
					<dim>1</dim>
				</port>
			</output>
		</layer>
		<layer id="40" name="MobilenetV2/expanded_conv/project/BatchNorm/FusedBatchNormV3/variance/Fused_Add_" type="Add" version="opset1">
			<input>
				<port id="0">
					<dim>1</dim>
					<dim>16</dim>
					<dim>112</dim>
					<dim>112</dim>
				</port>
				<port id="1">
					<dim>1</dim>
					<dim>16</dim>
					<dim>1</dim>
					<dim>1</dim>
				</port>
			</input>
			<output>
				<port id="2" precision="FP32">
					<dim>1</dim>
					<dim>16</dim>
					<dim>112</dim>
					<dim>112</dim>
				</port>
			</output>
		</layer>
		<layer id="41" name="MobilenetV2/expanded_conv_1/expand/BatchNorm/FusedBatchNormV3/mean/Fused_Mul_1071110713_const288_const" type="Const" version="opset1">
			<data element_type="f32" offset="3284" shape="96,16,1,1" size="6144"/>
			<output>
				<port id="1" precision="FP32">
					<dim>96</dim>
					<dim>16</dim>
					<dim>1</dim>
					<dim>1</dim>
				</port>
			</output>
		</layer>
		<layer id="42" name="MobilenetV2/expanded_conv_1/expand/Conv2D" type="Convolution" version="opset1">
			<data auto_pad="same_upper" dilations="1,1" output_padding="0,0" pads_begin="0,0" pads_end="0,0" strides="1,1"/>
			<input>
				<port id="0">
					<dim>1</dim>
					<dim>16</dim>
					<dim>112</dim>
					<dim>112</dim>
				</port>
				<port id="1">
					<dim>96</dim>
					<dim>16</dim>
					<dim>1</dim>
					<dim>1</dim>
				</port>
			</input>
			<output>
				<port id="2" precision="FP32">
					<dim>1</dim>
					<dim>96</dim>
					<dim>112</dim>
					<dim>112</dim>
				</port>
			</output>
		</layer>
		<layer id="43" name="data_add_98789883/copy_const290_const" type="Const" version="opset1">
			<data element_type="f32" offset="9428" shape="1,96,1,1" size="384"/>
			<output>
				<port id="1" precision="FP32">
					<dim>1</dim>
					<dim>96</dim>
					<dim>1</dim>
					<dim>1</dim>
				</port>
			</output>
		</layer>
		<layer id="44" name="MobilenetV2/expanded_conv_1/expand/BatchNorm/FusedBatchNormV3/variance/Fused_Add_" type="Add" version="opset1">
			<input>
				<port id="0">
					<dim>1</dim>
					<dim>96</dim>
					<dim>112</dim>
					<dim>112</dim>
				</port>
				<port id="1">
					<dim>1</dim>
					<dim>96</dim>
					<dim>1</dim>
					<dim>1</dim>
				</port>
			</input>
			<output>
				<port id="2" precision="FP32">
					<dim>1</dim>
					<dim>96</dim>
					<dim>112</dim>
					<dim>112</dim>
				</port>
			</output>
		</layer>
		<layer id="45" name="MobilenetV2/expanded_conv_1/expand/Relu6" type="Clamp" version="opset1">
			<data max="6" min="0"/>
			<input>
				<port id="0">
					<dim>1</dim>
					<dim>96</dim>
					<dim>112</dim>
					<dim>112</dim>
				</port>
			</input>
			<output>
				<port id="1" precision="FP32">
					<dim>1</dim>
					<dim>96</dim>
					<dim>112</dim>
					<dim>112</dim>
				</port>
			</output>
		</layer>
		<layer id="46" name="11071111_const" type="Const" version="opset1">
			<data element_type="f32" offset="9812" shape="1,96,1,1" size="384"/>
			<output>
				<port id="1" precision="FP32">
					<dim>1</dim>
					<dim>96</dim>
					<dim>1</dim>
					<dim>1</dim>
				</port>
			</output>
		</layer>
		<layer id="47" name="11081112_const" type="Const" version="opset1">
			<data element_type="f32" offset="10196" shape="1,96,1,1" size="384"/>
			<output>
				<port id="1" precision="FP32">
					<dim>1</dim>
					<dim>96</dim>
					<dim>1</dim>
					<dim>1</dim>
				</port>
			</output>
		</layer>
		<layer id="48" name="11091113_const" type="Const" version="opset1">
			<data element_type="f32" offset="9812" shape="1,96,1,1" size="384"/>
			<output>
				<port id="1" precision="FP32">
					<dim>1</dim>
					<dim>96</dim>
					<dim>1</dim>
					<dim>1</dim>
				</port>
			</output>
		</layer>
		<layer id="49" name="11101114_const" type="Const" version="opset1">
			<data element_type="f32" offset="10196" shape="1,96,1,1" size="384"/>
			<output>
				<port id="1" precision="FP32">
					<dim>1</dim>
					<dim>96</dim>
					<dim>1</dim>
					<dim>1</dim>
				</port>
			</output>
		</layer>
		<layer id="50" name="MobilenetV2/expanded_conv_1/depthwise/depthwise/fq_input_0" type="FakeQuantize" version="opset1">
			<data levels="256"/>
			<input>
				<port id="0">
					<dim>1</dim>
					<dim>96</dim>
					<dim>112</dim>
					<dim>112</dim>
				</port>
				<port id="1">
					<dim>1</dim>
					<dim>96</dim>
					<dim>1</dim>
					<dim>1</dim>
				</port>
				<port id="2">
					<dim>1</dim>
					<dim>96</dim>
					<dim>1</dim>
					<dim>1</dim>
				</port>
				<port id="3">
					<dim>1</dim>
					<dim>96</dim>
					<dim>1</dim>
					<dim>1</dim>
				</port>
				<port id="4">
					<dim>1</dim>
					<dim>96</dim>
					<dim>1</dim>
					<dim>1</dim>
				</port>
			</input>
			<output>
				<port id="5" precision="FP32">
					<dim>1</dim>
					<dim>96</dim>
					<dim>112</dim>
					<dim>112</dim>
				</port>
			</output>
		</layer>
		<layer id="51" name="MobilenetV2/expanded_conv_1/depthwise/depthwise/fq_weights_1/Convert_to_float/Cast_06111_const" type="Const" version="opset1">
			<data element_type="u8" offset="10580" shape="96,1,3,3" size="864"/>
			<output>
				<port id="1" precision="U8">
					<dim>96</dim>
					<dim>1</dim>
					<dim>3</dim>
					<dim>3</dim>
				</port>
			</output>
		</layer>
		<layer id="52" name="MobilenetV2/expanded_conv_1/depthwise/depthwise/fq_weights_1/Convert_to_float" type="Convert" version="opset1">
			<data destination_type="f32"/>
			<input>
				<port id="0">
					<dim>96</dim>
					<dim>1</dim>
					<dim>3</dim>
					<dim>3</dim>
				</port>
			</input>
			<output>
				<port id="1" precision="FP32">
					<dim>96</dim>
					<dim>1</dim>
					<dim>3</dim>
					<dim>3</dim>
				</port>
			</output>
		</layer>
		<layer id="53" name="MobilenetV2/expanded_conv_1/depthwise/depthwise/fq_weights_1/Copy/out_low5245_const" type="Const" version="opset1">
			<data element_type="f32" offset="3088" shape="1" size="4"/>
			<output>
				<port id="1" precision="FP32">
					<dim>1</dim>
				</port>
			</output>
		</layer>
		<layer id="54" name="MobilenetV2/expanded_conv_1/depthwise/depthwise/fq_weights_1/Copy/out_high5246_const" type="Const" version="opset1">
			<data element_type="f32" offset="900" shape="1" size="4"/>
			<output>
				<port id="1" precision="FP32">
					<dim>1</dim>
				</port>
			</output>
		</layer>
		<layer id="55" name="11191123_const" type="Const" version="opset1">
			<data element_type="f32" offset="11444" shape="96,1,1,1" size="384"/>
			<output>
				<port id="1" precision="FP32">
					<dim>96</dim>
					<dim>1</dim>
					<dim>1</dim>
					<dim>1</dim>
				</port>
			</output>
		</layer>
		<layer id="56" name="11201124_const" type="Const" version="opset1">
			<data element_type="f32" offset="11828" shape="96,1,1,1" size="384"/>
			<output>
				<port id="1" precision="FP32">
					<dim>96</dim>
					<dim>1</dim>
					<dim>1</dim>
					<dim>1</dim>
				</port>
			</output>
		</layer>
		<layer id="57" name="MobilenetV2/expanded_conv_1/depthwise/depthwise/fq_weights_1" type="FakeQuantize" version="opset1">
			<data levels="255"/>
			<input>
				<port id="0">
					<dim>96</dim>
					<dim>1</dim>
					<dim>3</dim>
					<dim>3</dim>
				</port>
				<port id="1">
					<dim>1</dim>
				</port>
				<port id="2">
					<dim>1</dim>
				</port>
				<port id="3">
					<dim>96</dim>
					<dim>1</dim>
					<dim>1</dim>
					<dim>1</dim>
				</port>
				<port id="4">
					<dim>96</dim>
					<dim>1</dim>
					<dim>1</dim>
					<dim>1</dim>
				</port>
			</input>
			<output>
				<port id="5" precision="FP32">
					<dim>96</dim>
					<dim>1</dim>
					<dim>3</dim>
					<dim>3</dim>
				</port>
			</output>
		</layer>
		<layer id="58" name="6758/value6760_const" type="Const" version="opset1">
			<data element_type="i64" offset="12212" shape="4" size="32"/>
			<output>
				<port id="1" precision="I64">
					<dim>4</dim>
				</port>
			</output>
		</layer>
		<layer id="59" name="6758" type="Reshape" version="opset1">
			<data special_zero="True"/>
			<input>
				<port id="0">
					<dim>96</dim>
					<dim>1</dim>
					<dim>3</dim>
					<dim>3</dim>
				</port>
				<port id="1">
					<dim>4</dim>
				</port>
			</input>
			<output>
				<port id="2" precision="FP32">
					<dim>96</dim>
					<dim>1</dim>
					<dim>3</dim>
					<dim>3</dim>
				</port>
			</output>
		</layer>
		<layer id="60" name="6826/value6828_const" type="Const" version="opset1">
			<data element_type="i64" offset="12244" shape="5" size="40"/>
			<output>
				<port id="1" precision="I64">
					<dim>5</dim>
				</port>
			</output>
		</layer>
		<layer id="61" name="6826" type="Reshape" version="opset1">
			<data special_zero="True"/>
			<input>
				<port id="0">
					<dim>96</dim>
					<dim>1</dim>
					<dim>3</dim>
					<dim>3</dim>
				</port>
				<port id="1">
					<dim>5</dim>
				</port>
			</input>
			<output>
				<port id="2" precision="FP32">
					<dim>96</dim>
					<dim>1</dim>
					<dim>1</dim>
					<dim>3</dim>
					<dim>3</dim>
				</port>
			</output>
		</layer>
		<layer id="62" name="MobilenetV2/expanded_conv_1/depthwise/depthwise" type="GroupConvolution" version="opset1">
			<data auto_pad="same_upper" dilations="1,1" output_padding="0,0" pads_begin="0,0" pads_end="1,1" strides="2,2"/>
			<input>
				<port id="0">
					<dim>1</dim>
					<dim>96</dim>
					<dim>112</dim>
					<dim>112</dim>
				</port>
				<port id="1">
					<dim>96</dim>
					<dim>1</dim>
					<dim>1</dim>
					<dim>3</dim>
					<dim>3</dim>
				</port>
			</input>
			<output>
				<port id="2" precision="FP32">
					<dim>1</dim>
					<dim>96</dim>
					<dim>56</dim>
					<dim>56</dim>
				</port>
			</output>
		</layer>
		<layer id="63" name="data_add_98869891/copy_const295_const" type="Const" version="opset1">
			<data element_type="f32" offset="12284" shape="1,96,1,1" size="384"/>
			<output>
				<port id="1" precision="FP32">
					<dim>1</dim>
					<dim>96</dim>
					<dim>1</dim>
					<dim>1</dim>
				</port>
			</output>
		</layer>
		<layer id="64" name="MobilenetV2/expanded_conv_1/depthwise/BatchNorm/FusedBatchNormV3/variance/Fused_Add_" type="Add" version="opset1">
			<input>
				<port id="0">
					<dim>1</dim>
					<dim>96</dim>
					<dim>56</dim>
					<dim>56</dim>
				</port>
				<port id="1">
					<dim>1</dim>
					<dim>96</dim>
					<dim>1</dim>
					<dim>1</dim>
				</port>
			</input>
			<output>
				<port id="2" precision="FP32">
					<dim>1</dim>
					<dim>96</dim>
					<dim>56</dim>
					<dim>56</dim>
				</port>
			</output>
		</layer>
		<layer id="65" name="MobilenetV2/expanded_conv_1/depthwise/Relu6" type="Clamp" version="opset1">
			<data max="6" min="0"/>
			<input>
				<port id="0">
					<dim>1</dim>
					<dim>96</dim>
					<dim>56</dim>
					<dim>56</dim>
				</port>
			</input>
			<output>
				<port id="1" precision="FP32">
					<dim>1</dim>
					<dim>96</dim>
					<dim>56</dim>
					<dim>56</dim>
				</port>
			</output>
		</layer>
		<layer id="66" name="18571861_const" type="Const" version="opset1">
			<data element_type="f32" offset="12668" shape="" size="4"/>
			<output>
				<port id="1" precision="FP32"/>
			</output>
		</layer>
		<layer id="67" name="18581862_const" type="Const" version="opset1">
			<data element_type="f32" offset="2572" shape="" size="4"/>
			<output>
				<port id="1" precision="FP32"/>
			</output>
		</layer>
		<layer id="68" name="18591863_const" type="Const" version="opset1">
			<data element_type="f32" offset="12668" shape="" size="4"/>
			<output>
				<port id="1" precision="FP32"/>
			</output>
		</layer>
		<layer id="69" name="18601864_const" type="Const" version="opset1">
			<data element_type="f32" offset="2572" shape="" size="4"/>
			<output>
				<port id="1" precision="FP32"/>
			</output>
		</layer>
		<layer id="70" name="MobilenetV2/expanded_conv_1/project/Conv2D/fq_input_0" type="FakeQuantize" version="opset1">
			<data levels="256"/>
			<input>
				<port id="0">
					<dim>1</dim>
					<dim>96</dim>
					<dim>56</dim>
					<dim>56</dim>
				</port>
				<port id="1"/>
				<port id="2"/>
				<port id="3"/>
				<port id="4"/>
			</input>
			<output>
				<port id="5" precision="FP32">
					<dim>1</dim>
					<dim>96</dim>
					<dim>56</dim>
					<dim>56</dim>
				</port>
			</output>
		</layer>
		<layer id="71" name="MobilenetV2/expanded_conv_1/project/Conv2D/fq_weights_1/Convert_to_float/Cast_06053_const" type="Const" version="opset1">
			<data element_type="u8" offset="12672" shape="24,96,1,1" size="2304"/>
			<output>
				<port id="1" precision="U8">
					<dim>24</dim>
					<dim>96</dim>
					<dim>1</dim>
					<dim>1</dim>
				</port>
			</output>
		</layer>
		<layer id="72" name="MobilenetV2/expanded_conv_1/project/Conv2D/fq_weights_1/Convert_to_float" type="Convert" version="opset1">
			<data destination_type="f32"/>
			<input>
				<port id="0">
					<dim>24</dim>
					<dim>96</dim>
					<dim>1</dim>
					<dim>1</dim>
				</port>
			</input>
			<output>
				<port id="1" precision="FP32">
					<dim>24</dim>
					<dim>96</dim>
					<dim>1</dim>
					<dim>1</dim>
				</port>
			</output>
		</layer>
		<layer id="73" name="MobilenetV2/expanded_conv_1/project/Conv2D/fq_weights_1/Copy/out_low5125_const" type="Const" version="opset1">
			<data element_type="f32" offset="14976" shape="1" size="4"/>
			<output>
				<port id="1" precision="FP32">
					<dim>1</dim>
				</port>
			</output>
		</layer>
		<layer id="74" name="MobilenetV2/expanded_conv_1/project/Conv2D/fq_weights_1/Copy/out_high5126_const" type="Const" version="opset1">
			<data element_type="f32" offset="900" shape="1" size="4"/>
			<output>
				<port id="1" precision="FP32">
					<dim>1</dim>
				</port>
			</output>
		</layer>
		<layer id="75" name="18691873_const" type="Const" version="opset1">
			<data element_type="f32" offset="14980" shape="24,1,1,1" size="96"/>
			<output>
				<port id="1" precision="FP32">
					<dim>24</dim>
					<dim>1</dim>
					<dim>1</dim>
					<dim>1</dim>
				</port>
			</output>
		</layer>
		<layer id="76" name="18701874_const" type="Const" version="opset1">
			<data element_type="f32" offset="15076" shape="24,1,1,1" size="96"/>
			<output>
				<port id="1" precision="FP32">
					<dim>24</dim>
					<dim>1</dim>
					<dim>1</dim>
					<dim>1</dim>
				</port>
			</output>
		</layer>
		<layer id="77" name="MobilenetV2/expanded_conv_1/project/Conv2D/fq_weights_1" type="FakeQuantize" version="opset1">
			<data levels="255"/>
			<input>
				<port id="0">
					<dim>24</dim>
					<dim>96</dim>
					<dim>1</dim>
					<dim>1</dim>
				</port>
				<port id="1">
					<dim>1</dim>
				</port>
				<port id="2">
					<dim>1</dim>
				</port>
				<port id="3">
					<dim>24</dim>
					<dim>1</dim>
					<dim>1</dim>
					<dim>1</dim>
				</port>
				<port id="4">
					<dim>24</dim>
					<dim>1</dim>
					<dim>1</dim>
					<dim>1</dim>
				</port>
			</input>
			<output>
				<port id="5" precision="FP32">
					<dim>24</dim>
					<dim>96</dim>
					<dim>1</dim>
					<dim>1</dim>
				</port>
			</output>
		</layer>
		<layer id="78" name="MobilenetV2/expanded_conv_1/project/Conv2D" type="Convolution" version="opset1">
			<data auto_pad="same_upper" dilations="1,1" output_padding="0,0" pads_begin="0,0" pads_end="0,0" strides="1,1"/>
			<input>
				<port id="0">
					<dim>1</dim>
					<dim>96</dim>
					<dim>56</dim>
					<dim>56</dim>
				</port>
				<port id="1">
					<dim>24</dim>
					<dim>96</dim>
					<dim>1</dim>
					<dim>1</dim>
				</port>
			</input>
			<output>
				<port id="2" precision="FP32">
					<dim>1</dim>
					<dim>24</dim>
					<dim>56</dim>
					<dim>56</dim>
				</port>
			</output>
		</layer>
		<layer id="79" name="data_add_98949899/copy_const300_const" type="Const" version="opset1">
			<data element_type="f32" offset="15172" shape="1,24,1,1" size="96"/>
			<output>
				<port id="1" precision="FP32">
					<dim>1</dim>
					<dim>24</dim>
					<dim>1</dim>
					<dim>1</dim>
				</port>
			</output>
		</layer>
		<layer id="80" name="MobilenetV2/expanded_conv_1/project/BatchNorm/FusedBatchNormV3/variance/Fused_Add_" type="Add" version="opset1">
			<input>
				<port id="0">
					<dim>1</dim>
					<dim>24</dim>
					<dim>56</dim>
					<dim>56</dim>
				</port>
				<port id="1">
					<dim>1</dim>
					<dim>24</dim>
					<dim>1</dim>
					<dim>1</dim>
				</port>
			</input>
			<output>
				<port id="2" precision="FP32">
					<dim>1</dim>
					<dim>24</dim>
					<dim>56</dim>
					<dim>56</dim>
				</port>
			</output>
		</layer>
		<layer id="81" name="11771181_const" type="Const" version="opset1">
			<data element_type="f32" offset="15268" shape="" size="4"/>
			<output>
				<port id="1" precision="FP32"/>
			</output>
		</layer>
		<layer id="82" name="11781182_const" type="Const" version="opset1">
			<data element_type="f32" offset="15272" shape="" size="4"/>
			<output>
				<port id="1" precision="FP32"/>
			</output>
		</layer>
		<layer id="83" name="11791183_const" type="Const" version="opset1">
			<data element_type="f32" offset="15268" shape="" size="4"/>
			<output>
				<port id="1" precision="FP32"/>
			</output>
		</layer>
		<layer id="84" name="11801184_const" type="Const" version="opset1">
			<data element_type="f32" offset="15272" shape="" size="4"/>
			<output>
				<port id="1" precision="FP32"/>
			</output>
		</layer>
		<layer id="85" name="MobilenetV2/expanded_conv_2/add/fq_input_1" type="FakeQuantize" version="opset1">
			<data levels="256"/>
			<input>
				<port id="0">
					<dim>1</dim>
					<dim>24</dim>
					<dim>56</dim>
					<dim>56</dim>
				</port>
				<port id="1"/>
				<port id="2"/>
				<port id="3"/>
				<port id="4"/>
			</input>
			<output>
				<port id="5" precision="FP32">
					<dim>1</dim>
					<dim>24</dim>
					<dim>56</dim>
					<dim>56</dim>
				</port>
			</output>
		</layer>
		<layer id="86" name="MobilenetV2/expanded_conv_2/expand/Conv2D/fq_weights_1/Convert_to_float/Cast_06055_const" type="Const" version="opset1">
			<data element_type="u8" offset="15276" shape="144,24,1,1" size="3456"/>
			<output>
				<port id="1" precision="U8">
					<dim>144</dim>
					<dim>24</dim>
					<dim>1</dim>
					<dim>1</dim>
				</port>
			</output>
		</layer>
		<layer id="87" name="MobilenetV2/expanded_conv_2/expand/Conv2D/fq_weights_1/Convert_to_float" type="Convert" version="opset1">
			<data destination_type="f32"/>
			<input>
				<port id="0">
					<dim>144</dim>
					<dim>24</dim>
					<dim>1</dim>
					<dim>1</dim>
				</port>
			</input>
			<output>
				<port id="1" precision="FP32">
					<dim>144</dim>
					<dim>24</dim>
					<dim>1</dim>
					<dim>1</dim>
				</port>
			</output>
		</layer>
		<layer id="88" name="MobilenetV2/expanded_conv_2/expand/Conv2D/fq_weights_1/Copy/out_low5485_const" type="Const" version="opset1">
			<data element_type="f32" offset="14976" shape="1" size="4"/>
			<output>
				<port id="1" precision="FP32">
					<dim>1</dim>
				</port>
			</output>
		</layer>
		<layer id="89" name="MobilenetV2/expanded_conv_2/expand/Conv2D/fq_weights_1/Copy/out_high5486_const" type="Const" version="opset1">
			<data element_type="f32" offset="900" shape="1" size="4"/>
			<output>
				<port id="1" precision="FP32">
					<dim>1</dim>
				</port>
			</output>
		</layer>
		<layer id="90" name="16691673_const" type="Const" version="opset1">
			<data element_type="f32" offset="18732" shape="144,1,1,1" size="576"/>
			<output>
				<port id="1" precision="FP32">
					<dim>144</dim>
					<dim>1</dim>
					<dim>1</dim>
					<dim>1</dim>
				</port>
			</output>
		</layer>
		<layer id="91" name="16701674_const" type="Const" version="opset1">
			<data element_type="f32" offset="19308" shape="144,1,1,1" size="576"/>
			<output>
				<port id="1" precision="FP32">
					<dim>144</dim>
					<dim>1</dim>
					<dim>1</dim>
					<dim>1</dim>
				</port>
			</output>
		</layer>
		<layer id="92" name="MobilenetV2/expanded_conv_2/expand/Conv2D/fq_weights_1" type="FakeQuantize" version="opset1">
			<data levels="255"/>
			<input>
				<port id="0">
					<dim>144</dim>
					<dim>24</dim>
					<dim>1</dim>
					<dim>1</dim>
				</port>
				<port id="1">
					<dim>1</dim>
				</port>
				<port id="2">
					<dim>1</dim>
				</port>
				<port id="3">
					<dim>144</dim>
					<dim>1</dim>
					<dim>1</dim>
					<dim>1</dim>
				</port>
				<port id="4">
					<dim>144</dim>
					<dim>1</dim>
					<dim>1</dim>
					<dim>1</dim>
				</port>
			</input>
			<output>
				<port id="5" precision="FP32">
					<dim>144</dim>
					<dim>24</dim>
					<dim>1</dim>
					<dim>1</dim>
				</port>
			</output>
		</layer>
		<layer id="93" name="MobilenetV2/expanded_conv_2/expand/Conv2D" type="Convolution" version="opset1">
			<data auto_pad="same_upper" dilations="1,1" output_padding="0,0" pads_begin="0,0" pads_end="0,0" strides="1,1"/>
			<input>
				<port id="0">
					<dim>1</dim>
					<dim>24</dim>
					<dim>56</dim>
					<dim>56</dim>
				</port>
				<port id="1">
					<dim>144</dim>
					<dim>24</dim>
					<dim>1</dim>
					<dim>1</dim>
				</port>
			</input>
			<output>
				<port id="2" precision="FP32">
					<dim>1</dim>
					<dim>144</dim>
					<dim>56</dim>
					<dim>56</dim>
				</port>
			</output>
		</layer>
		<layer id="94" name="data_add_99029907/copy_const304_const" type="Const" version="opset1">
			<data element_type="f32" offset="19884" shape="1,144,1,1" size="576"/>
			<output>
				<port id="1" precision="FP32">
					<dim>1</dim>
					<dim>144</dim>
					<dim>1</dim>
					<dim>1</dim>
				</port>
			</output>
		</layer>
		<layer id="95" name="MobilenetV2/expanded_conv_2/expand/BatchNorm/FusedBatchNormV3/variance/Fused_Add_" type="Add" version="opset1">
			<input>
				<port id="0">
					<dim>1</dim>
					<dim>144</dim>
					<dim>56</dim>
					<dim>56</dim>
				</port>
				<port id="1">
					<dim>1</dim>
					<dim>144</dim>
					<dim>1</dim>
					<dim>1</dim>
				</port>
			</input>
			<output>
				<port id="2" precision="FP32">
					<dim>1</dim>
					<dim>144</dim>
					<dim>56</dim>
					<dim>56</dim>
				</port>
			</output>
		</layer>
		<layer id="96" name="MobilenetV2/expanded_conv_2/expand/Relu6" type="Clamp" version="opset1">
			<data max="6" min="0"/>
			<input>
				<port id="0">
					<dim>1</dim>
					<dim>144</dim>
					<dim>56</dim>
					<dim>56</dim>
				</port>
			</input>
			<output>
				<port id="1" precision="FP32">
					<dim>1</dim>
					<dim>144</dim>
					<dim>56</dim>
					<dim>56</dim>
				</port>
			</output>
		</layer>
		<layer id="97" name="20572061_const" type="Const" version="opset1">
			<data element_type="f32" offset="20460" shape="1,144,1,1" size="576"/>
			<output>
				<port id="1" precision="FP32">
					<dim>1</dim>
					<dim>144</dim>
					<dim>1</dim>
					<dim>1</dim>
				</port>
			</output>
		</layer>
		<layer id="98" name="20582062_const" type="Const" version="opset1">
			<data element_type="f32" offset="21036" shape="1,144,1,1" size="576"/>
			<output>
				<port id="1" precision="FP32">
					<dim>1</dim>
					<dim>144</dim>
					<dim>1</dim>
					<dim>1</dim>
				</port>
			</output>
		</layer>
		<layer id="99" name="20592063_const" type="Const" version="opset1">
			<data element_type="f32" offset="20460" shape="1,144,1,1" size="576"/>
			<output>
				<port id="1" precision="FP32">
					<dim>1</dim>
					<dim>144</dim>
					<dim>1</dim>
					<dim>1</dim>
				</port>
			</output>
		</layer>
		<layer id="100" name="20602064_const" type="Const" version="opset1">
			<data element_type="f32" offset="21036" shape="1,144,1,1" size="576"/>
			<output>
				<port id="1" precision="FP32">
					<dim>1</dim>
					<dim>144</dim>
					<dim>1</dim>
					<dim>1</dim>
				</port>
			</output>
		</layer>
		<layer id="101" name="MobilenetV2/expanded_conv_2/depthwise/depthwise/fq_input_0" type="FakeQuantize" version="opset1">
			<data levels="256"/>
			<input>
				<port id="0">
					<dim>1</dim>
					<dim>144</dim>
					<dim>56</dim>
					<dim>56</dim>
				</port>
				<port id="1">
					<dim>1</dim>
					<dim>144</dim>
					<dim>1</dim>
					<dim>1</dim>
				</port>
				<port id="2">
					<dim>1</dim>
					<dim>144</dim>
					<dim>1</dim>
					<dim>1</dim>
				</port>
				<port id="3">
					<dim>1</dim>
					<dim>144</dim>
					<dim>1</dim>
					<dim>1</dim>
				</port>
				<port id="4">
					<dim>1</dim>
					<dim>144</dim>
					<dim>1</dim>
					<dim>1</dim>
				</port>
			</input>
			<output>
				<port id="5" precision="FP32">
					<dim>1</dim>
					<dim>144</dim>
					<dim>56</dim>
					<dim>56</dim>
				</port>
			</output>
		</layer>
		<layer id="102" name="MobilenetV2/expanded_conv_2/depthwise/depthwise/fq_weights_1/Convert_to_float/Cast_06109_const" type="Const" version="opset1">
			<data element_type="u8" offset="21612" shape="144,1,3,3" size="1296"/>
			<output>
				<port id="1" precision="U8">
					<dim>144</dim>
					<dim>1</dim>
					<dim>3</dim>
					<dim>3</dim>
				</port>
			</output>
		</layer>
		<layer id="103" name="MobilenetV2/expanded_conv_2/depthwise/depthwise/fq_weights_1/Convert_to_float" type="Convert" version="opset1">
			<data destination_type="f32"/>
			<input>
				<port id="0">
					<dim>144</dim>
					<dim>1</dim>
					<dim>3</dim>
					<dim>3</dim>
				</port>
			</input>
			<output>
				<port id="1" precision="FP32">
					<dim>144</dim>
					<dim>1</dim>
					<dim>3</dim>
					<dim>3</dim>
				</port>
			</output>
		</layer>
		<layer id="104" name="MobilenetV2/expanded_conv_2/depthwise/depthwise/fq_weights_1/Copy/out_low5349_const" type="Const" version="opset1">
			<data element_type="f32" offset="14976" shape="1" size="4"/>
			<output>
				<port id="1" precision="FP32">
					<dim>1</dim>
				</port>
			</output>
		</layer>
		<layer id="105" name="MobilenetV2/expanded_conv_2/depthwise/depthwise/fq_weights_1/Copy/out_high5350_const" type="Const" version="opset1">
			<data element_type="f32" offset="900" shape="1" size="4"/>
			<output>
				<port id="1" precision="FP32">
					<dim>1</dim>
				</port>
			</output>
		</layer>
		<layer id="106" name="20692073_const" type="Const" version="opset1">
			<data element_type="f32" offset="22908" shape="144,1,1,1" size="576"/>
			<output>
				<port id="1" precision="FP32">
					<dim>144</dim>
					<dim>1</dim>
					<dim>1</dim>
					<dim>1</dim>
				</port>
			</output>
		</layer>
		<layer id="107" name="20702074_const" type="Const" version="opset1">
			<data element_type="f32" offset="23484" shape="144,1,1,1" size="576"/>
			<output>
				<port id="1" precision="FP32">
					<dim>144</dim>
					<dim>1</dim>
					<dim>1</dim>
					<dim>1</dim>
				</port>
			</output>
		</layer>
		<layer id="108" name="MobilenetV2/expanded_conv_2/depthwise/depthwise/fq_weights_1" type="FakeQuantize" version="opset1">
			<data levels="255"/>
			<input>
				<port id="0">
					<dim>144</dim>
					<dim>1</dim>
					<dim>3</dim>
					<dim>3</dim>
				</port>
				<port id="1">
					<dim>1</dim>
				</port>
				<port id="2">
					<dim>1</dim>
				</port>
				<port id="3">
					<dim>144</dim>
					<dim>1</dim>
					<dim>1</dim>
					<dim>1</dim>
				</port>
				<port id="4">
					<dim>144</dim>
					<dim>1</dim>
					<dim>1</dim>
					<dim>1</dim>
				</port>
			</input>
			<output>
				<port id="5" precision="FP32">
					<dim>144</dim>
					<dim>1</dim>
					<dim>3</dim>
					<dim>3</dim>
				</port>
			</output>
		</layer>
		<layer id="109" name="6778/value6780_const" type="Const" version="opset1">
			<data element_type="i64" offset="24060" shape="4" size="32"/>
			<output>
				<port id="1" precision="I64">
					<dim>4</dim>
				</port>
			</output>
		</layer>
		<layer id="110" name="6778" type="Reshape" version="opset1">
			<data special_zero="True"/>
			<input>
				<port id="0">
					<dim>144</dim>
					<dim>1</dim>
					<dim>3</dim>
					<dim>3</dim>
				</port>
				<port id="1">
					<dim>4</dim>
				</port>
			</input>
			<output>
				<port id="2" precision="FP32">
					<dim>144</dim>
					<dim>1</dim>
					<dim>3</dim>
					<dim>3</dim>
				</port>
			</output>
		</layer>
		<layer id="111" name="6846/value6848_const" type="Const" version="opset1">
			<data element_type="i64" offset="24092" shape="5" size="40"/>
			<output>
				<port id="1" precision="I64">
					<dim>5</dim>
				</port>
			</output>
		</layer>
		<layer id="112" name="6846" type="Reshape" version="opset1">
			<data special_zero="True"/>
			<input>
				<port id="0">
					<dim>144</dim>
					<dim>1</dim>
					<dim>3</dim>
					<dim>3</dim>
				</port>
				<port id="1">
					<dim>5</dim>
				</port>
			</input>
			<output>
				<port id="2" precision="FP32">
					<dim>144</dim>
					<dim>1</dim>
					<dim>1</dim>
					<dim>3</dim>
					<dim>3</dim>
				</port>
			</output>
		</layer>
		<layer id="113" name="MobilenetV2/expanded_conv_2/depthwise/depthwise" type="GroupConvolution" version="opset1">
			<data auto_pad="same_upper" dilations="1,1" output_padding="0,0" pads_begin="1,1" pads_end="1,1" strides="1,1"/>
			<input>
				<port id="0">
					<dim>1</dim>
					<dim>144</dim>
					<dim>56</dim>
					<dim>56</dim>
				</port>
				<port id="1">
					<dim>144</dim>
					<dim>1</dim>
					<dim>1</dim>
					<dim>3</dim>
					<dim>3</dim>
				</port>
			</input>
			<output>
				<port id="2" precision="FP32">
					<dim>1</dim>
					<dim>144</dim>
					<dim>56</dim>
					<dim>56</dim>
				</port>
			</output>
		</layer>
		<layer id="114" name="data_add_99109915/copy_const309_const" type="Const" version="opset1">
			<data element_type="f32" offset="24132" shape="1,144,1,1" size="576"/>
			<output>
				<port id="1" precision="FP32">
					<dim>1</dim>
					<dim>144</dim>
					<dim>1</dim>
					<dim>1</dim>
				</port>
			</output>
		</layer>
		<layer id="115" name="MobilenetV2/expanded_conv_2/depthwise/BatchNorm/FusedBatchNormV3/variance/Fused_Add_" type="Add" version="opset1">
			<input>
				<port id="0">
					<dim>1</dim>
					<dim>144</dim>
					<dim>56</dim>
					<dim>56</dim>
				</port>
				<port id="1">
					<dim>1</dim>
					<dim>144</dim>
					<dim>1</dim>
					<dim>1</dim>
				</port>
			</input>
			<output>
				<port id="2" precision="FP32">
					<dim>1</dim>
					<dim>144</dim>
					<dim>56</dim>
					<dim>56</dim>
				</port>
			</output>
		</layer>
		<layer id="116" name="MobilenetV2/expanded_conv_2/depthwise/Relu6" type="Clamp" version="opset1">
			<data max="6" min="0"/>
			<input>
				<port id="0">
					<dim>1</dim>
					<dim>144</dim>
					<dim>56</dim>
					<dim>56</dim>
				</port>
			</input>
			<output>
				<port id="1" precision="FP32">
					<dim>1</dim>
					<dim>144</dim>
					<dim>56</dim>
					<dim>56</dim>
				</port>
			</output>
		</layer>
		<layer id="117" name="12471251_const" type="Const" version="opset1">
			<data element_type="f32" offset="24708" shape="" size="4"/>
			<output>
				<port id="1" precision="FP32"/>
			</output>
		</layer>
		<layer id="118" name="12481252_const" type="Const" version="opset1">
			<data element_type="f32" offset="2572" shape="" size="4"/>
			<output>
				<port id="1" precision="FP32"/>
			</output>
		</layer>
		<layer id="119" name="12491253_const" type="Const" version="opset1">
			<data element_type="f32" offset="24708" shape="" size="4"/>
			<output>
				<port id="1" precision="FP32"/>
			</output>
		</layer>
		<layer id="120" name="12501254_const" type="Const" version="opset1">
			<data element_type="f32" offset="2572" shape="" size="4"/>
			<output>
				<port id="1" precision="FP32"/>
			</output>
		</layer>
		<layer id="121" name="MobilenetV2/expanded_conv_2/project/Conv2D/fq_input_0" type="FakeQuantize" version="opset1">
			<data levels="256"/>
			<input>
				<port id="0">
					<dim>1</dim>
					<dim>144</dim>
					<dim>56</dim>
					<dim>56</dim>
				</port>
				<port id="1"/>
				<port id="2"/>
				<port id="3"/>
				<port id="4"/>
			</input>
			<output>
				<port id="5" precision="FP32">
					<dim>1</dim>
					<dim>144</dim>
					<dim>56</dim>
					<dim>56</dim>
				</port>
			</output>
		</layer>
		<layer id="122" name="MobilenetV2/expanded_conv_2/project/Conv2D/fq_weights_1/Convert_to_float/Cast_06137_const" type="Const" version="opset1">
			<data element_type="u8" offset="24712" shape="24,144,1,1" size="3456"/>
			<output>
				<port id="1" precision="U8">
					<dim>24</dim>
					<dim>144</dim>
					<dim>1</dim>
					<dim>1</dim>
				</port>
			</output>
		</layer>
		<layer id="123" name="MobilenetV2/expanded_conv_2/project/Conv2D/fq_weights_1/Convert_to_float" type="Convert" version="opset1">
			<data destination_type="f32"/>
			<input>
				<port id="0">
					<dim>24</dim>
					<dim>144</dim>
					<dim>1</dim>
					<dim>1</dim>
				</port>
			</input>
			<output>
				<port id="1" precision="FP32">
					<dim>24</dim>
					<dim>144</dim>
					<dim>1</dim>
					<dim>1</dim>
				</port>
			</output>
		</layer>
		<layer id="124" name="MobilenetV2/expanded_conv_2/project/Conv2D/fq_weights_1/Copy/out_low5397_const" type="Const" version="opset1">
			<data element_type="f32" offset="28168" shape="1" size="4"/>
			<output>
				<port id="1" precision="FP32">
					<dim>1</dim>
				</port>
			</output>
		</layer>
		<layer id="125" name="MobilenetV2/expanded_conv_2/project/Conv2D/fq_weights_1/Copy/out_high5398_const" type="Const" version="opset1">
			<data element_type="f32" offset="900" shape="1" size="4"/>
			<output>
				<port id="1" precision="FP32">
					<dim>1</dim>
				</port>
			</output>
		</layer>
		<layer id="126" name="12591263_const" type="Const" version="opset1">
			<data element_type="f32" offset="28172" shape="24,1,1,1" size="96"/>
			<output>
				<port id="1" precision="FP32">
					<dim>24</dim>
					<dim>1</dim>
					<dim>1</dim>
					<dim>1</dim>
				</port>
			</output>
		</layer>
		<layer id="127" name="12601264_const" type="Const" version="opset1">
			<data element_type="f32" offset="28268" shape="24,1,1,1" size="96"/>
			<output>
				<port id="1" precision="FP32">
					<dim>24</dim>
					<dim>1</dim>
					<dim>1</dim>
					<dim>1</dim>
				</port>
			</output>
		</layer>
		<layer id="128" name="MobilenetV2/expanded_conv_2/project/Conv2D/fq_weights_1" type="FakeQuantize" version="opset1">
			<data levels="255"/>
			<input>
				<port id="0">
					<dim>24</dim>
					<dim>144</dim>
					<dim>1</dim>
					<dim>1</dim>
				</port>
				<port id="1">
					<dim>1</dim>
				</port>
				<port id="2">
					<dim>1</dim>
				</port>
				<port id="3">
					<dim>24</dim>
					<dim>1</dim>
					<dim>1</dim>
					<dim>1</dim>
				</port>
				<port id="4">
					<dim>24</dim>
					<dim>1</dim>
					<dim>1</dim>
					<dim>1</dim>
				</port>
			</input>
			<output>
				<port id="5" precision="FP32">
					<dim>24</dim>
					<dim>144</dim>
					<dim>1</dim>
					<dim>1</dim>
				</port>
			</output>
		</layer>
		<layer id="129" name="MobilenetV2/expanded_conv_2/project/Conv2D" type="Convolution" version="opset1">
			<data auto_pad="same_upper" dilations="1,1" output_padding="0,0" pads_begin="0,0" pads_end="0,0" strides="1,1"/>
			<input>
				<port id="0">
					<dim>1</dim>
					<dim>144</dim>
					<dim>56</dim>
					<dim>56</dim>
				</port>
				<port id="1">
					<dim>24</dim>
					<dim>144</dim>
					<dim>1</dim>
					<dim>1</dim>
				</port>
			</input>
			<output>
				<port id="2" precision="FP32">
					<dim>1</dim>
					<dim>24</dim>
					<dim>56</dim>
					<dim>56</dim>
				</port>
			</output>
		</layer>
		<layer id="130" name="data_add_99189923/copy_const314_const" type="Const" version="opset1">
			<data element_type="f32" offset="28364" shape="1,24,1,1" size="96"/>
			<output>
				<port id="1" precision="FP32">
					<dim>1</dim>
					<dim>24</dim>
					<dim>1</dim>
					<dim>1</dim>
				</port>
			</output>
		</layer>
		<layer id="131" name="MobilenetV2/expanded_conv_2/project/BatchNorm/FusedBatchNormV3/variance/Fused_Add_" type="Add" version="opset1">
			<input>
				<port id="0">
					<dim>1</dim>
					<dim>24</dim>
					<dim>56</dim>
					<dim>56</dim>
				</port>
				<port id="1">
					<dim>1</dim>
					<dim>24</dim>
					<dim>1</dim>
					<dim>1</dim>
				</port>
			</input>
			<output>
				<port id="2" precision="FP32">
					<dim>1</dim>
					<dim>24</dim>
					<dim>56</dim>
					<dim>56</dim>
				</port>
			</output>
		</layer>
		<layer id="132" name="11671171_const" type="Const" version="opset1">
			<data element_type="f32" offset="28460" shape="" size="4"/>
			<output>
				<port id="1" precision="FP32"/>
			</output>
		</layer>
		<layer id="133" name="11681172_const" type="Const" version="opset1">
			<data element_type="f32" offset="28464" shape="" size="4"/>
			<output>
				<port id="1" precision="FP32"/>
			</output>
		</layer>
		<layer id="134" name="11691173_const" type="Const" version="opset1">
			<data element_type="f32" offset="28460" shape="" size="4"/>
			<output>
				<port id="1" precision="FP32"/>
			</output>
		</layer>
		<layer id="135" name="11701174_const" type="Const" version="opset1">
			<data element_type="f32" offset="28464" shape="" size="4"/>
			<output>
				<port id="1" precision="FP32"/>
			</output>
		</layer>
		<layer id="136" name="MobilenetV2/expanded_conv_2/add/fq_input_0" type="FakeQuantize" version="opset1">
			<data levels="256"/>
			<input>
				<port id="0">
					<dim>1</dim>
					<dim>24</dim>
					<dim>56</dim>
					<dim>56</dim>
				</port>
				<port id="1"/>
				<port id="2"/>
				<port id="3"/>
				<port id="4"/>
			</input>
			<output>
				<port id="5" precision="FP32">
					<dim>1</dim>
					<dim>24</dim>
					<dim>56</dim>
					<dim>56</dim>
				</port>
			</output>
		</layer>
		<layer id="137" name="MobilenetV2/expanded_conv_2/add" type="Add" version="opset1">
			<input>
				<port id="0">
					<dim>1</dim>
					<dim>24</dim>
					<dim>56</dim>
					<dim>56</dim>
				</port>
				<port id="1">
					<dim>1</dim>
					<dim>24</dim>
					<dim>56</dim>
					<dim>56</dim>
				</port>
			</input>
			<output>
				<port id="2" precision="FP32">
					<dim>1</dim>
					<dim>24</dim>
					<dim>56</dim>
					<dim>56</dim>
				</port>
			</output>
		</layer>
		<layer id="138" name="17771781_const" type="Const" version="opset1">
			<data element_type="f32" offset="28468" shape="" size="4"/>
			<output>
				<port id="1" precision="FP32"/>
			</output>
		</layer>
		<layer id="139" name="17781782_const" type="Const" version="opset1">
			<data element_type="f32" offset="28472" shape="" size="4"/>
			<output>
				<port id="1" precision="FP32"/>
			</output>
		</layer>
		<layer id="140" name="17791783_const" type="Const" version="opset1">
			<data element_type="f32" offset="28468" shape="" size="4"/>
			<output>
				<port id="1" precision="FP32"/>
			</output>
		</layer>
		<layer id="141" name="17801784_const" type="Const" version="opset1">
			<data element_type="f32" offset="28472" shape="" size="4"/>
			<output>
				<port id="1" precision="FP32"/>
			</output>
		</layer>
		<layer id="142" name="MobilenetV2/expanded_conv_3/expand/Conv2D/fq_input_0" type="FakeQuantize" version="opset1">
			<data levels="256"/>
			<input>
				<port id="0">
					<dim>1</dim>
					<dim>24</dim>
					<dim>56</dim>
					<dim>56</dim>
				</port>
				<port id="1"/>
				<port id="2"/>
				<port id="3"/>
				<port id="4"/>
			</input>
			<output>
				<port id="5" precision="FP32">
					<dim>1</dim>
					<dim>24</dim>
					<dim>56</dim>
					<dim>56</dim>
				</port>
			</output>
		</layer>
		<layer id="143" name="MobilenetV2/expanded_conv_3/expand/Conv2D/fq_weights_1/Convert_to_float/Cast_06123_const" type="Const" version="opset1">
			<data element_type="u8" offset="28476" shape="144,24,1,1" size="3456"/>
			<output>
				<port id="1" precision="U8">
					<dim>144</dim>
					<dim>24</dim>
					<dim>1</dim>
					<dim>1</dim>
				</port>
			</output>
		</layer>
		<layer id="144" name="MobilenetV2/expanded_conv_3/expand/Conv2D/fq_weights_1/Convert_to_float" type="Convert" version="opset1">
			<data destination_type="f32"/>
			<input>
				<port id="0">
					<dim>144</dim>
					<dim>24</dim>
					<dim>1</dim>
					<dim>1</dim>
				</port>
			</input>
			<output>
				<port id="1" precision="FP32">
					<dim>144</dim>
					<dim>24</dim>
					<dim>1</dim>
					<dim>1</dim>
				</port>
			</output>
		</layer>
		<layer id="145" name="MobilenetV2/expanded_conv_3/expand/Conv2D/fq_weights_1/Copy/out_low5429_const" type="Const" version="opset1">
			<data element_type="f32" offset="28168" shape="1" size="4"/>
			<output>
				<port id="1" precision="FP32">
					<dim>1</dim>
				</port>
			</output>
		</layer>
		<layer id="146" name="MobilenetV2/expanded_conv_3/expand/Conv2D/fq_weights_1/Copy/out_high5430_const" type="Const" version="opset1">
			<data element_type="f32" offset="900" shape="1" size="4"/>
			<output>
				<port id="1" precision="FP32">
					<dim>1</dim>
				</port>
			</output>
		</layer>
		<layer id="147" name="17891793_const" type="Const" version="opset1">
			<data element_type="f32" offset="31932" shape="144,1,1,1" size="576"/>
			<output>
				<port id="1" precision="FP32">
					<dim>144</dim>
					<dim>1</dim>
					<dim>1</dim>
					<dim>1</dim>
				</port>
			</output>
		</layer>
		<layer id="148" name="17901794_const" type="Const" version="opset1">
			<data element_type="f32" offset="32508" shape="144,1,1,1" size="576"/>
			<output>
				<port id="1" precision="FP32">
					<dim>144</dim>
					<dim>1</dim>
					<dim>1</dim>
					<dim>1</dim>
				</port>
			</output>
		</layer>
		<layer id="149" name="MobilenetV2/expanded_conv_3/expand/Conv2D/fq_weights_1" type="FakeQuantize" version="opset1">
			<data levels="255"/>
			<input>
				<port id="0">
					<dim>144</dim>
					<dim>24</dim>
					<dim>1</dim>
					<dim>1</dim>
				</port>
				<port id="1">
					<dim>1</dim>
				</port>
				<port id="2">
					<dim>1</dim>
				</port>
				<port id="3">
					<dim>144</dim>
					<dim>1</dim>
					<dim>1</dim>
					<dim>1</dim>
				</port>
				<port id="4">
					<dim>144</dim>
					<dim>1</dim>
					<dim>1</dim>
					<dim>1</dim>
				</port>
			</input>
			<output>
				<port id="5" precision="FP32">
					<dim>144</dim>
					<dim>24</dim>
					<dim>1</dim>
					<dim>1</dim>
				</port>
			</output>
		</layer>
		<layer id="150" name="MobilenetV2/expanded_conv_3/expand/Conv2D" type="Convolution" version="opset1">
			<data auto_pad="same_upper" dilations="1,1" output_padding="0,0" pads_begin="0,0" pads_end="0,0" strides="1,1"/>
			<input>
				<port id="0">
					<dim>1</dim>
					<dim>24</dim>
					<dim>56</dim>
					<dim>56</dim>
				</port>
				<port id="1">
					<dim>144</dim>
					<dim>24</dim>
					<dim>1</dim>
					<dim>1</dim>
				</port>
			</input>
			<output>
				<port id="2" precision="FP32">
					<dim>1</dim>
					<dim>144</dim>
					<dim>56</dim>
					<dim>56</dim>
				</port>
			</output>
		</layer>
		<layer id="151" name="data_add_99269931/copy_const319_const" type="Const" version="opset1">
			<data element_type="f32" offset="33084" shape="1,144,1,1" size="576"/>
			<output>
				<port id="1" precision="FP32">
					<dim>1</dim>
					<dim>144</dim>
					<dim>1</dim>
					<dim>1</dim>
				</port>
			</output>
		</layer>
		<layer id="152" name="MobilenetV2/expanded_conv_3/expand/BatchNorm/FusedBatchNormV3/variance/Fused_Add_" type="Add" version="opset1">
			<input>
				<port id="0">
					<dim>1</dim>
					<dim>144</dim>
					<dim>56</dim>
					<dim>56</dim>
				</port>
				<port id="1">
					<dim>1</dim>
					<dim>144</dim>
					<dim>1</dim>
					<dim>1</dim>
				</port>
			</input>
			<output>
				<port id="2" precision="FP32">
					<dim>1</dim>
					<dim>144</dim>
					<dim>56</dim>
					<dim>56</dim>
				</port>
			</output>
		</layer>
		<layer id="153" name="MobilenetV2/expanded_conv_3/expand/Relu6" type="Clamp" version="opset1">
			<data max="6" min="0"/>
			<input>
				<port id="0">
					<dim>1</dim>
					<dim>144</dim>
					<dim>56</dim>
					<dim>56</dim>
				</port>
			</input>
			<output>
				<port id="1" precision="FP32">
					<dim>1</dim>
					<dim>144</dim>
					<dim>56</dim>
					<dim>56</dim>
				</port>
			</output>
		</layer>
		<layer id="154" name="16971701_const" type="Const" version="opset1">
			<data element_type="f32" offset="20460" shape="1,144,1,1" size="576"/>
			<output>
				<port id="1" precision="FP32">
					<dim>1</dim>
					<dim>144</dim>
					<dim>1</dim>
					<dim>1</dim>
				</port>
			</output>
		</layer>
		<layer id="155" name="16981702_const" type="Const" version="opset1">
			<data element_type="f32" offset="33660" shape="1,144,1,1" size="576"/>
			<output>
				<port id="1" precision="FP32">
					<dim>1</dim>
					<dim>144</dim>
					<dim>1</dim>
					<dim>1</dim>
				</port>
			</output>
		</layer>
		<layer id="156" name="16991703_const" type="Const" version="opset1">
			<data element_type="f32" offset="20460" shape="1,144,1,1" size="576"/>
			<output>
				<port id="1" precision="FP32">
					<dim>1</dim>
					<dim>144</dim>
					<dim>1</dim>
					<dim>1</dim>
				</port>
			</output>
		</layer>
		<layer id="157" name="17001704_const" type="Const" version="opset1">
			<data element_type="f32" offset="33660" shape="1,144,1,1" size="576"/>
			<output>
				<port id="1" precision="FP32">
					<dim>1</dim>
					<dim>144</dim>
					<dim>1</dim>
					<dim>1</dim>
				</port>
			</output>
		</layer>
		<layer id="158" name="MobilenetV2/expanded_conv_3/depthwise/depthwise/fq_input_0" type="FakeQuantize" version="opset1">
			<data levels="256"/>
			<input>
				<port id="0">
					<dim>1</dim>
					<dim>144</dim>
					<dim>56</dim>
					<dim>56</dim>
				</port>
				<port id="1">
					<dim>1</dim>
					<dim>144</dim>
					<dim>1</dim>
					<dim>1</dim>
				</port>
				<port id="2">
					<dim>1</dim>
					<dim>144</dim>
					<dim>1</dim>
					<dim>1</dim>
				</port>
				<port id="3">
					<dim>1</dim>
					<dim>144</dim>
					<dim>1</dim>
					<dim>1</dim>
				</port>
				<port id="4">
					<dim>1</dim>
					<dim>144</dim>
					<dim>1</dim>
					<dim>1</dim>
				</port>
			</input>
			<output>
				<port id="5" precision="FP32">
					<dim>1</dim>
					<dim>144</dim>
					<dim>56</dim>
					<dim>56</dim>
				</port>
			</output>
		</layer>
		<layer id="159" name="MobilenetV2/expanded_conv_3/depthwise/depthwise/fq_weights_1/Convert_to_float/Cast_06099_const" type="Const" version="opset1">
			<data element_type="u8" offset="34236" shape="144,1,3,3" size="1296"/>
			<output>
				<port id="1" precision="U8">
					<dim>144</dim>
					<dim>1</dim>
					<dim>3</dim>
					<dim>3</dim>
				</port>
			</output>
		</layer>
		<layer id="160" name="MobilenetV2/expanded_conv_3/depthwise/depthwise/fq_weights_1/Convert_to_float" type="Convert" version="opset1">
			<data destination_type="f32"/>
			<input>
				<port id="0">
					<dim>144</dim>
					<dim>1</dim>
					<dim>3</dim>
					<dim>3</dim>
				</port>
			</input>
			<output>
				<port id="1" precision="FP32">
					<dim>144</dim>
					<dim>1</dim>
					<dim>3</dim>
					<dim>3</dim>
				</port>
			</output>
		</layer>
		<layer id="161" name="MobilenetV2/expanded_conv_3/depthwise/depthwise/fq_weights_1/Copy/out_low5389_const" type="Const" version="opset1">
			<data element_type="f32" offset="28168" shape="1" size="4"/>
			<output>
				<port id="1" precision="FP32">
					<dim>1</dim>
				</port>
			</output>
		</layer>
		<layer id="162" name="MobilenetV2/expanded_conv_3/depthwise/depthwise/fq_weights_1/Copy/out_high5390_const" type="Const" version="opset1">
			<data element_type="f32" offset="900" shape="1" size="4"/>
			<output>
				<port id="1" precision="FP32">
					<dim>1</dim>
				</port>
			</output>
		</layer>
		<layer id="163" name="17091713_const" type="Const" version="opset1">
			<data element_type="f32" offset="35532" shape="144,1,1,1" size="576"/>
			<output>
				<port id="1" precision="FP32">
					<dim>144</dim>
					<dim>1</dim>
					<dim>1</dim>
					<dim>1</dim>
				</port>
			</output>
		</layer>
		<layer id="164" name="17101714_const" type="Const" version="opset1">
			<data element_type="f32" offset="36108" shape="144,1,1,1" size="576"/>
			<output>
				<port id="1" precision="FP32">
					<dim>144</dim>
					<dim>1</dim>
					<dim>1</dim>
					<dim>1</dim>
				</port>
			</output>
		</layer>
		<layer id="165" name="MobilenetV2/expanded_conv_3/depthwise/depthwise/fq_weights_1" type="FakeQuantize" version="opset1">
			<data levels="255"/>
			<input>
				<port id="0">
					<dim>144</dim>
					<dim>1</dim>
					<dim>3</dim>
					<dim>3</dim>
				</port>
				<port id="1">
					<dim>1</dim>
				</port>
				<port id="2">
					<dim>1</dim>
				</port>
				<port id="3">
					<dim>144</dim>
					<dim>1</dim>
					<dim>1</dim>
					<dim>1</dim>
				</port>
				<port id="4">
					<dim>144</dim>
					<dim>1</dim>
					<dim>1</dim>
					<dim>1</dim>
				</port>
			</input>
			<output>
				<port id="5" precision="FP32">
					<dim>144</dim>
					<dim>1</dim>
					<dim>3</dim>
					<dim>3</dim>
				</port>
			</output>
		</layer>
		<layer id="166" name="6750/value6752_const" type="Const" version="opset1">
			<data element_type="i64" offset="24060" shape="4" size="32"/>
			<output>
				<port id="1" precision="I64">
					<dim>4</dim>
				</port>
			</output>
		</layer>
		<layer id="167" name="6750" type="Reshape" version="opset1">
			<data special_zero="True"/>
			<input>
				<port id="0">
					<dim>144</dim>
					<dim>1</dim>
					<dim>3</dim>
					<dim>3</dim>
				</port>
				<port id="1">
					<dim>4</dim>
				</port>
			</input>
			<output>
				<port id="2" precision="FP32">
					<dim>144</dim>
					<dim>1</dim>
					<dim>3</dim>
					<dim>3</dim>
				</port>
			</output>
		</layer>
		<layer id="168" name="6818/value6820_const" type="Const" version="opset1">
			<data element_type="i64" offset="24092" shape="5" size="40"/>
			<output>
				<port id="1" precision="I64">
					<dim>5</dim>
				</port>
			</output>
		</layer>
		<layer id="169" name="6818" type="Reshape" version="opset1">
			<data special_zero="True"/>
			<input>
				<port id="0">
					<dim>144</dim>
					<dim>1</dim>
					<dim>3</dim>
					<dim>3</dim>
				</port>
				<port id="1">
					<dim>5</dim>
				</port>
			</input>
			<output>
				<port id="2" precision="FP32">
					<dim>144</dim>
					<dim>1</dim>
					<dim>1</dim>
					<dim>3</dim>
					<dim>3</dim>
				</port>
			</output>
		</layer>
		<layer id="170" name="MobilenetV2/expanded_conv_3/depthwise/depthwise" type="GroupConvolution" version="opset1">
			<data auto_pad="same_upper" dilations="1,1" output_padding="0,0" pads_begin="0,0" pads_end="1,1" strides="2,2"/>
			<input>
				<port id="0">
					<dim>1</dim>
					<dim>144</dim>
					<dim>56</dim>
					<dim>56</dim>
				</port>
				<port id="1">
					<dim>144</dim>
					<dim>1</dim>
					<dim>1</dim>
					<dim>3</dim>
					<dim>3</dim>
				</port>
			</input>
			<output>
				<port id="2" precision="FP32">
					<dim>1</dim>
					<dim>144</dim>
					<dim>28</dim>
					<dim>28</dim>
				</port>
			</output>
		</layer>
		<layer id="171" name="data_add_99349939/copy_const324_const" type="Const" version="opset1">
			<data element_type="f32" offset="36684" shape="1,144,1,1" size="576"/>
			<output>
				<port id="1" precision="FP32">
					<dim>1</dim>
					<dim>144</dim>
					<dim>1</dim>
					<dim>1</dim>
				</port>
			</output>
		</layer>
		<layer id="172" name="MobilenetV2/expanded_conv_3/depthwise/BatchNorm/FusedBatchNormV3/variance/Fused_Add_" type="Add" version="opset1">
			<input>
				<port id="0">
					<dim>1</dim>
					<dim>144</dim>
					<dim>28</dim>
					<dim>28</dim>
				</port>
				<port id="1">
					<dim>1</dim>
					<dim>144</dim>
					<dim>1</dim>
					<dim>1</dim>
				</port>
			</input>
			<output>
				<port id="2" precision="FP32">
					<dim>1</dim>
					<dim>144</dim>
					<dim>28</dim>
					<dim>28</dim>
				</port>
			</output>
		</layer>
		<layer id="173" name="MobilenetV2/expanded_conv_3/depthwise/Relu6" type="Clamp" version="opset1">
			<data max="6" min="0"/>
			<input>
				<port id="0">
					<dim>1</dim>
					<dim>144</dim>
					<dim>28</dim>
					<dim>28</dim>
				</port>
			</input>
			<output>
				<port id="1" precision="FP32">
					<dim>1</dim>
					<dim>144</dim>
					<dim>28</dim>
					<dim>28</dim>
				</port>
			</output>
		</layer>
		<layer id="174" name="10071011_const" type="Const" version="opset1">
			<data element_type="f32" offset="37260" shape="" size="4"/>
			<output>
				<port id="1" precision="FP32"/>
			</output>
		</layer>
		<layer id="175" name="10081012_const" type="Const" version="opset1">
			<data element_type="f32" offset="37264" shape="" size="4"/>
			<output>
				<port id="1" precision="FP32"/>
			</output>
		</layer>
		<layer id="176" name="10091013_const" type="Const" version="opset1">
			<data element_type="f32" offset="37260" shape="" size="4"/>
			<output>
				<port id="1" precision="FP32"/>
			</output>
		</layer>
		<layer id="177" name="10101014_const" type="Const" version="opset1">
			<data element_type="f32" offset="37264" shape="" size="4"/>
			<output>
				<port id="1" precision="FP32"/>
			</output>
		</layer>
		<layer id="178" name="MobilenetV2/expanded_conv_3/project/Conv2D/fq_input_0" type="FakeQuantize" version="opset1">
			<data levels="256"/>
			<input>
				<port id="0">
					<dim>1</dim>
					<dim>144</dim>
					<dim>28</dim>
					<dim>28</dim>
				</port>
				<port id="1"/>
				<port id="2"/>
				<port id="3"/>
				<port id="4"/>
			</input>
			<output>
				<port id="5" precision="FP32">
					<dim>1</dim>
					<dim>144</dim>
					<dim>28</dim>
					<dim>28</dim>
				</port>
			</output>
		</layer>
		<layer id="179" name="MobilenetV2/expanded_conv_3/project/Conv2D/fq_weights_1/Convert_to_float/Cast_06115_const" type="Const" version="opset1">
			<data element_type="u8" offset="37268" shape="32,144,1,1" size="4608"/>
			<output>
				<port id="1" precision="U8">
					<dim>32</dim>
					<dim>144</dim>
					<dim>1</dim>
					<dim>1</dim>
				</port>
			</output>
		</layer>
		<layer id="180" name="MobilenetV2/expanded_conv_3/project/Conv2D/fq_weights_1/Convert_to_float" type="Convert" version="opset1">
			<data destination_type="f32"/>
			<input>
				<port id="0">
					<dim>32</dim>
					<dim>144</dim>
					<dim>1</dim>
					<dim>1</dim>
				</port>
			</input>
			<output>
				<port id="1" precision="FP32">
					<dim>32</dim>
					<dim>144</dim>
					<dim>1</dim>
					<dim>1</dim>
				</port>
			</output>
		</layer>
		<layer id="181" name="MobilenetV2/expanded_conv_3/project/Conv2D/fq_weights_1/Copy/out_low5365_const" type="Const" version="opset1">
			<data element_type="f32" offset="41876" shape="1" size="4"/>
			<output>
				<port id="1" precision="FP32">
					<dim>1</dim>
				</port>
			</output>
		</layer>
		<layer id="182" name="MobilenetV2/expanded_conv_3/project/Conv2D/fq_weights_1/Copy/out_high5366_const" type="Const" version="opset1">
			<data element_type="f32" offset="900" shape="1" size="4"/>
			<output>
				<port id="1" precision="FP32">
					<dim>1</dim>
				</port>
			</output>
		</layer>
		<layer id="183" name="10191023_const" type="Const" version="opset1">
			<data element_type="f32" offset="41880" shape="32,1,1,1" size="128"/>
			<output>
				<port id="1" precision="FP32">
					<dim>32</dim>
					<dim>1</dim>
					<dim>1</dim>
					<dim>1</dim>
				</port>
			</output>
		</layer>
		<layer id="184" name="10201024_const" type="Const" version="opset1">
			<data element_type="f32" offset="42008" shape="32,1,1,1" size="128"/>
			<output>
				<port id="1" precision="FP32">
					<dim>32</dim>
					<dim>1</dim>
					<dim>1</dim>
					<dim>1</dim>
				</port>
			</output>
		</layer>
		<layer id="185" name="MobilenetV2/expanded_conv_3/project/Conv2D/fq_weights_1" type="FakeQuantize" version="opset1">
			<data levels="255"/>
			<input>
				<port id="0">
					<dim>32</dim>
					<dim>144</dim>
					<dim>1</dim>
					<dim>1</dim>
				</port>
				<port id="1">
					<dim>1</dim>
				</port>
				<port id="2">
					<dim>1</dim>
				</port>
				<port id="3">
					<dim>32</dim>
					<dim>1</dim>
					<dim>1</dim>
					<dim>1</dim>
				</port>
				<port id="4">
					<dim>32</dim>
					<dim>1</dim>
					<dim>1</dim>
					<dim>1</dim>
				</port>
			</input>
			<output>
				<port id="5" precision="FP32">
					<dim>32</dim>
					<dim>144</dim>
					<dim>1</dim>
					<dim>1</dim>
				</port>
			</output>
		</layer>
		<layer id="186" name="MobilenetV2/expanded_conv_3/project/Conv2D" type="Convolution" version="opset1">
			<data auto_pad="same_upper" dilations="1,1" output_padding="0,0" pads_begin="0,0" pads_end="0,0" strides="1,1"/>
			<input>
				<port id="0">
					<dim>1</dim>
					<dim>144</dim>
					<dim>28</dim>
					<dim>28</dim>
				</port>
				<port id="1">
					<dim>32</dim>
					<dim>144</dim>
					<dim>1</dim>
					<dim>1</dim>
				</port>
			</input>
			<output>
				<port id="2" precision="FP32">
					<dim>1</dim>
					<dim>32</dim>
					<dim>28</dim>
					<dim>28</dim>
				</port>
			</output>
		</layer>
		<layer id="187" name="data_add_99429947/copy_const329_const" type="Const" version="opset1">
			<data element_type="f32" offset="42136" shape="1,32,1,1" size="128"/>
			<output>
				<port id="1" precision="FP32">
					<dim>1</dim>
					<dim>32</dim>
					<dim>1</dim>
					<dim>1</dim>
				</port>
			</output>
		</layer>
		<layer id="188" name="MobilenetV2/expanded_conv_3/project/BatchNorm/FusedBatchNormV3/variance/Fused_Add_" type="Add" version="opset1">
			<input>
				<port id="0">
					<dim>1</dim>
					<dim>32</dim>
					<dim>28</dim>
					<dim>28</dim>
				</port>
				<port id="1">
					<dim>1</dim>
					<dim>32</dim>
					<dim>1</dim>
					<dim>1</dim>
				</port>
			</input>
			<output>
				<port id="2" precision="FP32">
					<dim>1</dim>
					<dim>32</dim>
					<dim>28</dim>
					<dim>28</dim>
				</port>
			</output>
		</layer>
		<layer id="189" name="10371041_const" type="Const" version="opset1">
			<data element_type="f32" offset="42264" shape="" size="4"/>
			<output>
				<port id="1" precision="FP32"/>
			</output>
		</layer>
		<layer id="190" name="10381042_const" type="Const" version="opset1">
			<data element_type="f32" offset="42268" shape="" size="4"/>
			<output>
				<port id="1" precision="FP32"/>
			</output>
		</layer>
		<layer id="191" name="10391043_const" type="Const" version="opset1">
			<data element_type="f32" offset="42264" shape="" size="4"/>
			<output>
				<port id="1" precision="FP32"/>
			</output>
		</layer>
		<layer id="192" name="10401044_const" type="Const" version="opset1">
			<data element_type="f32" offset="42268" shape="" size="4"/>
			<output>
				<port id="1" precision="FP32"/>
			</output>
		</layer>
		<layer id="193" name="MobilenetV2/expanded_conv_4/add/fq_input_1" type="FakeQuantize" version="opset1">
			<data levels="256"/>
			<input>
				<port id="0">
					<dim>1</dim>
					<dim>32</dim>
					<dim>28</dim>
					<dim>28</dim>
				</port>
				<port id="1"/>
				<port id="2"/>
				<port id="3"/>
				<port id="4"/>
			</input>
			<output>
				<port id="5" precision="FP32">
					<dim>1</dim>
					<dim>32</dim>
					<dim>28</dim>
					<dim>28</dim>
				</port>
			</output>
		</layer>
		<layer id="194" name="MobilenetV2/expanded_conv_4/expand/Conv2D/fq_weights_1/Convert_to_float/Cast_06091_const" type="Const" version="opset1">
			<data element_type="u8" offset="42272" shape="192,32,1,1" size="6144"/>
			<output>
				<port id="1" precision="U8">
					<dim>192</dim>
					<dim>32</dim>
					<dim>1</dim>
					<dim>1</dim>
				</port>
			</output>
		</layer>
		<layer id="195" name="MobilenetV2/expanded_conv_4/expand/Conv2D/fq_weights_1/Convert_to_float" type="Convert" version="opset1">
			<data destination_type="f32"/>
			<input>
				<port id="0">
					<dim>192</dim>
					<dim>32</dim>
					<dim>1</dim>
					<dim>1</dim>
				</port>
			</input>
			<output>
				<port id="1" precision="FP32">
					<dim>192</dim>
					<dim>32</dim>
					<dim>1</dim>
					<dim>1</dim>
				</port>
			</output>
		</layer>
		<layer id="196" name="MobilenetV2/expanded_conv_4/expand/Conv2D/fq_weights_1/Copy/out_low5437_const" type="Const" version="opset1">
			<data element_type="f32" offset="41876" shape="1" size="4"/>
			<output>
				<port id="1" precision="FP32">
					<dim>1</dim>
				</port>
			</output>
		</layer>
		<layer id="197" name="MobilenetV2/expanded_conv_4/expand/Conv2D/fq_weights_1/Copy/out_high5438_const" type="Const" version="opset1">
			<data element_type="f32" offset="900" shape="1" size="4"/>
			<output>
				<port id="1" precision="FP32">
					<dim>1</dim>
				</port>
			</output>
		</layer>
		<layer id="198" name="19291933_const" type="Const" version="opset1">
			<data element_type="f32" offset="48416" shape="192,1,1,1" size="768"/>
			<output>
				<port id="1" precision="FP32">
					<dim>192</dim>
					<dim>1</dim>
					<dim>1</dim>
					<dim>1</dim>
				</port>
			</output>
		</layer>
		<layer id="199" name="19301934_const" type="Const" version="opset1">
			<data element_type="f32" offset="49184" shape="192,1,1,1" size="768"/>
			<output>
				<port id="1" precision="FP32">
					<dim>192</dim>
					<dim>1</dim>
					<dim>1</dim>
					<dim>1</dim>
				</port>
			</output>
		</layer>
		<layer id="200" name="MobilenetV2/expanded_conv_4/expand/Conv2D/fq_weights_1" type="FakeQuantize" version="opset1">
			<data levels="255"/>
			<input>
				<port id="0">
					<dim>192</dim>
					<dim>32</dim>
					<dim>1</dim>
					<dim>1</dim>
				</port>
				<port id="1">
					<dim>1</dim>
				</port>
				<port id="2">
					<dim>1</dim>
				</port>
				<port id="3">
					<dim>192</dim>
					<dim>1</dim>
					<dim>1</dim>
					<dim>1</dim>
				</port>
				<port id="4">
					<dim>192</dim>
					<dim>1</dim>
					<dim>1</dim>
					<dim>1</dim>
				</port>
			</input>
			<output>
				<port id="5" precision="FP32">
					<dim>192</dim>
					<dim>32</dim>
					<dim>1</dim>
					<dim>1</dim>
				</port>
			</output>
		</layer>
		<layer id="201" name="MobilenetV2/expanded_conv_4/expand/Conv2D" type="Convolution" version="opset1">
			<data auto_pad="same_upper" dilations="1,1" output_padding="0,0" pads_begin="0,0" pads_end="0,0" strides="1,1"/>
			<input>
				<port id="0">
					<dim>1</dim>
					<dim>32</dim>
					<dim>28</dim>
					<dim>28</dim>
				</port>
				<port id="1">
					<dim>192</dim>
					<dim>32</dim>
					<dim>1</dim>
					<dim>1</dim>
				</port>
			</input>
			<output>
				<port id="2" precision="FP32">
					<dim>1</dim>
					<dim>192</dim>
					<dim>28</dim>
					<dim>28</dim>
				</port>
			</output>
		</layer>
		<layer id="202" name="data_add_99509955/copy_const333_const" type="Const" version="opset1">
			<data element_type="f32" offset="49952" shape="1,192,1,1" size="768"/>
			<output>
				<port id="1" precision="FP32">
					<dim>1</dim>
					<dim>192</dim>
					<dim>1</dim>
					<dim>1</dim>
				</port>
			</output>
		</layer>
		<layer id="203" name="MobilenetV2/expanded_conv_4/expand/BatchNorm/FusedBatchNormV3/variance/Fused_Add_" type="Add" version="opset1">
			<input>
				<port id="0">
					<dim>1</dim>
					<dim>192</dim>
					<dim>28</dim>
					<dim>28</dim>
				</port>
				<port id="1">
					<dim>1</dim>
					<dim>192</dim>
					<dim>1</dim>
					<dim>1</dim>
				</port>
			</input>
			<output>
				<port id="2" precision="FP32">
					<dim>1</dim>
					<dim>192</dim>
					<dim>28</dim>
					<dim>28</dim>
				</port>
			</output>
		</layer>
		<layer id="204" name="MobilenetV2/expanded_conv_4/expand/Relu6" type="Clamp" version="opset1">
			<data max="6" min="0"/>
			<input>
				<port id="0">
					<dim>1</dim>
					<dim>192</dim>
					<dim>28</dim>
					<dim>28</dim>
				</port>
			</input>
			<output>
				<port id="1" precision="FP32">
					<dim>1</dim>
					<dim>192</dim>
					<dim>28</dim>
					<dim>28</dim>
				</port>
			</output>
		</layer>
		<layer id="205" name="17571761_const" type="Const" version="opset1">
			<data element_type="f32" offset="50720" shape="1,192,1,1" size="768"/>
			<output>
				<port id="1" precision="FP32">
					<dim>1</dim>
					<dim>192</dim>
					<dim>1</dim>
					<dim>1</dim>
				</port>
			</output>
		</layer>
		<layer id="206" name="17581762_const" type="Const" version="opset1">
			<data element_type="f32" offset="51488" shape="1,192,1,1" size="768"/>
			<output>
				<port id="1" precision="FP32">
					<dim>1</dim>
					<dim>192</dim>
					<dim>1</dim>
					<dim>1</dim>
				</port>
			</output>
		</layer>
		<layer id="207" name="17591763_const" type="Const" version="opset1">
			<data element_type="f32" offset="50720" shape="1,192,1,1" size="768"/>
			<output>
				<port id="1" precision="FP32">
					<dim>1</dim>
					<dim>192</dim>
					<dim>1</dim>
					<dim>1</dim>
				</port>
			</output>
		</layer>
		<layer id="208" name="17601764_const" type="Const" version="opset1">
			<data element_type="f32" offset="51488" shape="1,192,1,1" size="768"/>
			<output>
				<port id="1" precision="FP32">
					<dim>1</dim>
					<dim>192</dim>
					<dim>1</dim>
					<dim>1</dim>
				</port>
			</output>
		</layer>
		<layer id="209" name="MobilenetV2/expanded_conv_4/depthwise/depthwise/fq_input_0" type="FakeQuantize" version="opset1">
			<data levels="256"/>
			<input>
				<port id="0">
					<dim>1</dim>
					<dim>192</dim>
					<dim>28</dim>
					<dim>28</dim>
				</port>
				<port id="1">
					<dim>1</dim>
					<dim>192</dim>
					<dim>1</dim>
					<dim>1</dim>
				</port>
				<port id="2">
					<dim>1</dim>
					<dim>192</dim>
					<dim>1</dim>
					<dim>1</dim>
				</port>
				<port id="3">
					<dim>1</dim>
					<dim>192</dim>
					<dim>1</dim>
					<dim>1</dim>
				</port>
				<port id="4">
					<dim>1</dim>
					<dim>192</dim>
					<dim>1</dim>
					<dim>1</dim>
				</port>
			</input>
			<output>
				<port id="5" precision="FP32">
					<dim>1</dim>
					<dim>192</dim>
					<dim>28</dim>
					<dim>28</dim>
				</port>
			</output>
		</layer>
		<layer id="210" name="MobilenetV2/expanded_conv_4/depthwise/depthwise/fq_weights_1/Convert_to_float/Cast_06149_const" type="Const" version="opset1">
			<data element_type="u8" offset="52256" shape="192,1,3,3" size="1728"/>
			<output>
				<port id="1" precision="U8">
					<dim>192</dim>
					<dim>1</dim>
					<dim>3</dim>
					<dim>3</dim>
				</port>
			</output>
		</layer>
		<layer id="211" name="MobilenetV2/expanded_conv_4/depthwise/depthwise/fq_weights_1/Convert_to_float" type="Convert" version="opset1">
			<data destination_type="f32"/>
			<input>
				<port id="0">
					<dim>192</dim>
					<dim>1</dim>
					<dim>3</dim>
					<dim>3</dim>
				</port>
			</input>
			<output>
				<port id="1" precision="FP32">
					<dim>192</dim>
					<dim>1</dim>
					<dim>3</dim>
					<dim>3</dim>
				</port>
			</output>
		</layer>
		<layer id="212" name="MobilenetV2/expanded_conv_4/depthwise/depthwise/fq_weights_1/Copy/out_low5333_const" type="Const" version="opset1">
			<data element_type="f32" offset="41876" shape="1" size="4"/>
			<output>
				<port id="1" precision="FP32">
					<dim>1</dim>
				</port>
			</output>
		</layer>
		<layer id="213" name="MobilenetV2/expanded_conv_4/depthwise/depthwise/fq_weights_1/Copy/out_high5334_const" type="Const" version="opset1">
			<data element_type="f32" offset="900" shape="1" size="4"/>
			<output>
				<port id="1" precision="FP32">
					<dim>1</dim>
				</port>
			</output>
		</layer>
		<layer id="214" name="17691773_const" type="Const" version="opset1">
			<data element_type="f32" offset="53984" shape="192,1,1,1" size="768"/>
			<output>
				<port id="1" precision="FP32">
					<dim>192</dim>
					<dim>1</dim>
					<dim>1</dim>
					<dim>1</dim>
				</port>
			</output>
		</layer>
		<layer id="215" name="17701774_const" type="Const" version="opset1">
			<data element_type="f32" offset="54752" shape="192,1,1,1" size="768"/>
			<output>
				<port id="1" precision="FP32">
					<dim>192</dim>
					<dim>1</dim>
					<dim>1</dim>
					<dim>1</dim>
				</port>
			</output>
		</layer>
		<layer id="216" name="MobilenetV2/expanded_conv_4/depthwise/depthwise/fq_weights_1" type="FakeQuantize" version="opset1">
			<data levels="255"/>
			<input>
				<port id="0">
					<dim>192</dim>
					<dim>1</dim>
					<dim>3</dim>
					<dim>3</dim>
				</port>
				<port id="1">
					<dim>1</dim>
				</port>
				<port id="2">
					<dim>1</dim>
				</port>
				<port id="3">
					<dim>192</dim>
					<dim>1</dim>
					<dim>1</dim>
					<dim>1</dim>
				</port>
				<port id="4">
					<dim>192</dim>
					<dim>1</dim>
					<dim>1</dim>
					<dim>1</dim>
				</port>
			</input>
			<output>
				<port id="5" precision="FP32">
					<dim>192</dim>
					<dim>1</dim>
					<dim>3</dim>
					<dim>3</dim>
				</port>
			</output>
		</layer>
		<layer id="217" name="6734/value6736_const" type="Const" version="opset1">
			<data element_type="i64" offset="55520" shape="4" size="32"/>
			<output>
				<port id="1" precision="I64">
					<dim>4</dim>
				</port>
			</output>
		</layer>
		<layer id="218" name="6734" type="Reshape" version="opset1">
			<data special_zero="True"/>
			<input>
				<port id="0">
					<dim>192</dim>
					<dim>1</dim>
					<dim>3</dim>
					<dim>3</dim>
				</port>
				<port id="1">
					<dim>4</dim>
				</port>
			</input>
			<output>
				<port id="2" precision="FP32">
					<dim>192</dim>
					<dim>1</dim>
					<dim>3</dim>
					<dim>3</dim>
				</port>
			</output>
		</layer>
		<layer id="219" name="6802/value6804_const" type="Const" version="opset1">
			<data element_type="i64" offset="55552" shape="5" size="40"/>
			<output>
				<port id="1" precision="I64">
					<dim>5</dim>
				</port>
			</output>
		</layer>
		<layer id="220" name="6802" type="Reshape" version="opset1">
			<data special_zero="True"/>
			<input>
				<port id="0">
					<dim>192</dim>
					<dim>1</dim>
					<dim>3</dim>
					<dim>3</dim>
				</port>
				<port id="1">
					<dim>5</dim>
				</port>
			</input>
			<output>
				<port id="2" precision="FP32">
					<dim>192</dim>
					<dim>1</dim>
					<dim>1</dim>
					<dim>3</dim>
					<dim>3</dim>
				</port>
			</output>
		</layer>
		<layer id="221" name="MobilenetV2/expanded_conv_4/depthwise/depthwise" type="GroupConvolution" version="opset1">
			<data auto_pad="same_upper" dilations="1,1" output_padding="0,0" pads_begin="1,1" pads_end="1,1" strides="1,1"/>
			<input>
				<port id="0">
					<dim>1</dim>
					<dim>192</dim>
					<dim>28</dim>
					<dim>28</dim>
				</port>
				<port id="1">
					<dim>192</dim>
					<dim>1</dim>
					<dim>1</dim>
					<dim>3</dim>
					<dim>3</dim>
				</port>
			</input>
			<output>
				<port id="2" precision="FP32">
					<dim>1</dim>
					<dim>192</dim>
					<dim>28</dim>
					<dim>28</dim>
				</port>
			</output>
		</layer>
		<layer id="222" name="data_add_99589963/copy_const338_const" type="Const" version="opset1">
			<data element_type="f32" offset="55592" shape="1,192,1,1" size="768"/>
			<output>
				<port id="1" precision="FP32">
					<dim>1</dim>
					<dim>192</dim>
					<dim>1</dim>
					<dim>1</dim>
				</port>
			</output>
		</layer>
		<layer id="223" name="MobilenetV2/expanded_conv_4/depthwise/BatchNorm/FusedBatchNormV3/variance/Fused_Add_" type="Add" version="opset1">
			<input>
				<port id="0">
					<dim>1</dim>
					<dim>192</dim>
					<dim>28</dim>
					<dim>28</dim>
				</port>
				<port id="1">
					<dim>1</dim>
					<dim>192</dim>
					<dim>1</dim>
					<dim>1</dim>
				</port>
			</input>
			<output>
				<port id="2" precision="FP32">
					<dim>1</dim>
					<dim>192</dim>
					<dim>28</dim>
					<dim>28</dim>
				</port>
			</output>
		</layer>
		<layer id="224" name="MobilenetV2/expanded_conv_4/depthwise/Relu6" type="Clamp" version="opset1">
			<data max="6" min="0"/>
			<input>
				<port id="0">
					<dim>1</dim>
					<dim>192</dim>
					<dim>28</dim>
					<dim>28</dim>
				</port>
			</input>
			<output>
				<port id="1" precision="FP32">
					<dim>1</dim>
					<dim>192</dim>
					<dim>28</dim>
					<dim>28</dim>
				</port>
			</output>
		</layer>
		<layer id="225" name="15771581_const" type="Const" version="opset1">
			<data element_type="f32" offset="56360" shape="" size="4"/>
			<output>
				<port id="1" precision="FP32"/>
			</output>
		</layer>
		<layer id="226" name="15781582_const" type="Const" version="opset1">
			<data element_type="f32" offset="56364" shape="" size="4"/>
			<output>
				<port id="1" precision="FP32"/>
			</output>
		</layer>
		<layer id="227" name="15791583_const" type="Const" version="opset1">
			<data element_type="f32" offset="56360" shape="" size="4"/>
			<output>
				<port id="1" precision="FP32"/>
			</output>
		</layer>
		<layer id="228" name="15801584_const" type="Const" version="opset1">
			<data element_type="f32" offset="56364" shape="" size="4"/>
			<output>
				<port id="1" precision="FP32"/>
			</output>
		</layer>
		<layer id="229" name="MobilenetV2/expanded_conv_4/project/Conv2D/fq_input_0" type="FakeQuantize" version="opset1">
			<data levels="256"/>
			<input>
				<port id="0">
					<dim>1</dim>
					<dim>192</dim>
					<dim>28</dim>
					<dim>28</dim>
				</port>
				<port id="1"/>
				<port id="2"/>
				<port id="3"/>
				<port id="4"/>
			</input>
			<output>
				<port id="5" precision="FP32">
					<dim>1</dim>
					<dim>192</dim>
					<dim>28</dim>
					<dim>28</dim>
				</port>
			</output>
		</layer>
		<layer id="230" name="MobilenetV2/expanded_conv_4/project/Conv2D/fq_weights_1/Convert_to_float/Cast_06083_const" type="Const" version="opset1">
			<data element_type="u8" offset="56368" shape="32,192,1,1" size="6144"/>
			<output>
				<port id="1" precision="U8">
					<dim>32</dim>
					<dim>192</dim>
					<dim>1</dim>
					<dim>1</dim>
				</port>
			</output>
		</layer>
		<layer id="231" name="MobilenetV2/expanded_conv_4/project/Conv2D/fq_weights_1/Convert_to_float" type="Convert" version="opset1">
			<data destination_type="f32"/>
			<input>
				<port id="0">
					<dim>32</dim>
					<dim>192</dim>
					<dim>1</dim>
					<dim>1</dim>
				</port>
			</input>
			<output>
				<port id="1" precision="FP32">
					<dim>32</dim>
					<dim>192</dim>
					<dim>1</dim>
					<dim>1</dim>
				</port>
			</output>
		</layer>
		<layer id="232" name="MobilenetV2/expanded_conv_4/project/Conv2D/fq_weights_1/Copy/out_low5325_const" type="Const" version="opset1">
			<data element_type="f32" offset="62512" shape="1" size="4"/>
			<output>
				<port id="1" precision="FP32">
					<dim>1</dim>
				</port>
			</output>
		</layer>
		<layer id="233" name="MobilenetV2/expanded_conv_4/project/Conv2D/fq_weights_1/Copy/out_high5326_const" type="Const" version="opset1">
			<data element_type="f32" offset="900" shape="1" size="4"/>
			<output>
				<port id="1" precision="FP32">
					<dim>1</dim>
				</port>
			</output>
		</layer>
		<layer id="234" name="15891593_const" type="Const" version="opset1">
			<data element_type="f32" offset="62516" shape="32,1,1,1" size="128"/>
			<output>
				<port id="1" precision="FP32">
					<dim>32</dim>
					<dim>1</dim>
					<dim>1</dim>
					<dim>1</dim>
				</port>
			</output>
		</layer>
		<layer id="235" name="15901594_const" type="Const" version="opset1">
			<data element_type="f32" offset="62644" shape="32,1,1,1" size="128"/>
			<output>
				<port id="1" precision="FP32">
					<dim>32</dim>
					<dim>1</dim>
					<dim>1</dim>
					<dim>1</dim>
				</port>
			</output>
		</layer>
		<layer id="236" name="MobilenetV2/expanded_conv_4/project/Conv2D/fq_weights_1" type="FakeQuantize" version="opset1">
			<data levels="255"/>
			<input>
				<port id="0">
					<dim>32</dim>
					<dim>192</dim>
					<dim>1</dim>
					<dim>1</dim>
				</port>
				<port id="1">
					<dim>1</dim>
				</port>
				<port id="2">
					<dim>1</dim>
				</port>
				<port id="3">
					<dim>32</dim>
					<dim>1</dim>
					<dim>1</dim>
					<dim>1</dim>
				</port>
				<port id="4">
					<dim>32</dim>
					<dim>1</dim>
					<dim>1</dim>
					<dim>1</dim>
				</port>
			</input>
			<output>
				<port id="5" precision="FP32">
					<dim>32</dim>
					<dim>192</dim>
					<dim>1</dim>
					<dim>1</dim>
				</port>
			</output>
		</layer>
		<layer id="237" name="MobilenetV2/expanded_conv_4/project/Conv2D" type="Convolution" version="opset1">
			<data auto_pad="same_upper" dilations="1,1" output_padding="0,0" pads_begin="0,0" pads_end="0,0" strides="1,1"/>
			<input>
				<port id="0">
					<dim>1</dim>
					<dim>192</dim>
					<dim>28</dim>
					<dim>28</dim>
				</port>
				<port id="1">
					<dim>32</dim>
					<dim>192</dim>
					<dim>1</dim>
					<dim>1</dim>
				</port>
			</input>
			<output>
				<port id="2" precision="FP32">
					<dim>1</dim>
					<dim>32</dim>
					<dim>28</dim>
					<dim>28</dim>
				</port>
			</output>
		</layer>
		<layer id="238" name="data_add_99669971/copy_const343_const" type="Const" version="opset1">
			<data element_type="f32" offset="62772" shape="1,32,1,1" size="128"/>
			<output>
				<port id="1" precision="FP32">
					<dim>1</dim>
					<dim>32</dim>
					<dim>1</dim>
					<dim>1</dim>
				</port>
			</output>
		</layer>
		<layer id="239" name="MobilenetV2/expanded_conv_4/project/BatchNorm/FusedBatchNormV3/variance/Fused_Add_" type="Add" version="opset1">
			<input>
				<port id="0">
					<dim>1</dim>
					<dim>32</dim>
					<dim>28</dim>
					<dim>28</dim>
				</port>
				<port id="1">
					<dim>1</dim>
					<dim>32</dim>
					<dim>1</dim>
					<dim>1</dim>
				</port>
			</input>
			<output>
				<port id="2" precision="FP32">
					<dim>1</dim>
					<dim>32</dim>
					<dim>28</dim>
					<dim>28</dim>
				</port>
			</output>
		</layer>
		<layer id="240" name="10271031_const" type="Const" version="opset1">
			<data element_type="f32" offset="62900" shape="" size="4"/>
			<output>
				<port id="1" precision="FP32"/>
			</output>
		</layer>
		<layer id="241" name="10281032_const" type="Const" version="opset1">
			<data element_type="f32" offset="62904" shape="" size="4"/>
			<output>
				<port id="1" precision="FP32"/>
			</output>
		</layer>
		<layer id="242" name="10291033_const" type="Const" version="opset1">
			<data element_type="f32" offset="62900" shape="" size="4"/>
			<output>
				<port id="1" precision="FP32"/>
			</output>
		</layer>
		<layer id="243" name="10301034_const" type="Const" version="opset1">
			<data element_type="f32" offset="62904" shape="" size="4"/>
			<output>
				<port id="1" precision="FP32"/>
			</output>
		</layer>
		<layer id="244" name="MobilenetV2/expanded_conv_4/add/fq_input_0" type="FakeQuantize" version="opset1">
			<data levels="256"/>
			<input>
				<port id="0">
					<dim>1</dim>
					<dim>32</dim>
					<dim>28</dim>
					<dim>28</dim>
				</port>
				<port id="1"/>
				<port id="2"/>
				<port id="3"/>
				<port id="4"/>
			</input>
			<output>
				<port id="5" precision="FP32">
					<dim>1</dim>
					<dim>32</dim>
					<dim>28</dim>
					<dim>28</dim>
				</port>
			</output>
		</layer>
		<layer id="245" name="MobilenetV2/expanded_conv_4/add" type="Add" version="opset1">
			<input>
				<port id="0">
					<dim>1</dim>
					<dim>32</dim>
					<dim>28</dim>
					<dim>28</dim>
				</port>
				<port id="1">
					<dim>1</dim>
					<dim>32</dim>
					<dim>28</dim>
					<dim>28</dim>
				</port>
			</input>
			<output>
				<port id="2" precision="FP32">
					<dim>1</dim>
					<dim>32</dim>
					<dim>28</dim>
					<dim>28</dim>
				</port>
			</output>
		</layer>
		<layer id="246" name="18071811_const" type="Const" version="opset1">
			<data element_type="f32" offset="62908" shape="" size="4"/>
			<output>
				<port id="1" precision="FP32"/>
			</output>
		</layer>
		<layer id="247" name="18081812_const" type="Const" version="opset1">
			<data element_type="f32" offset="62912" shape="" size="4"/>
			<output>
				<port id="1" precision="FP32"/>
			</output>
		</layer>
		<layer id="248" name="18091813_const" type="Const" version="opset1">
			<data element_type="f32" offset="62908" shape="" size="4"/>
			<output>
				<port id="1" precision="FP32"/>
			</output>
		</layer>
		<layer id="249" name="18101814_const" type="Const" version="opset1">
			<data element_type="f32" offset="62912" shape="" size="4"/>
			<output>
				<port id="1" precision="FP32"/>
			</output>
		</layer>
		<layer id="250" name="MobilenetV2/expanded_conv_5/add/fq_input_1" type="FakeQuantize" version="opset1">
			<data levels="256"/>
			<input>
				<port id="0">
					<dim>1</dim>
					<dim>32</dim>
					<dim>28</dim>
					<dim>28</dim>
				</port>
				<port id="1"/>
				<port id="2"/>
				<port id="3"/>
				<port id="4"/>
			</input>
			<output>
				<port id="5" precision="FP32">
					<dim>1</dim>
					<dim>32</dim>
					<dim>28</dim>
					<dim>28</dim>
				</port>
			</output>
		</layer>
		<layer id="251" name="MobilenetV2/expanded_conv_5/expand/Conv2D/fq_weights_1/Convert_to_float/Cast_06085_const" type="Const" version="opset1">
			<data element_type="u8" offset="62916" shape="192,32,1,1" size="6144"/>
			<output>
				<port id="1" precision="U8">
					<dim>192</dim>
					<dim>32</dim>
					<dim>1</dim>
					<dim>1</dim>
				</port>
			</output>
		</layer>
		<layer id="252" name="MobilenetV2/expanded_conv_5/expand/Conv2D/fq_weights_1/Convert_to_float" type="Convert" version="opset1">
			<data destination_type="f32"/>
			<input>
				<port id="0">
					<dim>192</dim>
					<dim>32</dim>
					<dim>1</dim>
					<dim>1</dim>
				</port>
			</input>
			<output>
				<port id="1" precision="FP32">
					<dim>192</dim>
					<dim>32</dim>
					<dim>1</dim>
					<dim>1</dim>
				</port>
			</output>
		</layer>
		<layer id="253" name="MobilenetV2/expanded_conv_5/expand/Conv2D/fq_weights_1/Copy/out_low5381_const" type="Const" version="opset1">
			<data element_type="f32" offset="62512" shape="1" size="4"/>
			<output>
				<port id="1" precision="FP32">
					<dim>1</dim>
				</port>
			</output>
		</layer>
		<layer id="254" name="MobilenetV2/expanded_conv_5/expand/Conv2D/fq_weights_1/Copy/out_high5382_const" type="Const" version="opset1">
			<data element_type="f32" offset="900" shape="1" size="4"/>
			<output>
				<port id="1" precision="FP32">
					<dim>1</dim>
				</port>
			</output>
		</layer>
		<layer id="255" name="18891893_const" type="Const" version="opset1">
			<data element_type="f32" offset="69060" shape="192,1,1,1" size="768"/>
			<output>
				<port id="1" precision="FP32">
					<dim>192</dim>
					<dim>1</dim>
					<dim>1</dim>
					<dim>1</dim>
				</port>
			</output>
		</layer>
		<layer id="256" name="18901894_const" type="Const" version="opset1">
			<data element_type="f32" offset="69828" shape="192,1,1,1" size="768"/>
			<output>
				<port id="1" precision="FP32">
					<dim>192</dim>
					<dim>1</dim>
					<dim>1</dim>
					<dim>1</dim>
				</port>
			</output>
		</layer>
		<layer id="257" name="MobilenetV2/expanded_conv_5/expand/Conv2D/fq_weights_1" type="FakeQuantize" version="opset1">
			<data levels="255"/>
			<input>
				<port id="0">
					<dim>192</dim>
					<dim>32</dim>
					<dim>1</dim>
					<dim>1</dim>
				</port>
				<port id="1">
					<dim>1</dim>
				</port>
				<port id="2">
					<dim>1</dim>
				</port>
				<port id="3">
					<dim>192</dim>
					<dim>1</dim>
					<dim>1</dim>
					<dim>1</dim>
				</port>
				<port id="4">
					<dim>192</dim>
					<dim>1</dim>
					<dim>1</dim>
					<dim>1</dim>
				</port>
			</input>
			<output>
				<port id="5" precision="FP32">
					<dim>192</dim>
					<dim>32</dim>
					<dim>1</dim>
					<dim>1</dim>
				</port>
			</output>
		</layer>
		<layer id="258" name="MobilenetV2/expanded_conv_5/expand/Conv2D" type="Convolution" version="opset1">
			<data auto_pad="same_upper" dilations="1,1" output_padding="0,0" pads_begin="0,0" pads_end="0,0" strides="1,1"/>
			<input>
				<port id="0">
					<dim>1</dim>
					<dim>32</dim>
					<dim>28</dim>
					<dim>28</dim>
				</port>
				<port id="1">
					<dim>192</dim>
					<dim>32</dim>
					<dim>1</dim>
					<dim>1</dim>
				</port>
			</input>
			<output>
				<port id="2" precision="FP32">
					<dim>1</dim>
					<dim>192</dim>
					<dim>28</dim>
					<dim>28</dim>
				</port>
			</output>
		</layer>
		<layer id="259" name="data_add_99749979/copy_const348_const" type="Const" version="opset1">
			<data element_type="f32" offset="70596" shape="1,192,1,1" size="768"/>
			<output>
				<port id="1" precision="FP32">
					<dim>1</dim>
					<dim>192</dim>
					<dim>1</dim>
					<dim>1</dim>
				</port>
			</output>
		</layer>
		<layer id="260" name="MobilenetV2/expanded_conv_5/expand/BatchNorm/FusedBatchNormV3/variance/Fused_Add_" type="Add" version="opset1">
			<input>
				<port id="0">
					<dim>1</dim>
					<dim>192</dim>
					<dim>28</dim>
					<dim>28</dim>
				</port>
				<port id="1">
					<dim>1</dim>
					<dim>192</dim>
					<dim>1</dim>
					<dim>1</dim>
				</port>
			</input>
			<output>
				<port id="2" precision="FP32">
					<dim>1</dim>
					<dim>192</dim>
					<dim>28</dim>
					<dim>28</dim>
				</port>
			</output>
		</layer>
		<layer id="261" name="MobilenetV2/expanded_conv_5/expand/Relu6" type="Clamp" version="opset1">
			<data max="6" min="0"/>
			<input>
				<port id="0">
					<dim>1</dim>
					<dim>192</dim>
					<dim>28</dim>
					<dim>28</dim>
				</port>
			</input>
			<output>
				<port id="1" precision="FP32">
					<dim>1</dim>
					<dim>192</dim>
					<dim>28</dim>
					<dim>28</dim>
				</port>
			</output>
		</layer>
		<layer id="262" name="13071311_const" type="Const" version="opset1">
			<data element_type="f32" offset="50720" shape="1,192,1,1" size="768"/>
			<output>
				<port id="1" precision="FP32">
					<dim>1</dim>
					<dim>192</dim>
					<dim>1</dim>
					<dim>1</dim>
				</port>
			</output>
		</layer>
		<layer id="263" name="13081312_const" type="Const" version="opset1">
			<data element_type="f32" offset="71364" shape="1,192,1,1" size="768"/>
			<output>
				<port id="1" precision="FP32">
					<dim>1</dim>
					<dim>192</dim>
					<dim>1</dim>
					<dim>1</dim>
				</port>
			</output>
		</layer>
		<layer id="264" name="13091313_const" type="Const" version="opset1">
			<data element_type="f32" offset="50720" shape="1,192,1,1" size="768"/>
			<output>
				<port id="1" precision="FP32">
					<dim>1</dim>
					<dim>192</dim>
					<dim>1</dim>
					<dim>1</dim>
				</port>
			</output>
		</layer>
		<layer id="265" name="13101314_const" type="Const" version="opset1">
			<data element_type="f32" offset="71364" shape="1,192,1,1" size="768"/>
			<output>
				<port id="1" precision="FP32">
					<dim>1</dim>
					<dim>192</dim>
					<dim>1</dim>
					<dim>1</dim>
				</port>
			</output>
		</layer>
		<layer id="266" name="MobilenetV2/expanded_conv_5/depthwise/depthwise/fq_input_0" type="FakeQuantize" version="opset1">
			<data levels="256"/>
			<input>
				<port id="0">
					<dim>1</dim>
					<dim>192</dim>
					<dim>28</dim>
					<dim>28</dim>
				</port>
				<port id="1">
					<dim>1</dim>
					<dim>192</dim>
					<dim>1</dim>
					<dim>1</dim>
				</port>
				<port id="2">
					<dim>1</dim>
					<dim>192</dim>
					<dim>1</dim>
					<dim>1</dim>
				</port>
				<port id="3">
					<dim>1</dim>
					<dim>192</dim>
					<dim>1</dim>
					<dim>1</dim>
				</port>
				<port id="4">
					<dim>1</dim>
					<dim>192</dim>
					<dim>1</dim>
					<dim>1</dim>
				</port>
			</input>
			<output>
				<port id="5" precision="FP32">
					<dim>1</dim>
					<dim>192</dim>
					<dim>28</dim>
					<dim>28</dim>
				</port>
			</output>
		</layer>
		<layer id="267" name="MobilenetV2/expanded_conv_5/depthwise/depthwise/fq_weights_1/Convert_to_float/Cast_06065_const" type="Const" version="opset1">
			<data element_type="u8" offset="72132" shape="192,1,3,3" size="1728"/>
			<output>
				<port id="1" precision="U8">
					<dim>192</dim>
					<dim>1</dim>
					<dim>3</dim>
					<dim>3</dim>
				</port>
			</output>
		</layer>
		<layer id="268" name="MobilenetV2/expanded_conv_5/depthwise/depthwise/fq_weights_1/Convert_to_float" type="Convert" version="opset1">
			<data destination_type="f32"/>
			<input>
				<port id="0">
					<dim>192</dim>
					<dim>1</dim>
					<dim>3</dim>
					<dim>3</dim>
				</port>
			</input>
			<output>
				<port id="1" precision="FP32">
					<dim>192</dim>
					<dim>1</dim>
					<dim>3</dim>
					<dim>3</dim>
				</port>
			</output>
		</layer>
		<layer id="269" name="MobilenetV2/expanded_conv_5/depthwise/depthwise/fq_weights_1/Copy/out_low5133_const" type="Const" version="opset1">
			<data element_type="f32" offset="62512" shape="1" size="4"/>
			<output>
				<port id="1" precision="FP32">
					<dim>1</dim>
				</port>
			</output>
		</layer>
		<layer id="270" name="MobilenetV2/expanded_conv_5/depthwise/depthwise/fq_weights_1/Copy/out_high5134_const" type="Const" version="opset1">
			<data element_type="f32" offset="900" shape="1" size="4"/>
			<output>
				<port id="1" precision="FP32">
					<dim>1</dim>
				</port>
			</output>
		</layer>
		<layer id="271" name="13191323_const" type="Const" version="opset1">
			<data element_type="f32" offset="73860" shape="192,1,1,1" size="768"/>
			<output>
				<port id="1" precision="FP32">
					<dim>192</dim>
					<dim>1</dim>
					<dim>1</dim>
					<dim>1</dim>
				</port>
			</output>
		</layer>
		<layer id="272" name="13201324_const" type="Const" version="opset1">
			<data element_type="f32" offset="74628" shape="192,1,1,1" size="768"/>
			<output>
				<port id="1" precision="FP32">
					<dim>192</dim>
					<dim>1</dim>
					<dim>1</dim>
					<dim>1</dim>
				</port>
			</output>
		</layer>
		<layer id="273" name="MobilenetV2/expanded_conv_5/depthwise/depthwise/fq_weights_1" type="FakeQuantize" version="opset1">
			<data levels="255"/>
			<input>
				<port id="0">
					<dim>192</dim>
					<dim>1</dim>
					<dim>3</dim>
					<dim>3</dim>
				</port>
				<port id="1">
					<dim>1</dim>
				</port>
				<port id="2">
					<dim>1</dim>
				</port>
				<port id="3">
					<dim>192</dim>
					<dim>1</dim>
					<dim>1</dim>
					<dim>1</dim>
				</port>
				<port id="4">
					<dim>192</dim>
					<dim>1</dim>
					<dim>1</dim>
					<dim>1</dim>
				</port>
			</input>
			<output>
				<port id="5" precision="FP32">
					<dim>192</dim>
					<dim>1</dim>
					<dim>3</dim>
					<dim>3</dim>
				</port>
			</output>
		</layer>
		<layer id="274" name="6730/value6732_const" type="Const" version="opset1">
			<data element_type="i64" offset="55520" shape="4" size="32"/>
			<output>
				<port id="1" precision="I64">
					<dim>4</dim>
				</port>
			</output>
		</layer>
		<layer id="275" name="6730" type="Reshape" version="opset1">
			<data special_zero="True"/>
			<input>
				<port id="0">
					<dim>192</dim>
					<dim>1</dim>
					<dim>3</dim>
					<dim>3</dim>
				</port>
				<port id="1">
					<dim>4</dim>
				</port>
			</input>
			<output>
				<port id="2" precision="FP32">
					<dim>192</dim>
					<dim>1</dim>
					<dim>3</dim>
					<dim>3</dim>
				</port>
			</output>
		</layer>
		<layer id="276" name="6798/value6800_const" type="Const" version="opset1">
			<data element_type="i64" offset="55552" shape="5" size="40"/>
			<output>
				<port id="1" precision="I64">
					<dim>5</dim>
				</port>
			</output>
		</layer>
		<layer id="277" name="6798" type="Reshape" version="opset1">
			<data special_zero="True"/>
			<input>
				<port id="0">
					<dim>192</dim>
					<dim>1</dim>
					<dim>3</dim>
					<dim>3</dim>
				</port>
				<port id="1">
					<dim>5</dim>
				</port>
			</input>
			<output>
				<port id="2" precision="FP32">
					<dim>192</dim>
					<dim>1</dim>
					<dim>1</dim>
					<dim>3</dim>
					<dim>3</dim>
				</port>
			</output>
		</layer>
		<layer id="278" name="MobilenetV2/expanded_conv_5/depthwise/depthwise" type="GroupConvolution" version="opset1">
			<data auto_pad="same_upper" dilations="1,1" output_padding="0,0" pads_begin="1,1" pads_end="1,1" strides="1,1"/>
			<input>
				<port id="0">
					<dim>1</dim>
					<dim>192</dim>
					<dim>28</dim>
					<dim>28</dim>
				</port>
				<port id="1">
					<dim>192</dim>
					<dim>1</dim>
					<dim>1</dim>
					<dim>3</dim>
					<dim>3</dim>
				</port>
			</input>
			<output>
				<port id="2" precision="FP32">
					<dim>1</dim>
					<dim>192</dim>
					<dim>28</dim>
					<dim>28</dim>
				</port>
			</output>
		</layer>
		<layer id="279" name="data_add_99829987/copy_const353_const" type="Const" version="opset1">
			<data element_type="f32" offset="75396" shape="1,192,1,1" size="768"/>
			<output>
				<port id="1" precision="FP32">
					<dim>1</dim>
					<dim>192</dim>
					<dim>1</dim>
					<dim>1</dim>
				</port>
			</output>
		</layer>
		<layer id="280" name="MobilenetV2/expanded_conv_5/depthwise/BatchNorm/FusedBatchNormV3/variance/Fused_Add_" type="Add" version="opset1">
			<input>
				<port id="0">
					<dim>1</dim>
					<dim>192</dim>
					<dim>28</dim>
					<dim>28</dim>
				</port>
				<port id="1">
					<dim>1</dim>
					<dim>192</dim>
					<dim>1</dim>
					<dim>1</dim>
				</port>
			</input>
			<output>
				<port id="2" precision="FP32">
					<dim>1</dim>
					<dim>192</dim>
					<dim>28</dim>
					<dim>28</dim>
				</port>
			</output>
		</layer>
		<layer id="281" name="MobilenetV2/expanded_conv_5/depthwise/Relu6" type="Clamp" version="opset1">
			<data max="6" min="0"/>
			<input>
				<port id="0">
					<dim>1</dim>
					<dim>192</dim>
					<dim>28</dim>
					<dim>28</dim>
				</port>
			</input>
			<output>
				<port id="1" precision="FP32">
					<dim>1</dim>
					<dim>192</dim>
					<dim>28</dim>
					<dim>28</dim>
				</port>
			</output>
		</layer>
		<layer id="282" name="16771681_const" type="Const" version="opset1">
			<data element_type="f32" offset="76164" shape="" size="4"/>
			<output>
				<port id="1" precision="FP32"/>
			</output>
		</layer>
		<layer id="283" name="16781682_const" type="Const" version="opset1">
			<data element_type="f32" offset="76168" shape="" size="4"/>
			<output>
				<port id="1" precision="FP32"/>
			</output>
		</layer>
		<layer id="284" name="16791683_const" type="Const" version="opset1">
			<data element_type="f32" offset="76164" shape="" size="4"/>
			<output>
				<port id="1" precision="FP32"/>
			</output>
		</layer>
		<layer id="285" name="16801684_const" type="Const" version="opset1">
			<data element_type="f32" offset="76168" shape="" size="4"/>
			<output>
				<port id="1" precision="FP32"/>
			</output>
		</layer>
		<layer id="286" name="MobilenetV2/expanded_conv_5/project/Conv2D/fq_input_0" type="FakeQuantize" version="opset1">
			<data levels="256"/>
			<input>
				<port id="0">
					<dim>1</dim>
					<dim>192</dim>
					<dim>28</dim>
					<dim>28</dim>
				</port>
				<port id="1"/>
				<port id="2"/>
				<port id="3"/>
				<port id="4"/>
			</input>
			<output>
				<port id="5" precision="FP32">
					<dim>1</dim>
					<dim>192</dim>
					<dim>28</dim>
					<dim>28</dim>
				</port>
			</output>
		</layer>
		<layer id="287" name="MobilenetV2/expanded_conv_5/project/Conv2D/fq_weights_1/Convert_to_float/Cast_06125_const" type="Const" version="opset1">
			<data element_type="u8" offset="76172" shape="32,192,1,1" size="6144"/>
			<output>
				<port id="1" precision="U8">
					<dim>32</dim>
					<dim>192</dim>
					<dim>1</dim>
					<dim>1</dim>
				</port>
			</output>
		</layer>
		<layer id="288" name="MobilenetV2/expanded_conv_5/project/Conv2D/fq_weights_1/Convert_to_float" type="Convert" version="opset1">
			<data destination_type="f32"/>
			<input>
				<port id="0">
					<dim>32</dim>
					<dim>192</dim>
					<dim>1</dim>
					<dim>1</dim>
				</port>
			</input>
			<output>
				<port id="1" precision="FP32">
					<dim>32</dim>
					<dim>192</dim>
					<dim>1</dim>
					<dim>1</dim>
				</port>
			</output>
		</layer>
		<layer id="289" name="MobilenetV2/expanded_conv_5/project/Conv2D/fq_weights_1/Copy/out_low5357_const" type="Const" version="opset1">
			<data element_type="f32" offset="82316" shape="1" size="4"/>
			<output>
				<port id="1" precision="FP32">
					<dim>1</dim>
				</port>
			</output>
		</layer>
		<layer id="290" name="MobilenetV2/expanded_conv_5/project/Conv2D/fq_weights_1/Copy/out_high5358_const" type="Const" version="opset1">
			<data element_type="f32" offset="900" shape="1" size="4"/>
			<output>
				<port id="1" precision="FP32">
					<dim>1</dim>
				</port>
			</output>
		</layer>
		<layer id="291" name="16891693_const" type="Const" version="opset1">
			<data element_type="f32" offset="82320" shape="32,1,1,1" size="128"/>
			<output>
				<port id="1" precision="FP32">
					<dim>32</dim>
					<dim>1</dim>
					<dim>1</dim>
					<dim>1</dim>
				</port>
			</output>
		</layer>
		<layer id="292" name="16901694_const" type="Const" version="opset1">
			<data element_type="f32" offset="82448" shape="32,1,1,1" size="128"/>
			<output>
				<port id="1" precision="FP32">
					<dim>32</dim>
					<dim>1</dim>
					<dim>1</dim>
					<dim>1</dim>
				</port>
			</output>
		</layer>
		<layer id="293" name="MobilenetV2/expanded_conv_5/project/Conv2D/fq_weights_1" type="FakeQuantize" version="opset1">
			<data levels="255"/>
			<input>
				<port id="0">
					<dim>32</dim>
					<dim>192</dim>
					<dim>1</dim>
					<dim>1</dim>
				</port>
				<port id="1">
					<dim>1</dim>
				</port>
				<port id="2">
					<dim>1</dim>
				</port>
				<port id="3">
					<dim>32</dim>
					<dim>1</dim>
					<dim>1</dim>
					<dim>1</dim>
				</port>
				<port id="4">
					<dim>32</dim>
					<dim>1</dim>
					<dim>1</dim>
					<dim>1</dim>
				</port>
			</input>
			<output>
				<port id="5" precision="FP32">
					<dim>32</dim>
					<dim>192</dim>
					<dim>1</dim>
					<dim>1</dim>
				</port>
			</output>
		</layer>
		<layer id="294" name="MobilenetV2/expanded_conv_5/project/Conv2D" type="Convolution" version="opset1">
			<data auto_pad="same_upper" dilations="1,1" output_padding="0,0" pads_begin="0,0" pads_end="0,0" strides="1,1"/>
			<input>
				<port id="0">
					<dim>1</dim>
					<dim>192</dim>
					<dim>28</dim>
					<dim>28</dim>
				</port>
				<port id="1">
					<dim>32</dim>
					<dim>192</dim>
					<dim>1</dim>
					<dim>1</dim>
				</port>
			</input>
			<output>
				<port id="2" precision="FP32">
					<dim>1</dim>
					<dim>32</dim>
					<dim>28</dim>
					<dim>28</dim>
				</port>
			</output>
		</layer>
		<layer id="295" name="data_add_99909995/copy_const358_const" type="Const" version="opset1">
			<data element_type="f32" offset="82576" shape="1,32,1,1" size="128"/>
			<output>
				<port id="1" precision="FP32">
					<dim>1</dim>
					<dim>32</dim>
					<dim>1</dim>
					<dim>1</dim>
				</port>
			</output>
		</layer>
		<layer id="296" name="MobilenetV2/expanded_conv_5/project/BatchNorm/FusedBatchNormV3/variance/Fused_Add_" type="Add" version="opset1">
			<input>
				<port id="0">
					<dim>1</dim>
					<dim>32</dim>
					<dim>28</dim>
					<dim>28</dim>
				</port>
				<port id="1">
					<dim>1</dim>
					<dim>32</dim>
					<dim>1</dim>
					<dim>1</dim>
				</port>
			</input>
			<output>
				<port id="2" precision="FP32">
					<dim>1</dim>
					<dim>32</dim>
					<dim>28</dim>
					<dim>28</dim>
				</port>
			</output>
		</layer>
		<layer id="297" name="17971801_const" type="Const" version="opset1">
			<data element_type="f32" offset="82704" shape="" size="4"/>
			<output>
				<port id="1" precision="FP32"/>
			</output>
		</layer>
		<layer id="298" name="17981802_const" type="Const" version="opset1">
			<data element_type="f32" offset="82708" shape="" size="4"/>
			<output>
				<port id="1" precision="FP32"/>
			</output>
		</layer>
		<layer id="299" name="17991803_const" type="Const" version="opset1">
			<data element_type="f32" offset="82704" shape="" size="4"/>
			<output>
				<port id="1" precision="FP32"/>
			</output>
		</layer>
		<layer id="300" name="18001804_const" type="Const" version="opset1">
			<data element_type="f32" offset="82708" shape="" size="4"/>
			<output>
				<port id="1" precision="FP32"/>
			</output>
		</layer>
		<layer id="301" name="MobilenetV2/expanded_conv_5/add/fq_input_0" type="FakeQuantize" version="opset1">
			<data levels="256"/>
			<input>
				<port id="0">
					<dim>1</dim>
					<dim>32</dim>
					<dim>28</dim>
					<dim>28</dim>
				</port>
				<port id="1"/>
				<port id="2"/>
				<port id="3"/>
				<port id="4"/>
			</input>
			<output>
				<port id="5" precision="FP32">
					<dim>1</dim>
					<dim>32</dim>
					<dim>28</dim>
					<dim>28</dim>
				</port>
			</output>
		</layer>
		<layer id="302" name="MobilenetV2/expanded_conv_5/add" type="Add" version="opset1">
			<input>
				<port id="0">
					<dim>1</dim>
					<dim>32</dim>
					<dim>28</dim>
					<dim>28</dim>
				</port>
				<port id="1">
					<dim>1</dim>
					<dim>32</dim>
					<dim>28</dim>
					<dim>28</dim>
				</port>
			</input>
			<output>
				<port id="2" precision="FP32">
					<dim>1</dim>
					<dim>32</dim>
					<dim>28</dim>
					<dim>28</dim>
				</port>
			</output>
		</layer>
		<layer id="303" name="19571961_const" type="Const" version="opset1">
			<data element_type="f32" offset="82712" shape="" size="4"/>
			<output>
				<port id="1" precision="FP32"/>
			</output>
		</layer>
		<layer id="304" name="19581962_const" type="Const" version="opset1">
			<data element_type="f32" offset="82716" shape="" size="4"/>
			<output>
				<port id="1" precision="FP32"/>
			</output>
		</layer>
		<layer id="305" name="19591963_const" type="Const" version="opset1">
			<data element_type="f32" offset="82712" shape="" size="4"/>
			<output>
				<port id="1" precision="FP32"/>
			</output>
		</layer>
		<layer id="306" name="19601964_const" type="Const" version="opset1">
			<data element_type="f32" offset="82716" shape="" size="4"/>
			<output>
				<port id="1" precision="FP32"/>
			</output>
		</layer>
		<layer id="307" name="MobilenetV2/expanded_conv_6/expand/Conv2D/fq_input_0" type="FakeQuantize" version="opset1">
			<data levels="256"/>
			<input>
				<port id="0">
					<dim>1</dim>
					<dim>32</dim>
					<dim>28</dim>
					<dim>28</dim>
				</port>
				<port id="1"/>
				<port id="2"/>
				<port id="3"/>
				<port id="4"/>
			</input>
			<output>
				<port id="5" precision="FP32">
					<dim>1</dim>
					<dim>32</dim>
					<dim>28</dim>
					<dim>28</dim>
				</port>
			</output>
		</layer>
		<layer id="308" name="MobilenetV2/expanded_conv_6/expand/Conv2D/fq_weights_1/Convert_to_float/Cast_06071_const" type="Const" version="opset1">
			<data element_type="u8" offset="82720" shape="192,32,1,1" size="6144"/>
			<output>
				<port id="1" precision="U8">
					<dim>192</dim>
					<dim>32</dim>
					<dim>1</dim>
					<dim>1</dim>
				</port>
			</output>
		</layer>
		<layer id="309" name="MobilenetV2/expanded_conv_6/expand/Conv2D/fq_weights_1/Convert_to_float" type="Convert" version="opset1">
			<data destination_type="f32"/>
			<input>
				<port id="0">
					<dim>192</dim>
					<dim>32</dim>
					<dim>1</dim>
					<dim>1</dim>
				</port>
			</input>
			<output>
				<port id="1" precision="FP32">
					<dim>192</dim>
					<dim>32</dim>
					<dim>1</dim>
					<dim>1</dim>
				</port>
			</output>
		</layer>
		<layer id="310" name="MobilenetV2/expanded_conv_6/expand/Conv2D/fq_weights_1/Copy/out_low5461_const" type="Const" version="opset1">
			<data element_type="f32" offset="82316" shape="1" size="4"/>
			<output>
				<port id="1" precision="FP32">
					<dim>1</dim>
				</port>
			</output>
		</layer>
		<layer id="311" name="MobilenetV2/expanded_conv_6/expand/Conv2D/fq_weights_1/Copy/out_high5462_const" type="Const" version="opset1">
			<data element_type="f32" offset="900" shape="1" size="4"/>
			<output>
				<port id="1" precision="FP32">
					<dim>1</dim>
				</port>
			</output>
		</layer>
		<layer id="312" name="19691973_const" type="Const" version="opset1">
			<data element_type="f32" offset="88864" shape="192,1,1,1" size="768"/>
			<output>
				<port id="1" precision="FP32">
					<dim>192</dim>
					<dim>1</dim>
					<dim>1</dim>
					<dim>1</dim>
				</port>
			</output>
		</layer>
		<layer id="313" name="19701974_const" type="Const" version="opset1">
			<data element_type="f32" offset="89632" shape="192,1,1,1" size="768"/>
			<output>
				<port id="1" precision="FP32">
					<dim>192</dim>
					<dim>1</dim>
					<dim>1</dim>
					<dim>1</dim>
				</port>
			</output>
		</layer>
		<layer id="314" name="MobilenetV2/expanded_conv_6/expand/Conv2D/fq_weights_1" type="FakeQuantize" version="opset1">
			<data levels="255"/>
			<input>
				<port id="0">
					<dim>192</dim>
					<dim>32</dim>
					<dim>1</dim>
					<dim>1</dim>
				</port>
				<port id="1">
					<dim>1</dim>
				</port>
				<port id="2">
					<dim>1</dim>
				</port>
				<port id="3">
					<dim>192</dim>
					<dim>1</dim>
					<dim>1</dim>
					<dim>1</dim>
				</port>
				<port id="4">
					<dim>192</dim>
					<dim>1</dim>
					<dim>1</dim>
					<dim>1</dim>
				</port>
			</input>
			<output>
				<port id="5" precision="FP32">
					<dim>192</dim>
					<dim>32</dim>
					<dim>1</dim>
					<dim>1</dim>
				</port>
			</output>
		</layer>
		<layer id="315" name="MobilenetV2/expanded_conv_6/expand/Conv2D" type="Convolution" version="opset1">
			<data auto_pad="same_upper" dilations="1,1" output_padding="0,0" pads_begin="0,0" pads_end="0,0" strides="1,1"/>
			<input>
				<port id="0">
					<dim>1</dim>
					<dim>32</dim>
					<dim>28</dim>
					<dim>28</dim>
				</port>
				<port id="1">
					<dim>192</dim>
					<dim>32</dim>
					<dim>1</dim>
					<dim>1</dim>
				</port>
			</input>
			<output>
				<port id="2" precision="FP32">
					<dim>1</dim>
					<dim>192</dim>
					<dim>28</dim>
					<dim>28</dim>
				</port>
			</output>
		</layer>
		<layer id="316" name="data_add_999810003/copy_const363_const" type="Const" version="opset1">
			<data element_type="f32" offset="90400" shape="1,192,1,1" size="768"/>
			<output>
				<port id="1" precision="FP32">
					<dim>1</dim>
					<dim>192</dim>
					<dim>1</dim>
					<dim>1</dim>
				</port>
			</output>
		</layer>
		<layer id="317" name="MobilenetV2/expanded_conv_6/expand/BatchNorm/FusedBatchNormV3/variance/Fused_Add_" type="Add" version="opset1">
			<input>
				<port id="0">
					<dim>1</dim>
					<dim>192</dim>
					<dim>28</dim>
					<dim>28</dim>
				</port>
				<port id="1">
					<dim>1</dim>
					<dim>192</dim>
					<dim>1</dim>
					<dim>1</dim>
				</port>
			</input>
			<output>
				<port id="2" precision="FP32">
					<dim>1</dim>
					<dim>192</dim>
					<dim>28</dim>
					<dim>28</dim>
				</port>
			</output>
		</layer>
		<layer id="318" name="MobilenetV2/expanded_conv_6/expand/Relu6" type="Clamp" version="opset1">
			<data max="6" min="0"/>
			<input>
				<port id="0">
					<dim>1</dim>
					<dim>192</dim>
					<dim>28</dim>
					<dim>28</dim>
				</port>
			</input>
			<output>
				<port id="1" precision="FP32">
					<dim>1</dim>
					<dim>192</dim>
					<dim>28</dim>
					<dim>28</dim>
				</port>
			</output>
		</layer>
		<layer id="319" name="947951_const" type="Const" version="opset1">
			<data element_type="f32" offset="50720" shape="1,192,1,1" size="768"/>
			<output>
				<port id="1" precision="FP32">
					<dim>1</dim>
					<dim>192</dim>
					<dim>1</dim>
					<dim>1</dim>
				</port>
			</output>
		</layer>
		<layer id="320" name="948952_const" type="Const" version="opset1">
			<data element_type="f32" offset="91168" shape="1,192,1,1" size="768"/>
			<output>
				<port id="1" precision="FP32">
					<dim>1</dim>
					<dim>192</dim>
					<dim>1</dim>
					<dim>1</dim>
				</port>
			</output>
		</layer>
		<layer id="321" name="949953_const" type="Const" version="opset1">
			<data element_type="f32" offset="50720" shape="1,192,1,1" size="768"/>
			<output>
				<port id="1" precision="FP32">
					<dim>1</dim>
					<dim>192</dim>
					<dim>1</dim>
					<dim>1</dim>
				</port>
			</output>
		</layer>
		<layer id="322" name="950954_const" type="Const" version="opset1">
			<data element_type="f32" offset="91168" shape="1,192,1,1" size="768"/>
			<output>
				<port id="1" precision="FP32">
					<dim>1</dim>
					<dim>192</dim>
					<dim>1</dim>
					<dim>1</dim>
				</port>
			</output>
		</layer>
		<layer id="323" name="MobilenetV2/expanded_conv_6/depthwise/depthwise/fq_input_0" type="FakeQuantize" version="opset1">
			<data levels="256"/>
			<input>
				<port id="0">
					<dim>1</dim>
					<dim>192</dim>
					<dim>28</dim>
					<dim>28</dim>
				</port>
				<port id="1">
					<dim>1</dim>
					<dim>192</dim>
					<dim>1</dim>
					<dim>1</dim>
				</port>
				<port id="2">
					<dim>1</dim>
					<dim>192</dim>
					<dim>1</dim>
					<dim>1</dim>
				</port>
				<port id="3">
					<dim>1</dim>
					<dim>192</dim>
					<dim>1</dim>
					<dim>1</dim>
				</port>
				<port id="4">
					<dim>1</dim>
					<dim>192</dim>
					<dim>1</dim>
					<dim>1</dim>
				</port>
			</input>
			<output>
				<port id="5" precision="FP32">
					<dim>1</dim>
					<dim>192</dim>
					<dim>28</dim>
					<dim>28</dim>
				</port>
			</output>
		</layer>
		<layer id="324" name="MobilenetV2/expanded_conv_6/depthwise/depthwise/fq_weights_1/Convert_to_float/Cast_06147_const" type="Const" version="opset1">
			<data element_type="u8" offset="91936" shape="192,1,3,3" size="1728"/>
			<output>
				<port id="1" precision="U8">
					<dim>192</dim>
					<dim>1</dim>
					<dim>3</dim>
					<dim>3</dim>
				</port>
			</output>
		</layer>
		<layer id="325" name="MobilenetV2/expanded_conv_6/depthwise/depthwise/fq_weights_1/Convert_to_float" type="Convert" version="opset1">
			<data destination_type="f32"/>
			<input>
				<port id="0">
					<dim>192</dim>
					<dim>1</dim>
					<dim>3</dim>
					<dim>3</dim>
				</port>
			</input>
			<output>
				<port id="1" precision="FP32">
					<dim>192</dim>
					<dim>1</dim>
					<dim>3</dim>
					<dim>3</dim>
				</port>
			</output>
		</layer>
		<layer id="326" name="MobilenetV2/expanded_conv_6/depthwise/depthwise/fq_weights_1/Copy/out_low5277_const" type="Const" version="opset1">
			<data element_type="f32" offset="82316" shape="1" size="4"/>
			<output>
				<port id="1" precision="FP32">
					<dim>1</dim>
				</port>
			</output>
		</layer>
		<layer id="327" name="MobilenetV2/expanded_conv_6/depthwise/depthwise/fq_weights_1/Copy/out_high5278_const" type="Const" version="opset1">
			<data element_type="f32" offset="900" shape="1" size="4"/>
			<output>
				<port id="1" precision="FP32">
					<dim>1</dim>
				</port>
			</output>
		</layer>
		<layer id="328" name="959963_const" type="Const" version="opset1">
			<data element_type="f32" offset="93664" shape="192,1,1,1" size="768"/>
			<output>
				<port id="1" precision="FP32">
					<dim>192</dim>
					<dim>1</dim>
					<dim>1</dim>
					<dim>1</dim>
				</port>
			</output>
		</layer>
		<layer id="329" name="960964_const" type="Const" version="opset1">
			<data element_type="f32" offset="94432" shape="192,1,1,1" size="768"/>
			<output>
				<port id="1" precision="FP32">
					<dim>192</dim>
					<dim>1</dim>
					<dim>1</dim>
					<dim>1</dim>
				</port>
			</output>
		</layer>
		<layer id="330" name="MobilenetV2/expanded_conv_6/depthwise/depthwise/fq_weights_1" type="FakeQuantize" version="opset1">
			<data levels="255"/>
			<input>
				<port id="0">
					<dim>192</dim>
					<dim>1</dim>
					<dim>3</dim>
					<dim>3</dim>
				</port>
				<port id="1">
					<dim>1</dim>
				</port>
				<port id="2">
					<dim>1</dim>
				</port>
				<port id="3">
					<dim>192</dim>
					<dim>1</dim>
					<dim>1</dim>
					<dim>1</dim>
				</port>
				<port id="4">
					<dim>192</dim>
					<dim>1</dim>
					<dim>1</dim>
					<dim>1</dim>
				</port>
			</input>
			<output>
				<port id="5" precision="FP32">
					<dim>192</dim>
					<dim>1</dim>
					<dim>3</dim>
					<dim>3</dim>
				</port>
			</output>
		</layer>
		<layer id="331" name="6770/value6772_const" type="Const" version="opset1">
			<data element_type="i64" offset="55520" shape="4" size="32"/>
			<output>
				<port id="1" precision="I64">
					<dim>4</dim>
				</port>
			</output>
		</layer>
		<layer id="332" name="6770" type="Reshape" version="opset1">
			<data special_zero="True"/>
			<input>
				<port id="0">
					<dim>192</dim>
					<dim>1</dim>
					<dim>3</dim>
					<dim>3</dim>
				</port>
				<port id="1">
					<dim>4</dim>
				</port>
			</input>
			<output>
				<port id="2" precision="FP32">
					<dim>192</dim>
					<dim>1</dim>
					<dim>3</dim>
					<dim>3</dim>
				</port>
			</output>
		</layer>
		<layer id="333" name="6838/value6840_const" type="Const" version="opset1">
			<data element_type="i64" offset="55552" shape="5" size="40"/>
			<output>
				<port id="1" precision="I64">
					<dim>5</dim>
				</port>
			</output>
		</layer>
		<layer id="334" name="6838" type="Reshape" version="opset1">
			<data special_zero="True"/>
			<input>
				<port id="0">
					<dim>192</dim>
					<dim>1</dim>
					<dim>3</dim>
					<dim>3</dim>
				</port>
				<port id="1">
					<dim>5</dim>
				</port>
			</input>
			<output>
				<port id="2" precision="FP32">
					<dim>192</dim>
					<dim>1</dim>
					<dim>1</dim>
					<dim>3</dim>
					<dim>3</dim>
				</port>
			</output>
		</layer>
		<layer id="335" name="MobilenetV2/expanded_conv_6/depthwise/depthwise" type="GroupConvolution" version="opset1">
			<data auto_pad="same_upper" dilations="1,1" output_padding="0,0" pads_begin="0,0" pads_end="1,1" strides="2,2"/>
			<input>
				<port id="0">
					<dim>1</dim>
					<dim>192</dim>
					<dim>28</dim>
					<dim>28</dim>
				</port>
				<port id="1">
					<dim>192</dim>
					<dim>1</dim>
					<dim>1</dim>
					<dim>3</dim>
					<dim>3</dim>
				</port>
			</input>
			<output>
				<port id="2" precision="FP32">
					<dim>1</dim>
					<dim>192</dim>
					<dim>14</dim>
					<dim>14</dim>
				</port>
			</output>
		</layer>
		<layer id="336" name="data_add_1000610011/copy_const368_const" type="Const" version="opset1">
			<data element_type="f32" offset="95200" shape="1,192,1,1" size="768"/>
			<output>
				<port id="1" precision="FP32">
					<dim>1</dim>
					<dim>192</dim>
					<dim>1</dim>
					<dim>1</dim>
				</port>
			</output>
		</layer>
		<layer id="337" name="MobilenetV2/expanded_conv_6/depthwise/BatchNorm/FusedBatchNormV3/variance/Fused_Add_" type="Add" version="opset1">
			<input>
				<port id="0">
					<dim>1</dim>
					<dim>192</dim>
					<dim>14</dim>
					<dim>14</dim>
				</port>
				<port id="1">
					<dim>1</dim>
					<dim>192</dim>
					<dim>1</dim>
					<dim>1</dim>
				</port>
			</input>
			<output>
				<port id="2" precision="FP32">
					<dim>1</dim>
					<dim>192</dim>
					<dim>14</dim>
					<dim>14</dim>
				</port>
			</output>
		</layer>
		<layer id="338" name="MobilenetV2/expanded_conv_6/depthwise/Relu6" type="Clamp" version="opset1">
			<data max="6" min="0"/>
			<input>
				<port id="0">
					<dim>1</dim>
					<dim>192</dim>
					<dim>14</dim>
					<dim>14</dim>
				</port>
			</input>
			<output>
				<port id="1" precision="FP32">
					<dim>1</dim>
					<dim>192</dim>
					<dim>14</dim>
					<dim>14</dim>
				</port>
			</output>
		</layer>
		<layer id="339" name="11271131_const" type="Const" version="opset1">
			<data element_type="f32" offset="95968" shape="" size="4"/>
			<output>
				<port id="1" precision="FP32"/>
			</output>
		</layer>
		<layer id="340" name="11281132_const" type="Const" version="opset1">
			<data element_type="f32" offset="2572" shape="" size="4"/>
			<output>
				<port id="1" precision="FP32"/>
			</output>
		</layer>
		<layer id="341" name="11291133_const" type="Const" version="opset1">
			<data element_type="f32" offset="95968" shape="" size="4"/>
			<output>
				<port id="1" precision="FP32"/>
			</output>
		</layer>
		<layer id="342" name="11301134_const" type="Const" version="opset1">
			<data element_type="f32" offset="2572" shape="" size="4"/>
			<output>
				<port id="1" precision="FP32"/>
			</output>
		</layer>
		<layer id="343" name="MobilenetV2/expanded_conv_6/project/Conv2D/fq_input_0" type="FakeQuantize" version="opset1">
			<data levels="256"/>
			<input>
				<port id="0">
					<dim>1</dim>
					<dim>192</dim>
					<dim>14</dim>
					<dim>14</dim>
				</port>
				<port id="1"/>
				<port id="2"/>
				<port id="3"/>
				<port id="4"/>
			</input>
			<output>
				<port id="5" precision="FP32">
					<dim>1</dim>
					<dim>192</dim>
					<dim>14</dim>
					<dim>14</dim>
				</port>
			</output>
		</layer>
		<layer id="344" name="MobilenetV2/expanded_conv_6/project/Conv2D/fq_weights_1/Convert_to_float/Cast_06117_const" type="Const" version="opset1">
			<data element_type="u8" offset="95972" shape="64,192,1,1" size="12288"/>
			<output>
				<port id="1" precision="U8">
					<dim>64</dim>
					<dim>192</dim>
					<dim>1</dim>
					<dim>1</dim>
				</port>
			</output>
		</layer>
		<layer id="345" name="MobilenetV2/expanded_conv_6/project/Conv2D/fq_weights_1/Convert_to_float" type="Convert" version="opset1">
			<data destination_type="f32"/>
			<input>
				<port id="0">
					<dim>64</dim>
					<dim>192</dim>
					<dim>1</dim>
					<dim>1</dim>
				</port>
			</input>
			<output>
				<port id="1" precision="FP32">
					<dim>64</dim>
					<dim>192</dim>
					<dim>1</dim>
					<dim>1</dim>
				</port>
			</output>
		</layer>
		<layer id="346" name="MobilenetV2/expanded_conv_6/project/Conv2D/fq_weights_1/Copy/out_low5093_const" type="Const" version="opset1">
			<data element_type="f32" offset="108260" shape="1" size="4"/>
			<output>
				<port id="1" precision="FP32">
					<dim>1</dim>
				</port>
			</output>
		</layer>
		<layer id="347" name="MobilenetV2/expanded_conv_6/project/Conv2D/fq_weights_1/Copy/out_high5094_const" type="Const" version="opset1">
			<data element_type="f32" offset="900" shape="1" size="4"/>
			<output>
				<port id="1" precision="FP32">
					<dim>1</dim>
				</port>
			</output>
		</layer>
		<layer id="348" name="11391143_const" type="Const" version="opset1">
			<data element_type="f32" offset="108264" shape="64,1,1,1" size="256"/>
			<output>
				<port id="1" precision="FP32">
					<dim>64</dim>
					<dim>1</dim>
					<dim>1</dim>
					<dim>1</dim>
				</port>
			</output>
		</layer>
		<layer id="349" name="11401144_const" type="Const" version="opset1">
			<data element_type="f32" offset="108520" shape="64,1,1,1" size="256"/>
			<output>
				<port id="1" precision="FP32">
					<dim>64</dim>
					<dim>1</dim>
					<dim>1</dim>
					<dim>1</dim>
				</port>
			</output>
		</layer>
		<layer id="350" name="MobilenetV2/expanded_conv_6/project/Conv2D/fq_weights_1" type="FakeQuantize" version="opset1">
			<data levels="255"/>
			<input>
				<port id="0">
					<dim>64</dim>
					<dim>192</dim>
					<dim>1</dim>
					<dim>1</dim>
				</port>
				<port id="1">
					<dim>1</dim>
				</port>
				<port id="2">
					<dim>1</dim>
				</port>
				<port id="3">
					<dim>64</dim>
					<dim>1</dim>
					<dim>1</dim>
					<dim>1</dim>
				</port>
				<port id="4">
					<dim>64</dim>
					<dim>1</dim>
					<dim>1</dim>
					<dim>1</dim>
				</port>
			</input>
			<output>
				<port id="5" precision="FP32">
					<dim>64</dim>
					<dim>192</dim>
					<dim>1</dim>
					<dim>1</dim>
				</port>
			</output>
		</layer>
		<layer id="351" name="MobilenetV2/expanded_conv_6/project/Conv2D" type="Convolution" version="opset1">
			<data auto_pad="same_upper" dilations="1,1" output_padding="0,0" pads_begin="0,0" pads_end="0,0" strides="1,1"/>
			<input>
				<port id="0">
					<dim>1</dim>
					<dim>192</dim>
					<dim>14</dim>
					<dim>14</dim>
				</port>
				<port id="1">
					<dim>64</dim>
					<dim>192</dim>
					<dim>1</dim>
					<dim>1</dim>
				</port>
			</input>
			<output>
				<port id="2" precision="FP32">
					<dim>1</dim>
					<dim>64</dim>
					<dim>14</dim>
					<dim>14</dim>
				</port>
			</output>
		</layer>
		<layer id="352" name="data_add_1001410019/copy_const373_const" type="Const" version="opset1">
			<data element_type="f32" offset="108776" shape="1,64,1,1" size="256"/>
			<output>
				<port id="1" precision="FP32">
					<dim>1</dim>
					<dim>64</dim>
					<dim>1</dim>
					<dim>1</dim>
				</port>
			</output>
		</layer>
		<layer id="353" name="MobilenetV2/expanded_conv_6/project/BatchNorm/FusedBatchNormV3/variance/Fused_Add_" type="Add" version="opset1">
			<input>
				<port id="0">
					<dim>1</dim>
					<dim>64</dim>
					<dim>14</dim>
					<dim>14</dim>
				</port>
				<port id="1">
					<dim>1</dim>
					<dim>64</dim>
					<dim>1</dim>
					<dim>1</dim>
				</port>
			</input>
			<output>
				<port id="2" precision="FP32">
					<dim>1</dim>
					<dim>64</dim>
					<dim>14</dim>
					<dim>14</dim>
				</port>
			</output>
		</layer>
		<layer id="354" name="15071511_const" type="Const" version="opset1">
			<data element_type="f32" offset="109032" shape="" size="4"/>
			<output>
				<port id="1" precision="FP32"/>
			</output>
		</layer>
		<layer id="355" name="15081512_const" type="Const" version="opset1">
			<data element_type="f32" offset="109036" shape="" size="4"/>
			<output>
				<port id="1" precision="FP32"/>
			</output>
		</layer>
		<layer id="356" name="15091513_const" type="Const" version="opset1">
			<data element_type="f32" offset="109032" shape="" size="4"/>
			<output>
				<port id="1" precision="FP32"/>
			</output>
		</layer>
		<layer id="357" name="15101514_const" type="Const" version="opset1">
			<data element_type="f32" offset="109036" shape="" size="4"/>
			<output>
				<port id="1" precision="FP32"/>
			</output>
		</layer>
		<layer id="358" name="MobilenetV2/expanded_conv_7/add/fq_input_1" type="FakeQuantize" version="opset1">
			<data levels="256"/>
			<input>
				<port id="0">
					<dim>1</dim>
					<dim>64</dim>
					<dim>14</dim>
					<dim>14</dim>
				</port>
				<port id="1"/>
				<port id="2"/>
				<port id="3"/>
				<port id="4"/>
			</input>
			<output>
				<port id="5" precision="FP32">
					<dim>1</dim>
					<dim>64</dim>
					<dim>14</dim>
					<dim>14</dim>
				</port>
			</output>
		</layer>
		<layer id="359" name="MobilenetV2/expanded_conv_7/expand/Conv2D/fq_weights_1/Convert_to_float/Cast_06107_const" type="Const" version="opset1">
			<data element_type="u8" offset="109040" shape="384,64,1,1" size="24576"/>
			<output>
				<port id="1" precision="U8">
					<dim>384</dim>
					<dim>64</dim>
					<dim>1</dim>
					<dim>1</dim>
				</port>
			</output>
		</layer>
		<layer id="360" name="MobilenetV2/expanded_conv_7/expand/Conv2D/fq_weights_1/Convert_to_float" type="Convert" version="opset1">
			<data destination_type="f32"/>
			<input>
				<port id="0">
					<dim>384</dim>
					<dim>64</dim>
					<dim>1</dim>
					<dim>1</dim>
				</port>
			</input>
			<output>
				<port id="1" precision="FP32">
					<dim>384</dim>
					<dim>64</dim>
					<dim>1</dim>
					<dim>1</dim>
				</port>
			</output>
		</layer>
		<layer id="361" name="MobilenetV2/expanded_conv_7/expand/Conv2D/fq_weights_1/Copy/out_low5253_const" type="Const" version="opset1">
			<data element_type="f32" offset="108260" shape="1" size="4"/>
			<output>
				<port id="1" precision="FP32">
					<dim>1</dim>
				</port>
			</output>
		</layer>
		<layer id="362" name="MobilenetV2/expanded_conv_7/expand/Conv2D/fq_weights_1/Copy/out_high5254_const" type="Const" version="opset1">
			<data element_type="f32" offset="900" shape="1" size="4"/>
			<output>
				<port id="1" precision="FP32">
					<dim>1</dim>
				</port>
			</output>
		</layer>
		<layer id="363" name="10991103_const" type="Const" version="opset1">
			<data element_type="f32" offset="133616" shape="384,1,1,1" size="1536"/>
			<output>
				<port id="1" precision="FP32">
					<dim>384</dim>
					<dim>1</dim>
					<dim>1</dim>
					<dim>1</dim>
				</port>
			</output>
		</layer>
		<layer id="364" name="11001104_const" type="Const" version="opset1">
			<data element_type="f32" offset="135152" shape="384,1,1,1" size="1536"/>
			<output>
				<port id="1" precision="FP32">
					<dim>384</dim>
					<dim>1</dim>
					<dim>1</dim>
					<dim>1</dim>
				</port>
			</output>
		</layer>
		<layer id="365" name="MobilenetV2/expanded_conv_7/expand/Conv2D/fq_weights_1" type="FakeQuantize" version="opset1">
			<data levels="255"/>
			<input>
				<port id="0">
					<dim>384</dim>
					<dim>64</dim>
					<dim>1</dim>
					<dim>1</dim>
				</port>
				<port id="1">
					<dim>1</dim>
				</port>
				<port id="2">
					<dim>1</dim>
				</port>
				<port id="3">
					<dim>384</dim>
					<dim>1</dim>
					<dim>1</dim>
					<dim>1</dim>
				</port>
				<port id="4">
					<dim>384</dim>
					<dim>1</dim>
					<dim>1</dim>
					<dim>1</dim>
				</port>
			</input>
			<output>
				<port id="5" precision="FP32">
					<dim>384</dim>
					<dim>64</dim>
					<dim>1</dim>
					<dim>1</dim>
				</port>
			</output>
		</layer>
		<layer id="366" name="MobilenetV2/expanded_conv_7/expand/Conv2D" type="Convolution" version="opset1">
			<data auto_pad="same_upper" dilations="1,1" output_padding="0,0" pads_begin="0,0" pads_end="0,0" strides="1,1"/>
			<input>
				<port id="0">
					<dim>1</dim>
					<dim>64</dim>
					<dim>14</dim>
					<dim>14</dim>
				</port>
				<port id="1">
					<dim>384</dim>
					<dim>64</dim>
					<dim>1</dim>
					<dim>1</dim>
				</port>
			</input>
			<output>
				<port id="2" precision="FP32">
					<dim>1</dim>
					<dim>384</dim>
					<dim>14</dim>
					<dim>14</dim>
				</port>
			</output>
		</layer>
		<layer id="367" name="data_add_1002210027/copy_const377_const" type="Const" version="opset1">
			<data element_type="f32" offset="136688" shape="1,384,1,1" size="1536"/>
			<output>
				<port id="1" precision="FP32">
					<dim>1</dim>
					<dim>384</dim>
					<dim>1</dim>
					<dim>1</dim>
				</port>
			</output>
		</layer>
		<layer id="368" name="MobilenetV2/expanded_conv_7/expand/BatchNorm/FusedBatchNormV3/variance/Fused_Add_" type="Add" version="opset1">
			<input>
				<port id="0">
					<dim>1</dim>
					<dim>384</dim>
					<dim>14</dim>
					<dim>14</dim>
				</port>
				<port id="1">
					<dim>1</dim>
					<dim>384</dim>
					<dim>1</dim>
					<dim>1</dim>
				</port>
			</input>
			<output>
				<port id="2" precision="FP32">
					<dim>1</dim>
					<dim>384</dim>
					<dim>14</dim>
					<dim>14</dim>
				</port>
			</output>
		</layer>
		<layer id="369" name="MobilenetV2/expanded_conv_7/expand/Relu6" type="Clamp" version="opset1">
			<data max="6" min="0"/>
			<input>
				<port id="0">
					<dim>1</dim>
					<dim>384</dim>
					<dim>14</dim>
					<dim>14</dim>
				</port>
			</input>
			<output>
				<port id="1" precision="FP32">
					<dim>1</dim>
					<dim>384</dim>
					<dim>14</dim>
					<dim>14</dim>
				</port>
			</output>
		</layer>
		<layer id="370" name="867871_const" type="Const" version="opset1">
			<data element_type="f32" offset="138224" shape="1,384,1,1" size="1536"/>
			<output>
				<port id="1" precision="FP32">
					<dim>1</dim>
					<dim>384</dim>
					<dim>1</dim>
					<dim>1</dim>
				</port>
			</output>
		</layer>
		<layer id="371" name="868872_const" type="Const" version="opset1">
			<data element_type="f32" offset="139760" shape="1,384,1,1" size="1536"/>
			<output>
				<port id="1" precision="FP32">
					<dim>1</dim>
					<dim>384</dim>
					<dim>1</dim>
					<dim>1</dim>
				</port>
			</output>
		</layer>
		<layer id="372" name="869873_const" type="Const" version="opset1">
			<data element_type="f32" offset="138224" shape="1,384,1,1" size="1536"/>
			<output>
				<port id="1" precision="FP32">
					<dim>1</dim>
					<dim>384</dim>
					<dim>1</dim>
					<dim>1</dim>
				</port>
			</output>
		</layer>
		<layer id="373" name="870874_const" type="Const" version="opset1">
			<data element_type="f32" offset="139760" shape="1,384,1,1" size="1536"/>
			<output>
				<port id="1" precision="FP32">
					<dim>1</dim>
					<dim>384</dim>
					<dim>1</dim>
					<dim>1</dim>
				</port>
			</output>
		</layer>
		<layer id="374" name="MobilenetV2/expanded_conv_7/depthwise/depthwise/fq_input_0" type="FakeQuantize" version="opset1">
			<data levels="256"/>
			<input>
				<port id="0">
					<dim>1</dim>
					<dim>384</dim>
					<dim>14</dim>
					<dim>14</dim>
				</port>
				<port id="1">
					<dim>1</dim>
					<dim>384</dim>
					<dim>1</dim>
					<dim>1</dim>
				</port>
				<port id="2">
					<dim>1</dim>
					<dim>384</dim>
					<dim>1</dim>
					<dim>1</dim>
				</port>
				<port id="3">
					<dim>1</dim>
					<dim>384</dim>
					<dim>1</dim>
					<dim>1</dim>
				</port>
				<port id="4">
					<dim>1</dim>
					<dim>384</dim>
					<dim>1</dim>
					<dim>1</dim>
				</port>
			</input>
			<output>
				<port id="5" precision="FP32">
					<dim>1</dim>
					<dim>384</dim>
					<dim>14</dim>
					<dim>14</dim>
				</port>
			</output>
		</layer>
		<layer id="375" name="MobilenetV2/expanded_conv_7/depthwise/depthwise/fq_weights_1/Convert_to_float/Cast_06119_const" type="Const" version="opset1">
			<data element_type="u8" offset="141296" shape="384,1,3,3" size="3456"/>
			<output>
				<port id="1" precision="U8">
					<dim>384</dim>
					<dim>1</dim>
					<dim>3</dim>
					<dim>3</dim>
				</port>
			</output>
		</layer>
		<layer id="376" name="MobilenetV2/expanded_conv_7/depthwise/depthwise/fq_weights_1/Convert_to_float" type="Convert" version="opset1">
			<data destination_type="f32"/>
			<input>
				<port id="0">
					<dim>384</dim>
					<dim>1</dim>
					<dim>3</dim>
					<dim>3</dim>
				</port>
			</input>
			<output>
				<port id="1" precision="FP32">
					<dim>384</dim>
					<dim>1</dim>
					<dim>3</dim>
					<dim>3</dim>
				</port>
			</output>
		</layer>
		<layer id="377" name="MobilenetV2/expanded_conv_7/depthwise/depthwise/fq_weights_1/Copy/out_low5165_const" type="Const" version="opset1">
			<data element_type="f32" offset="108260" shape="1" size="4"/>
			<output>
				<port id="1" precision="FP32">
					<dim>1</dim>
				</port>
			</output>
		</layer>
		<layer id="378" name="MobilenetV2/expanded_conv_7/depthwise/depthwise/fq_weights_1/Copy/out_high5166_const" type="Const" version="opset1">
			<data element_type="f32" offset="900" shape="1" size="4"/>
			<output>
				<port id="1" precision="FP32">
					<dim>1</dim>
				</port>
			</output>
		</layer>
		<layer id="379" name="879883_const" type="Const" version="opset1">
			<data element_type="f32" offset="144752" shape="384,1,1,1" size="1536"/>
			<output>
				<port id="1" precision="FP32">
					<dim>384</dim>
					<dim>1</dim>
					<dim>1</dim>
					<dim>1</dim>
				</port>
			</output>
		</layer>
		<layer id="380" name="880884_const" type="Const" version="opset1">
			<data element_type="f32" offset="146288" shape="384,1,1,1" size="1536"/>
			<output>
				<port id="1" precision="FP32">
					<dim>384</dim>
					<dim>1</dim>
					<dim>1</dim>
					<dim>1</dim>
				</port>
			</output>
		</layer>
		<layer id="381" name="MobilenetV2/expanded_conv_7/depthwise/depthwise/fq_weights_1" type="FakeQuantize" version="opset1">
			<data levels="255"/>
			<input>
				<port id="0">
					<dim>384</dim>
					<dim>1</dim>
					<dim>3</dim>
					<dim>3</dim>
				</port>
				<port id="1">
					<dim>1</dim>
				</port>
				<port id="2">
					<dim>1</dim>
				</port>
				<port id="3">
					<dim>384</dim>
					<dim>1</dim>
					<dim>1</dim>
					<dim>1</dim>
				</port>
				<port id="4">
					<dim>384</dim>
					<dim>1</dim>
					<dim>1</dim>
					<dim>1</dim>
				</port>
			</input>
			<output>
				<port id="5" precision="FP32">
					<dim>384</dim>
					<dim>1</dim>
					<dim>3</dim>
					<dim>3</dim>
				</port>
			</output>
		</layer>
		<layer id="382" name="6718/value6720_const" type="Const" version="opset1">
			<data element_type="i64" offset="147824" shape="4" size="32"/>
			<output>
				<port id="1" precision="I64">
					<dim>4</dim>
				</port>
			</output>
		</layer>
		<layer id="383" name="6718" type="Reshape" version="opset1">
			<data special_zero="True"/>
			<input>
				<port id="0">
					<dim>384</dim>
					<dim>1</dim>
					<dim>3</dim>
					<dim>3</dim>
				</port>
				<port id="1">
					<dim>4</dim>
				</port>
			</input>
			<output>
				<port id="2" precision="FP32">
					<dim>384</dim>
					<dim>1</dim>
					<dim>3</dim>
					<dim>3</dim>
				</port>
			</output>
		</layer>
		<layer id="384" name="6786/value6788_const" type="Const" version="opset1">
			<data element_type="i64" offset="147856" shape="5" size="40"/>
			<output>
				<port id="1" precision="I64">
					<dim>5</dim>
				</port>
			</output>
		</layer>
		<layer id="385" name="6786" type="Reshape" version="opset1">
			<data special_zero="True"/>
			<input>
				<port id="0">
					<dim>384</dim>
					<dim>1</dim>
					<dim>3</dim>
					<dim>3</dim>
				</port>
				<port id="1">
					<dim>5</dim>
				</port>
			</input>
			<output>
				<port id="2" precision="FP32">
					<dim>384</dim>
					<dim>1</dim>
					<dim>1</dim>
					<dim>3</dim>
					<dim>3</dim>
				</port>
			</output>
		</layer>
		<layer id="386" name="MobilenetV2/expanded_conv_7/depthwise/depthwise" type="GroupConvolution" version="opset1">
			<data auto_pad="same_upper" dilations="1,1" output_padding="0,0" pads_begin="1,1" pads_end="1,1" strides="1,1"/>
			<input>
				<port id="0">
					<dim>1</dim>
					<dim>384</dim>
					<dim>14</dim>
					<dim>14</dim>
				</port>
				<port id="1">
					<dim>384</dim>
					<dim>1</dim>
					<dim>1</dim>
					<dim>3</dim>
					<dim>3</dim>
				</port>
			</input>
			<output>
				<port id="2" precision="FP32">
					<dim>1</dim>
					<dim>384</dim>
					<dim>14</dim>
					<dim>14</dim>
				</port>
			</output>
		</layer>
		<layer id="387" name="data_add_1003010035/copy_const382_const" type="Const" version="opset1">
			<data element_type="f32" offset="147896" shape="1,384,1,1" size="1536"/>
			<output>
				<port id="1" precision="FP32">
					<dim>1</dim>
					<dim>384</dim>
					<dim>1</dim>
					<dim>1</dim>
				</port>
			</output>
		</layer>
		<layer id="388" name="MobilenetV2/expanded_conv_7/depthwise/BatchNorm/FusedBatchNormV3/variance/Fused_Add_" type="Add" version="opset1">
			<input>
				<port id="0">
					<dim>1</dim>
					<dim>384</dim>
					<dim>14</dim>
					<dim>14</dim>
				</port>
				<port id="1">
					<dim>1</dim>
					<dim>384</dim>
					<dim>1</dim>
					<dim>1</dim>
				</port>
			</input>
			<output>
				<port id="2" precision="FP32">
					<dim>1</dim>
					<dim>384</dim>
					<dim>14</dim>
					<dim>14</dim>
				</port>
			</output>
		</layer>
		<layer id="389" name="MobilenetV2/expanded_conv_7/depthwise/Relu6" type="Clamp" version="opset1">
			<data max="6" min="0"/>
			<input>
				<port id="0">
					<dim>1</dim>
					<dim>384</dim>
					<dim>14</dim>
					<dim>14</dim>
				</port>
			</input>
			<output>
				<port id="1" precision="FP32">
					<dim>1</dim>
					<dim>384</dim>
					<dim>14</dim>
					<dim>14</dim>
				</port>
			</output>
		</layer>
		<layer id="390" name="19371941_const" type="Const" version="opset1">
			<data element_type="f32" offset="149432" shape="" size="4"/>
			<output>
				<port id="1" precision="FP32"/>
			</output>
		</layer>
		<layer id="391" name="19381942_const" type="Const" version="opset1">
			<data element_type="f32" offset="2572" shape="" size="4"/>
			<output>
				<port id="1" precision="FP32"/>
			</output>
		</layer>
		<layer id="392" name="19391943_const" type="Const" version="opset1">
			<data element_type="f32" offset="149432" shape="" size="4"/>
			<output>
				<port id="1" precision="FP32"/>
			</output>
		</layer>
		<layer id="393" name="19401944_const" type="Const" version="opset1">
			<data element_type="f32" offset="2572" shape="" size="4"/>
			<output>
				<port id="1" precision="FP32"/>
			</output>
		</layer>
		<layer id="394" name="MobilenetV2/expanded_conv_7/project/Conv2D/fq_input_0" type="FakeQuantize" version="opset1">
			<data levels="256"/>
			<input>
				<port id="0">
					<dim>1</dim>
					<dim>384</dim>
					<dim>14</dim>
					<dim>14</dim>
				</port>
				<port id="1"/>
				<port id="2"/>
				<port id="3"/>
				<port id="4"/>
			</input>
			<output>
				<port id="5" precision="FP32">
					<dim>1</dim>
					<dim>384</dim>
…
		<edge from-layer="280" from-port="2" to-layer="281" to-port="0"/>
		<edge from-layer="281" from-port="1" to-layer="286" to-port="0"/>
		<edge from-layer="282" from-port="1" to-layer="286" to-port="1"/>
		<edge from-layer="283" from-port="1" to-layer="286" to-port="2"/>
		<edge from-layer="284" from-port="1" to-layer="286" to-port="3"/>
		<edge from-layer="285" from-port="1" to-layer="286" to-port="4"/>
		<edge from-layer="287" from-port="1" to-layer="288" to-port="0"/>
		<edge from-layer="288" from-port="1" to-layer="293" to-port="0"/>
		<edge from-layer="289" from-port="1" to-layer="293" to-port="1"/>
		<edge from-layer="290" from-port="1" to-layer="293" to-port="2"/>
		<edge from-layer="291" from-port="1" to-layer="293" to-port="3"/>
		<edge from-layer="292" from-port="1" to-layer="293" to-port="4"/>
		<edge from-layer="286" from-port="5" to-layer="294" to-port="0"/>
		<edge from-layer="293" from-port="5" to-layer="294" to-port="1"/>
		<edge from-layer="294" from-port="2" to-layer="296" to-port="0"/>
		<edge from-layer="295" from-port="1" to-layer="296" to-port="1"/>
		<edge from-layer="296" from-port="2" to-layer="301" to-port="0"/>
		<edge from-layer="297" from-port="1" to-layer="301" to-port="1"/>
		<edge from-layer="298" from-port="1" to-layer="301" to-port="2"/>
		<edge from-layer="299" from-port="1" to-layer="301" to-port="3"/>
		<edge from-layer="300" from-port="1" to-layer="301" to-port="4"/>
		<edge from-layer="301" from-port="5" to-layer="302" to-port="0"/>
		<edge from-layer="250" from-port="5" to-layer="302" to-port="1"/>
		<edge from-layer="302" from-port="2" to-layer="307" to-port="0"/>
		<edge from-layer="303" from-port="1" to-layer="307" to-port="1"/>
		<edge from-layer="304" from-port="1" to-layer="307" to-port="2"/>
		<edge from-layer="305" from-port="1" to-layer="307" to-port="3"/>
		<edge from-layer="306" from-port="1" to-layer="307" to-port="4"/>
		<edge from-layer="308" from-port="1" to-layer="309" to-port="0"/>
		<edge from-layer="309" from-port="1" to-layer="314" to-port="0"/>
		<edge from-layer="310" from-port="1" to-layer="314" to-port="1"/>
		<edge from-layer="311" from-port="1" to-layer="314" to-port="2"/>
		<edge from-layer="312" from-port="1" to-layer="314" to-port="3"/>
		<edge from-layer="313" from-port="1" to-layer="314" to-port="4"/>
		<edge from-layer="307" from-port="5" to-layer="315" to-port="0"/>
		<edge from-layer="314" from-port="5" to-layer="315" to-port="1"/>
		<edge from-layer="315" from-port="2" to-layer="317" to-port="0"/>
		<edge from-layer="316" from-port="1" to-layer="317" to-port="1"/>
		<edge from-layer="317" from-port="2" to-layer="318" to-port="0"/>
		<edge from-layer="318" from-port="1" to-layer="323" to-port="0"/>
		<edge from-layer="319" from-port="1" to-layer="323" to-port="1"/>
		<edge from-layer="320" from-port="1" to-layer="323" to-port="2"/>
		<edge from-layer="321" from-port="1" to-layer="323" to-port="3"/>
		<edge from-layer="322" from-port="1" to-layer="323" to-port="4"/>
		<edge from-layer="324" from-port="1" to-layer="325" to-port="0"/>
		<edge from-layer="325" from-port="1" to-layer="330" to-port="0"/>
		<edge from-layer="326" from-port="1" to-layer="330" to-port="1"/>
		<edge from-layer="327" from-port="1" to-layer="330" to-port="2"/>
		<edge from-layer="328" from-port="1" to-layer="330" to-port="3"/>
		<edge from-layer="329" from-port="1" to-layer="330" to-port="4"/>
		<edge from-layer="330" from-port="5" to-layer="332" to-port="0"/>
		<edge from-layer="331" from-port="1" to-layer="332" to-port="1"/>
		<edge from-layer="332" from-port="2" to-layer="334" to-port="0"/>
		<edge from-layer="333" from-port="1" to-layer="334" to-port="1"/>
		<edge from-layer="323" from-port="5" to-layer="335" to-port="0"/>
		<edge from-layer="334" from-port="2" to-layer="335" to-port="1"/>
		<edge from-layer="335" from-port="2" to-layer="337" to-port="0"/>
		<edge from-layer="336" from-port="1" to-layer="337" to-port="1"/>
		<edge from-layer="337" from-port="2" to-layer="338" to-port="0"/>
		<edge from-layer="338" from-port="1" to-layer="343" to-port="0"/>
		<edge from-layer="339" from-port="1" to-layer="343" to-port="1"/>
		<edge from-layer="340" from-port="1" to-layer="343" to-port="2"/>
		<edge from-layer="341" from-port="1" to-layer="343" to-port="3"/>
		<edge from-layer="342" from-port="1" to-layer="343" to-port="4"/>
		<edge from-layer="344" from-port="1" to-layer="345" to-port="0"/>
		<edge from-layer="345" from-port="1" to-layer="350" to-port="0"/>
		<edge from-layer="346" from-port="1" to-layer="350" to-port="1"/>
		<edge from-layer="347" from-port="1" to-layer="350" to-port="2"/>
		<edge from-layer="348" from-port="1" to-layer="350" to-port="3"/>
		<edge from-layer="349" from-port="1" to-layer="350" to-port="4"/>
		<edge from-layer="343" from-port="5" to-layer="351" to-port="0"/>
		<edge from-layer="350" from-port="5" to-layer="351" to-port="1"/>
		<edge from-layer="351" from-port="2" to-layer="353" to-port="0"/>
		<edge from-layer="352" from-port="1" to-layer="353" to-port="1"/>
		<edge from-layer="353" from-port="2" to-layer="358" to-port="0"/>
		<edge from-layer="354" from-port="1" to-layer="358" to-port="1"/>
		<edge from-layer="355" from-port="1" to-layer="358" to-port="2"/>
		<edge from-layer="356" from-port="1" to-layer="358" to-port="3"/>
		<edge from-layer="357" from-port="1" to-layer="358" to-port="4"/>
		<edge from-layer="359" from-port="1" to-layer="360" to-port="0"/>
		<edge from-layer="360" from-port="1" to-layer="365" to-port="0"/>
		<edge from-layer="361" from-port="1" to-layer="365" to-port="1"/>
		<edge from-layer="362" from-port="1" to-layer="365" to-port="2"/>
		<edge from-layer="363" from-port="1" to-layer="365" to-port="3"/>
		<edge from-layer="364" from-port="1" to-layer="365" to-port="4"/>
		<edge from-layer="358" from-port="5" to-layer="366" to-port="0"/>
		<edge from-layer="365" from-port="5" to-layer="366" to-port="1"/>
		<edge from-layer="366" from-port="2" to-layer="368" to-port="0"/>
		<edge from-layer="367" from-port="1" to-layer="368" to-port="1"/>
		<edge from-layer="368" from-port="2" to-layer="369" to-port="0"/>
		<edge from-layer="369" from-port="1" to-layer="374" to-port="0"/>
		<edge from-layer="370" from-port="1" to-layer="374" to-port="1"/>
		<edge from-layer="371" from-port="1" to-layer="374" to-port="2"/>
		<edge from-layer="372" from-port="1" to-layer="374" to-port="3"/>
		<edge from-layer="373" from-port="1" to-layer="374" to-port="4"/>
		<edge from-layer="375" from-port="1" to-layer="376" to-port="0"/>
		<edge from-layer="376" from-port="1" to-layer="381" to-port="0"/>
		<edge from-layer="377" from-port="1" to-layer="381" to-port="1"/>
		<edge from-layer="378" from-port="1" to-layer="381" to-port="2"/>
		<edge from-layer="379" from-port="1" to-layer="381" to-port="3"/>
		<edge from-layer="380" from-port="1" to-layer="381" to-port="4"/>
		<edge from-layer="381" from-port="5" to-layer="383" to-port="0"/>
		<edge from-layer="382" from-port="1" to-layer="383" to-port="1"/>
		<edge from-layer="383" from-port="2" to-layer="385" to-port="0"/>
		<edge from-layer="384" from-port="1" to-layer="385" to-port="1"/>
		<edge from-layer="374" from-port="5" to-layer="386" to-port="0"/>
		<edge from-layer="385" from-port="2" to-layer="386" to-port="1"/>
		<edge from-layer="386" from-port="2" to-layer="388" to-port="0"/>
		<edge from-layer="387" from-port="1" to-layer="388" to-port="1"/>
		<edge from-layer="388" from-port="2" to-layer="389" to-port="0"/>
		<edge from-layer="389" from-port="1" to-layer="394" to-port="0"/>
		<edge from-layer="390" from-port="1" to-layer="394" to-port="1"/>
		<edge from-layer="391" from-port="1" to-layer="394" to-port="2"/>
		<edge from-layer="392" from-port="1" to-layer="394" to-port="3"/>
		<edge from-layer="393" from-port="1" to-layer="394" to-port="4"/>
		<edge from-layer="395" from-port="1" to-layer="396" to-port="0"/>
		<edge from-layer="396" from-port="1" to-layer="401" to-port="0"/>
		<edge from-layer="397" from-port="1" to-layer="401" to-port="1"/>
		<edge from-layer="398" from-port="1" to-layer="401" to-port="2"/>
		<edge from-layer="399" from-port="1" to-layer="401" to-port="3"/>
		<edge from-layer="400" from-port="1" to-layer="401" to-port="4"/>
		<edge from-layer="394" from-port="5" to-layer="402" to-port="0"/>
		<edge from-layer="401" from-port="5" to-layer="402" to-port="1"/>
		<edge from-layer="402" from-port="2" to-layer="404" to-port="0"/>
		<edge from-layer="403" from-port="1" to-layer="404" to-port="1"/>
		<edge from-layer="404" from-port="2" to-layer="409" to-port="0"/>
		<edge from-layer="405" from-port="1" to-layer="409" to-port="1"/>
		<edge from-layer="406" from-port="1" to-layer="409" to-port="2"/>
		<edge from-layer="407" from-port="1" to-layer="409" to-port="3"/>
		<edge from-layer="408" from-port="1" to-layer="409" to-port="4"/>
		<edge from-layer="409" from-port="5" to-layer="410" to-port="0"/>
		<edge from-layer="358" from-port="5" to-layer="410" to-port="1"/>
		<edge from-layer="410" from-port="2" to-layer="415" to-port="0"/>
		<edge from-layer="411" from-port="1" to-layer="415" to-port="1"/>
		<edge from-layer="412" from-port="1" to-layer="415" to-port="2"/>
		<edge from-layer="413" from-port="1" to-layer="415" to-port="3"/>
		<edge from-layer="414" from-port="1" to-layer="415" to-port="4"/>
		<edge from-layer="416" from-port="1" to-layer="417" to-port="0"/>
		<edge from-layer="417" from-port="1" to-layer="422" to-port="0"/>
		<edge from-layer="418" from-port="1" to-layer="422" to-port="1"/>
		<edge from-layer="419" from-port="1" to-layer="422" to-port="2"/>
		<edge from-layer="420" from-port="1" to-layer="422" to-port="3"/>
		<edge from-layer="421" from-port="1" to-layer="422" to-port="4"/>
		<edge from-layer="415" from-port="5" to-layer="423" to-port="0"/>
		<edge from-layer="422" from-port="5" to-layer="423" to-port="1"/>
		<edge from-layer="423" from-port="2" to-layer="425" to-port="0"/>
		<edge from-layer="424" from-port="1" to-layer="425" to-port="1"/>
		<edge from-layer="425" from-port="2" to-layer="426" to-port="0"/>
		<edge from-layer="426" from-port="1" to-layer="431" to-port="0"/>
		<edge from-layer="427" from-port="1" to-layer="431" to-port="1"/>
		<edge from-layer="428" from-port="1" to-layer="431" to-port="2"/>
		<edge from-layer="429" from-port="1" to-layer="431" to-port="3"/>
		<edge from-layer="430" from-port="1" to-layer="431" to-port="4"/>
		<edge from-layer="432" from-port="1" to-layer="433" to-port="0"/>
		<edge from-layer="433" from-port="1" to-layer="438" to-port="0"/>
		<edge from-layer="434" from-port="1" to-layer="438" to-port="1"/>
		<edge from-layer="435" from-port="1" to-layer="438" to-port="2"/>
		<edge from-layer="436" from-port="1" to-layer="438" to-port="3"/>
		<edge from-layer="437" from-port="1" to-layer="438" to-port="4"/>
		<edge from-layer="438" from-port="5" to-layer="440" to-port="0"/>
		<edge from-layer="439" from-port="1" to-layer="440" to-port="1"/>
		<edge from-layer="440" from-port="2" to-layer="442" to-port="0"/>
		<edge from-layer="441" from-port="1" to-layer="442" to-port="1"/>
		<edge from-layer="431" from-port="5" to-layer="443" to-port="0"/>
		<edge from-layer="442" from-port="2" to-layer="443" to-port="1"/>
		<edge from-layer="443" from-port="2" to-layer="445" to-port="0"/>
		<edge from-layer="444" from-port="1" to-layer="445" to-port="1"/>
		<edge from-layer="445" from-port="2" to-layer="446" to-port="0"/>
		<edge from-layer="446" from-port="1" to-layer="451" to-port="0"/>
		<edge from-layer="447" from-port="1" to-layer="451" to-port="1"/>
		<edge from-layer="448" from-port="1" to-layer="451" to-port="2"/>
		<edge from-layer="449" from-port="1" to-layer="451" to-port="3"/>
		<edge from-layer="450" from-port="1" to-layer="451" to-port="4"/>
		<edge from-layer="452" from-port="1" to-layer="453" to-port="0"/>
		<edge from-layer="453" from-port="1" to-layer="458" to-port="0"/>
		<edge from-layer="454" from-port="1" to-layer="458" to-port="1"/>
		<edge from-layer="455" from-port="1" to-layer="458" to-port="2"/>
		<edge from-layer="456" from-port="1" to-layer="458" to-port="3"/>
		<edge from-layer="457" from-port="1" to-layer="458" to-port="4"/>
		<edge from-layer="451" from-port="5" to-layer="459" to-port="0"/>
		<edge from-layer="458" from-port="5" to-layer="459" to-port="1"/>
		<edge from-layer="459" from-port="2" to-layer="461" to-port="0"/>
		<edge from-layer="460" from-port="1" to-layer="461" to-port="1"/>
		<edge from-layer="461" from-port="2" to-layer="466" to-port="0"/>
		<edge from-layer="462" from-port="1" to-layer="466" to-port="1"/>
		<edge from-layer="463" from-port="1" to-layer="466" to-port="2"/>
		<edge from-layer="464" from-port="1" to-layer="466" to-port="3"/>
		<edge from-layer="465" from-port="1" to-layer="466" to-port="4"/>
		<edge from-layer="466" from-port="5" to-layer="467" to-port="0"/>
		<edge from-layer="415" from-port="5" to-layer="467" to-port="1"/>
		<edge from-layer="467" from-port="2" to-layer="472" to-port="0"/>
		<edge from-layer="468" from-port="1" to-layer="472" to-port="1"/>
		<edge from-layer="469" from-port="1" to-layer="472" to-port="2"/>
		<edge from-layer="470" from-port="1" to-layer="472" to-port="3"/>
		<edge from-layer="471" from-port="1" to-layer="472" to-port="4"/>
		<edge from-layer="473" from-port="1" to-layer="474" to-port="0"/>
		<edge from-layer="474" from-port="1" to-layer="479" to-port="0"/>
		<edge from-layer="475" from-port="1" to-layer="479" to-port="1"/>
		<edge from-layer="476" from-port="1" to-layer="479" to-port="2"/>
		<edge from-layer="477" from-port="1" to-layer="479" to-port="3"/>
		<edge from-layer="478" from-port="1" to-layer="479" to-port="4"/>
		<edge from-layer="472" from-port="5" to-layer="480" to-port="0"/>
		<edge from-layer="479" from-port="5" to-layer="480" to-port="1"/>
		<edge from-layer="480" from-port="2" to-layer="482" to-port="0"/>
		<edge from-layer="481" from-port="1" to-layer="482" to-port="1"/>
		<edge from-layer="482" from-port="2" to-layer="483" to-port="0"/>
		<edge from-layer="483" from-port="1" to-layer="488" to-port="0"/>
		<edge from-layer="484" from-port="1" to-layer="488" to-port="1"/>
		<edge from-layer="485" from-port="1" to-layer="488" to-port="2"/>
		<edge from-layer="486" from-port="1" to-layer="488" to-port="3"/>
		<edge from-layer="487" from-port="1" to-layer="488" to-port="4"/>
		<edge from-layer="489" from-port="1" to-layer="490" to-port="0"/>
		<edge from-layer="490" from-port="1" to-layer="495" to-port="0"/>
		<edge from-layer="491" from-port="1" to-layer="495" to-port="1"/>
		<edge from-layer="492" from-port="1" to-layer="495" to-port="2"/>
		<edge from-layer="493" from-port="1" to-layer="495" to-port="3"/>
		<edge from-layer="494" from-port="1" to-layer="495" to-port="4"/>
		<edge from-layer="495" from-port="5" to-layer="497" to-port="0"/>
		<edge from-layer="496" from-port="1" to-layer="497" to-port="1"/>
		<edge from-layer="497" from-port="2" to-layer="499" to-port="0"/>
		<edge from-layer="498" from-port="1" to-layer="499" to-port="1"/>
		<edge from-layer="488" from-port="5" to-layer="500" to-port="0"/>
		<edge from-layer="499" from-port="2" to-layer="500" to-port="1"/>
		<edge from-layer="500" from-port="2" to-layer="502" to-port="0"/>
		<edge from-layer="501" from-port="1" to-layer="502" to-port="1"/>
		<edge from-layer="502" from-port="2" to-layer="503" to-port="0"/>
		<edge from-layer="503" from-port="1" to-layer="508" to-port="0"/>
		<edge from-layer="504" from-port="1" to-layer="508" to-port="1"/>
		<edge from-layer="505" from-port="1" to-layer="508" to-port="2"/>
		<edge from-layer="506" from-port="1" to-layer="508" to-port="3"/>
		<edge from-layer="507" from-port="1" to-layer="508" to-port="4"/>
		<edge from-layer="509" from-port="1" to-layer="510" to-port="0"/>
		<edge from-layer="510" from-port="1" to-layer="515" to-port="0"/>
		<edge from-layer="511" from-port="1" to-layer="515" to-port="1"/>
		<edge from-layer="512" from-port="1" to-layer="515" to-port="2"/>
		<edge from-layer="513" from-port="1" to-layer="515" to-port="3"/>
		<edge from-layer="514" from-port="1" to-layer="515" to-port="4"/>
		<edge from-layer="508" from-port="5" to-layer="516" to-port="0"/>
		<edge from-layer="515" from-port="5" to-layer="516" to-port="1"/>
		<edge from-layer="516" from-port="2" to-layer="518" to-port="0"/>
		<edge from-layer="517" from-port="1" to-layer="518" to-port="1"/>
		<edge from-layer="518" from-port="2" to-layer="523" to-port="0"/>
		<edge from-layer="519" from-port="1" to-layer="523" to-port="1"/>
		<edge from-layer="520" from-port="1" to-layer="523" to-port="2"/>
		<edge from-layer="521" from-port="1" to-layer="523" to-port="3"/>
		<edge from-layer="522" from-port="1" to-layer="523" to-port="4"/>
		<edge from-layer="523" from-port="5" to-layer="524" to-port="0"/>
		<edge from-layer="472" from-port="5" to-layer="524" to-port="1"/>
		<edge from-layer="524" from-port="2" to-layer="529" to-port="0"/>
		<edge from-layer="525" from-port="1" to-layer="529" to-port="1"/>
		<edge from-layer="526" from-port="1" to-layer="529" to-port="2"/>
		<edge from-layer="527" from-port="1" to-layer="529" to-port="3"/>
		<edge from-layer="528" from-port="1" to-layer="529" to-port="4"/>
		<edge from-layer="530" from-port="1" to-layer="531" to-port="0"/>
		<edge from-layer="531" from-port="1" to-layer="536" to-port="0"/>
		<edge from-layer="532" from-port="1" to-layer="536" to-port="1"/>
		<edge from-layer="533" from-port="1" to-layer="536" to-port="2"/>
		<edge from-layer="534" from-port="1" to-layer="536" to-port="3"/>
		<edge from-layer="535" from-port="1" to-layer="536" to-port="4"/>
		<edge from-layer="529" from-port="5" to-layer="537" to-port="0"/>
		<edge from-layer="536" from-port="5" to-layer="537" to-port="1"/>
		<edge from-layer="537" from-port="2" to-layer="539" to-port="0"/>
		<edge from-layer="538" from-port="1" to-layer="539" to-port="1"/>
		<edge from-layer="539" from-port="2" to-layer="540" to-port="0"/>
		<edge from-layer="540" from-port="1" to-layer="545" to-port="0"/>
		<edge from-layer="541" from-port="1" to-layer="545" to-port="1"/>
		<edge from-layer="542" from-port="1" to-layer="545" to-port="2"/>
		<edge from-layer="543" from-port="1" to-layer="545" to-port="3"/>
		<edge from-layer="544" from-port="1" to-layer="545" to-port="4"/>
		<edge from-layer="546" from-port="1" to-layer="547" to-port="0"/>
		<edge from-layer="547" from-port="1" to-layer="552" to-port="0"/>
		<edge from-layer="548" from-port="1" to-layer="552" to-port="1"/>
		<edge from-layer="549" from-port="1" to-layer="552" to-port="2"/>
		<edge from-layer="550" from-port="1" to-layer="552" to-port="3"/>
		<edge from-layer="551" from-port="1" to-layer="552" to-port="4"/>
		<edge from-layer="552" from-port="5" to-layer="554" to-port="0"/>
		<edge from-layer="553" from-port="1" to-layer="554" to-port="1"/>
		<edge from-layer="554" from-port="2" to-layer="556" to-port="0"/>
		<edge from-layer="555" from-port="1" to-layer="556" to-port="1"/>
		<edge from-layer="545" from-port="5" to-layer="557" to-port="0"/>
		<edge from-layer="556" from-port="2" to-layer="557" to-port="1"/>
		<edge from-layer="557" from-port="2" to-layer="559" to-port="0"/>
		<edge from-layer="558" from-port="1" to-layer="559" to-port="1"/>
		<edge from-layer="559" from-port="2" to-layer="560" to-port="0"/>
		<edge from-layer="560" from-port="1" to-layer="565" to-port="0"/>
		<edge from-layer="561" from-port="1" to-layer="565" to-port="1"/>
		<edge from-layer="562" from-port="1" to-layer="565" to-port="2"/>
		<edge from-layer="563" from-port="1" to-layer="565" to-port="3"/>
		<edge from-layer="564" from-port="1" to-layer="565" to-port="4"/>
		<edge from-layer="566" from-port="1" to-layer="567" to-port="0"/>
		<edge from-layer="567" from-port="1" to-layer="572" to-port="0"/>
		<edge from-layer="568" from-port="1" to-layer="572" to-port="1"/>
		<edge from-layer="569" from-port="1" to-layer="572" to-port="2"/>
		<edge from-layer="570" from-port="1" to-layer="572" to-port="3"/>
		<edge from-layer="571" from-port="1" to-layer="572" to-port="4"/>
		<edge from-layer="565" from-port="5" to-layer="573" to-port="0"/>
		<edge from-layer="572" from-port="5" to-layer="573" to-port="1"/>
		<edge from-layer="573" from-port="2" to-layer="575" to-port="0"/>
		<edge from-layer="574" from-port="1" to-layer="575" to-port="1"/>
		<edge from-layer="575" from-port="2" to-layer="580" to-port="0"/>
		<edge from-layer="576" from-port="1" to-layer="580" to-port="1"/>
		<edge from-layer="577" from-port="1" to-layer="580" to-port="2"/>
		<edge from-layer="578" from-port="1" to-layer="580" to-port="3"/>
		<edge from-layer="579" from-port="1" to-layer="580" to-port="4"/>
		<edge from-layer="581" from-port="1" to-layer="582" to-port="0"/>
		<edge from-layer="582" from-port="1" to-layer="587" to-port="0"/>
		<edge from-layer="583" from-port="1" to-layer="587" to-port="1"/>
		<edge from-layer="584" from-port="1" to-layer="587" to-port="2"/>
		<edge from-layer="585" from-port="1" to-layer="587" to-port="3"/>
		<edge from-layer="586" from-port="1" to-layer="587" to-port="4"/>
		<edge from-layer="580" from-port="5" to-layer="588" to-port="0"/>
		<edge from-layer="587" from-port="5" to-layer="588" to-port="1"/>
		<edge from-layer="588" from-port="2" to-layer="590" to-port="0"/>
		<edge from-layer="589" from-port="1" to-layer="590" to-port="1"/>
		<edge from-layer="590" from-port="2" to-layer="591" to-port="0"/>
		<edge from-layer="591" from-port="1" to-layer="596" to-port="0"/>
		<edge from-layer="592" from-port="1" to-layer="596" to-port="1"/>
		<edge from-layer="593" from-port="1" to-layer="596" to-port="2"/>
		<edge from-layer="594" from-port="1" to-layer="596" to-port="3"/>
		<edge from-layer="595" from-port="1" to-layer="596" to-port="4"/>
		<edge from-layer="597" from-port="1" to-layer="598" to-port="0"/>
		<edge from-layer="598" from-port="1" to-layer="603" to-port="0"/>
		<edge from-layer="599" from-port="1" to-layer="603" to-port="1"/>
		<edge from-layer="600" from-port="1" to-layer="603" to-port="2"/>
		<edge from-layer="601" from-port="1" to-layer="603" to-port="3"/>
		<edge from-layer="602" from-port="1" to-layer="603" to-port="4"/>
		<edge from-layer="603" from-port="5" to-layer="605" to-port="0"/>
		<edge from-layer="604" from-port="1" to-layer="605" to-port="1"/>
		<edge from-layer="605" from-port="2" to-layer="607" to-port="0"/>
		<edge from-layer="606" from-port="1" to-layer="607" to-port="1"/>
		<edge from-layer="596" from-port="5" to-layer="608" to-port="0"/>
		<edge from-layer="607" from-port="2" to-layer="608" to-port="1"/>
		<edge from-layer="608" from-port="2" to-layer="610" to-port="0"/>
		<edge from-layer="609" from-port="1" to-layer="610" to-port="1"/>
		<edge from-layer="610" from-port="2" to-layer="611" to-port="0"/>
		<edge from-layer="611" from-port="1" to-layer="616" to-port="0"/>
		<edge from-layer="612" from-port="1" to-layer="616" to-port="1"/>
		<edge from-layer="613" from-port="1" to-layer="616" to-port="2"/>
		<edge from-layer="614" from-port="1" to-layer="616" to-port="3"/>
		<edge from-layer="615" from-port="1" to-layer="616" to-port="4"/>
		<edge from-layer="617" from-port="1" to-layer="618" to-port="0"/>
		<edge from-layer="618" from-port="1" to-layer="623" to-port="0"/>
		<edge from-layer="619" from-port="1" to-layer="623" to-port="1"/>
		<edge from-layer="620" from-port="1" to-layer="623" to-port="2"/>
		<edge from-layer="621" from-port="1" to-layer="623" to-port="3"/>
		<edge from-layer="622" from-port="1" to-layer="623" to-port="4"/>
		<edge from-layer="616" from-port="5" to-layer="624" to-port="0"/>
		<edge from-layer="623" from-port="5" to-layer="624" to-port="1"/>
		<edge from-layer="624" from-port="2" to-layer="626" to-port="0"/>
		<edge from-layer="625" from-port="1" to-layer="626" to-port="1"/>
		<edge from-layer="626" from-port="2" to-layer="631" to-port="0"/>
		<edge from-layer="627" from-port="1" to-layer="631" to-port="1"/>
		<edge from-layer="628" from-port="1" to-layer="631" to-port="2"/>
		<edge from-layer="629" from-port="1" to-layer="631" to-port="3"/>
		<edge from-layer="630" from-port="1" to-layer="631" to-port="4"/>
		<edge from-layer="631" from-port="5" to-layer="632" to-port="0"/>
		<edge from-layer="580" from-port="5" to-layer="632" to-port="1"/>
		<edge from-layer="632" from-port="2" to-layer="637" to-port="0"/>
		<edge from-layer="633" from-port="1" to-layer="637" to-port="1"/>
		<edge from-layer="634" from-port="1" to-layer="637" to-port="2"/>
		<edge from-layer="635" from-port="1" to-layer="637" to-port="3"/>
		<edge from-layer="636" from-port="1" to-layer="637" to-port="4"/>
		<edge from-layer="638" from-port="1" to-layer="639" to-port="0"/>
		<edge from-layer="639" from-port="1" to-layer="644" to-port="0"/>
		<edge from-layer="640" from-port="1" to-layer="644" to-port="1"/>
		<edge from-layer="641" from-port="1" to-layer="644" to-port="2"/>
		<edge from-layer="642" from-port="1" to-layer="644" to-port="3"/>
		<edge from-layer="643" from-port="1" to-layer="644" to-port="4"/>
		<edge from-layer="637" from-port="5" to-layer="645" to-port="0"/>
		<edge from-layer="644" from-port="5" to-layer="645" to-port="1"/>
		<edge from-layer="645" from-port="2" to-layer="647" to-port="0"/>
		<edge from-layer="646" from-port="1" to-layer="647" to-port="1"/>
		<edge from-layer="647" from-port="2" to-layer="648" to-port="0"/>
		<edge from-layer="648" from-port="1" to-layer="653" to-port="0"/>
		<edge from-layer="649" from-port="1" to-layer="653" to-port="1"/>
		<edge from-layer="650" from-port="1" to-layer="653" to-port="2"/>
		<edge from-layer="651" from-port="1" to-layer="653" to-port="3"/>
		<edge from-layer="652" from-port="1" to-layer="653" to-port="4"/>
		<edge from-layer="654" from-port="1" to-layer="655" to-port="0"/>
		<edge from-layer="655" from-port="1" to-layer="660" to-port="0"/>
		<edge from-layer="656" from-port="1" to-layer="660" to-port="1"/>
		<edge from-layer="657" from-port="1" to-layer="660" to-port="2"/>
		<edge from-layer="658" from-port="1" to-layer="660" to-port="3"/>
		<edge from-layer="659" from-port="1" to-layer="660" to-port="4"/>
		<edge from-layer="660" from-port="5" to-layer="662" to-port="0"/>
		<edge from-layer="661" from-port="1" to-layer="662" to-port="1"/>
		<edge from-layer="662" from-port="2" to-layer="664" to-port="0"/>
		<edge from-layer="663" from-port="1" to-layer="664" to-port="1"/>
		<edge from-layer="653" from-port="5" to-layer="665" to-port="0"/>
		<edge from-layer="664" from-port="2" to-layer="665" to-port="1"/>
		<edge from-layer="665" from-port="2" to-layer="667" to-port="0"/>
		<edge from-layer="666" from-port="1" to-layer="667" to-port="1"/>
		<edge from-layer="667" from-port="2" to-layer="668" to-port="0"/>
		<edge from-layer="668" from-port="1" to-layer="673" to-port="0"/>
		<edge from-layer="669" from-port="1" to-layer="673" to-port="1"/>
		<edge from-layer="670" from-port="1" to-layer="673" to-port="2"/>
		<edge from-layer="671" from-port="1" to-layer="673" to-port="3"/>
		<edge from-layer="672" from-port="1" to-layer="673" to-port="4"/>
		<edge from-layer="674" from-port="1" to-layer="675" to-port="0"/>
		<edge from-layer="675" from-port="1" to-layer="680" to-port="0"/>
		<edge from-layer="676" from-port="1" to-layer="680" to-port="1"/>
		<edge from-layer="677" from-port="1" to-layer="680" to-port="2"/>
		<edge from-layer="678" from-port="1" to-layer="680" to-port="3"/>
		<edge from-layer="679" from-port="1" to-layer="680" to-port="4"/>
		<edge from-layer="673" from-port="5" to-layer="681" to-port="0"/>
		<edge from-layer="680" from-port="5" to-layer="681" to-port="1"/>
		<edge from-layer="681" from-port="2" to-layer="683" to-port="0"/>
		<edge from-layer="682" from-port="1" to-layer="683" to-port="1"/>
		<edge from-layer="683" from-port="2" to-layer="688" to-port="0"/>
		<edge from-layer="684" from-port="1" to-layer="688" to-port="1"/>
		<edge from-layer="685" from-port="1" to-layer="688" to-port="2"/>
		<edge from-layer="686" from-port="1" to-layer="688" to-port="3"/>
		<edge from-layer="687" from-port="1" to-layer="688" to-port="4"/>
		<edge from-layer="688" from-port="5" to-layer="689" to-port="0"/>
		<edge from-layer="637" from-port="5" to-layer="689" to-port="1"/>
		<edge from-layer="689" from-port="2" to-layer="694" to-port="0"/>
		<edge from-layer="690" from-port="1" to-layer="694" to-port="1"/>
		<edge from-layer="691" from-port="1" to-layer="694" to-port="2"/>
		<edge from-layer="692" from-port="1" to-layer="694" to-port="3"/>
		<edge from-layer="693" from-port="1" to-layer="694" to-port="4"/>
		<edge from-layer="695" from-port="1" to-layer="696" to-port="0"/>
		<edge from-layer="696" from-port="1" to-layer="701" to-port="0"/>
		<edge from-layer="697" from-port="1" to-layer="701" to-port="1"/>
		<edge from-layer="698" from-port="1" to-layer="701" to-port="2"/>
		<edge from-layer="699" from-port="1" to-layer="701" to-port="3"/>
		<edge from-layer="700" from-port="1" to-layer="701" to-port="4"/>
		<edge from-layer="694" from-port="5" to-layer="702" to-port="0"/>
		<edge from-layer="701" from-port="5" to-layer="702" to-port="1"/>
		<edge from-layer="702" from-port="2" to-layer="704" to-port="0"/>
		<edge from-layer="703" from-port="1" to-layer="704" to-port="1"/>
		<edge from-layer="704" from-port="2" to-layer="705" to-port="0"/>
		<edge from-layer="705" from-port="1" to-layer="710" to-port="0"/>
		<edge from-layer="706" from-port="1" to-layer="710" to-port="1"/>
		<edge from-layer="707" from-port="1" to-layer="710" to-port="2"/>
		<edge from-layer="708" from-port="1" to-layer="710" to-port="3"/>
		<edge from-layer="709" from-port="1" to-layer="710" to-port="4"/>
		<edge from-layer="711" from-port="1" to-layer="712" to-port="0"/>
		<edge from-layer="712" from-port="1" to-layer="717" to-port="0"/>
		<edge from-layer="713" from-port="1" to-layer="717" to-port="1"/>
		<edge from-layer="714" from-port="1" to-layer="717" to-port="2"/>
		<edge from-layer="715" from-port="1" to-layer="717" to-port="3"/>
		<edge from-layer="716" from-port="1" to-layer="717" to-port="4"/>
		<edge from-layer="717" from-port="5" to-layer="719" to-port="0"/>
		<edge from-layer="718" from-port="1" to-layer="719" to-port="1"/>
		<edge from-layer="719" from-port="2" to-layer="721" to-port="0"/>
		<edge from-layer="720" from-port="1" to-layer="721" to-port="1"/>
		<edge from-layer="710" from-port="5" to-layer="722" to-port="0"/>
		<edge from-layer="721" from-port="2" to-layer="722" to-port="1"/>
		<edge from-layer="722" from-port="2" to-layer="724" to-port="0"/>
		<edge from-layer="723" from-port="1" to-layer="724" to-port="1"/>
		<edge from-layer="724" from-port="2" to-layer="725" to-port="0"/>
		<edge from-layer="725" from-port="1" to-layer="730" to-port="0"/>
		<edge from-layer="726" from-port="1" to-layer="730" to-port="1"/>
		<edge from-layer="727" from-port="1" to-layer="730" to-port="2"/>
		<edge from-layer="728" from-port="1" to-layer="730" to-port="3"/>
		<edge from-layer="729" from-port="1" to-layer="730" to-port="4"/>
		<edge from-layer="731" from-port="1" to-layer="732" to-port="0"/>
		<edge from-layer="732" from-port="1" to-layer="737" to-port="0"/>
		<edge from-layer="733" from-port="1" to-layer="737" to-port="1"/>
		<edge from-layer="734" from-port="1" to-layer="737" to-port="2"/>
		<edge from-layer="735" from-port="1" to-layer="737" to-port="3"/>
		<edge from-layer="736" from-port="1" to-layer="737" to-port="4"/>
		<edge from-layer="730" from-port="5" to-layer="738" to-port="0"/>
		<edge from-layer="737" from-port="5" to-layer="738" to-port="1"/>
		<edge from-layer="738" from-port="2" to-layer="740" to-port="0"/>
		<edge from-layer="739" from-port="1" to-layer="740" to-port="1"/>
		<edge from-layer="740" from-port="2" to-layer="745" to-port="0"/>
		<edge from-layer="741" from-port="1" to-layer="745" to-port="1"/>
		<edge from-layer="742" from-port="1" to-layer="745" to-port="2"/>
		<edge from-layer="743" from-port="1" to-layer="745" to-port="3"/>
		<edge from-layer="744" from-port="1" to-layer="745" to-port="4"/>
		<edge from-layer="746" from-port="1" to-layer="747" to-port="0"/>
		<edge from-layer="747" from-port="1" to-layer="752" to-port="0"/>
		<edge from-layer="748" from-port="1" to-layer="752" to-port="1"/>
		<edge from-layer="749" from-port="1" to-layer="752" to-port="2"/>
		<edge from-layer="750" from-port="1" to-layer="752" to-port="3"/>
		<edge from-layer="751" from-port="1" to-layer="752" to-port="4"/>
		<edge from-layer="745" from-port="5" to-layer="753" to-port="0"/>
		<edge from-layer="752" from-port="5" to-layer="753" to-port="1"/>
		<edge from-layer="753" from-port="2" to-layer="755" to-port="0"/>
		<edge from-layer="754" from-port="1" to-layer="755" to-port="1"/>
		<edge from-layer="755" from-port="2" to-layer="756" to-port="0"/>
		<edge from-layer="756" from-port="1" to-layer="761" to-port="0"/>
		<edge from-layer="757" from-port="1" to-layer="761" to-port="1"/>
		<edge from-layer="758" from-port="1" to-layer="761" to-port="2"/>
		<edge from-layer="759" from-port="1" to-layer="761" to-port="3"/>
		<edge from-layer="760" from-port="1" to-layer="761" to-port="4"/>
		<edge from-layer="762" from-port="1" to-layer="763" to-port="0"/>
		<edge from-layer="763" from-port="1" to-layer="768" to-port="0"/>
		<edge from-layer="764" from-port="1" to-layer="768" to-port="1"/>
		<edge from-layer="765" from-port="1" to-layer="768" to-port="2"/>
		<edge from-layer="766" from-port="1" to-layer="768" to-port="3"/>
		<edge from-layer="767" from-port="1" to-layer="768" to-port="4"/>
		<edge from-layer="768" from-port="5" to-layer="770" to-port="0"/>
		<edge from-layer="769" from-port="1" to-layer="770" to-port="1"/>
		<edge from-layer="770" from-port="2" to-layer="772" to-port="0"/>
		<edge from-layer="771" from-port="1" to-layer="772" to-port="1"/>
		<edge from-layer="761" from-port="5" to-layer="773" to-port="0"/>
		<edge from-layer="772" from-port="2" to-layer="773" to-port="1"/>
		<edge from-layer="773" from-port="2" to-layer="775" to-port="0"/>
		<edge from-layer="774" from-port="1" to-layer="775" to-port="1"/>
		<edge from-layer="775" from-port="2" to-layer="776" to-port="0"/>
		<edge from-layer="776" from-port="1" to-layer="781" to-port="0"/>
		<edge from-layer="777" from-port="1" to-layer="781" to-port="1"/>
		<edge from-layer="778" from-port="1" to-layer="781" to-port="2"/>
		<edge from-layer="779" from-port="1" to-layer="781" to-port="3"/>
		<edge from-layer="780" from-port="1" to-layer="781" to-port="4"/>
		<edge from-layer="782" from-port="1" to-layer="783" to-port="0"/>
		<edge from-layer="783" from-port="1" to-layer="788" to-port="0"/>
		<edge from-layer="784" from-port="1" to-layer="788" to-port="1"/>
		<edge from-layer="785" from-port="1" to-layer="788" to-port="2"/>
		<edge from-layer="786" from-port="1" to-layer="788" to-port="3"/>
		<edge from-layer="787" from-port="1" to-layer="788" to-port="4"/>
		<edge from-layer="781" from-port="5" to-layer="789" to-port="0"/>
		<edge from-layer="788" from-port="5" to-layer="789" to-port="1"/>
		<edge from-layer="789" from-port="2" to-layer="791" to-port="0"/>
		<edge from-layer="790" from-port="1" to-layer="791" to-port="1"/>
		<edge from-layer="791" from-port="2" to-layer="796" to-port="0"/>
		<edge from-layer="792" from-port="1" to-layer="796" to-port="1"/>
		<edge from-layer="793" from-port="1" to-layer="796" to-port="2"/>
		<edge from-layer="794" from-port="1" to-layer="796" to-port="3"/>
		<edge from-layer="795" from-port="1" to-layer="796" to-port="4"/>
		<edge from-layer="796" from-port="5" to-layer="797" to-port="0"/>
		<edge from-layer="745" from-port="5" to-layer="797" to-port="1"/>
		<edge from-layer="797" from-port="2" to-layer="802" to-port="0"/>
		<edge from-layer="798" from-port="1" to-layer="802" to-port="1"/>
		<edge from-layer="799" from-port="1" to-layer="802" to-port="2"/>
		<edge from-layer="800" from-port="1" to-layer="802" to-port="3"/>
		<edge from-layer="801" from-port="1" to-layer="802" to-port="4"/>
		<edge from-layer="803" from-port="1" to-layer="804" to-port="0"/>
		<edge from-layer="804" from-port="1" to-layer="809" to-port="0"/>
		<edge from-layer="805" from-port="1" to-layer="809" to-port="1"/>
		<edge from-layer="806" from-port="1" to-layer="809" to-port="2"/>
		<edge from-layer="807" from-port="1" to-layer="809" to-port="3"/>
		<edge from-layer="808" from-port="1" to-layer="809" to-port="4"/>
		<edge from-layer="802" from-port="5" to-layer="810" to-port="0"/>
		<edge from-layer="809" from-port="5" to-layer="810" to-port="1"/>
		<edge from-layer="810" from-port="2" to-layer="812" to-port="0"/>
		<edge from-layer="811" from-port="1" to-layer="812" to-port="1"/>
		<edge from-layer="812" from-port="2" to-layer="813" to-port="0"/>
		<edge from-layer="813" from-port="1" to-layer="818" to-port="0"/>
		<edge from-layer="814" from-port="1" to-layer="818" to-port="1"/>
		<edge from-layer="815" from-port="1" to-layer="818" to-port="2"/>
		<edge from-layer="816" from-port="1" to-layer="818" to-port="3"/>
		<edge from-layer="817" from-port="1" to-layer="818" to-port="4"/>
		<edge from-layer="819" from-port="1" to-layer="820" to-port="0"/>
		<edge from-layer="820" from-port="1" to-layer="825" to-port="0"/>
		<edge from-layer="821" from-port="1" to-layer="825" to-port="1"/>
		<edge from-layer="822" from-port="1" to-layer="825" to-port="2"/>
		<edge from-layer="823" from-port="1" to-layer="825" to-port="3"/>
		<edge from-layer="824" from-port="1" to-layer="825" to-port="4"/>
		<edge from-layer="825" from-port="5" to-layer="827" to-port="0"/>
		<edge from-layer="826" from-port="1" to-layer="827" to-port="1"/>
		<edge from-layer="827" from-port="2" to-layer="829" to-port="0"/>
		<edge from-layer="828" from-port="1" to-layer="829" to-port="1"/>
		<edge from-layer="818" from-port="5" to-layer="830" to-port="0"/>
		<edge from-layer="829" from-port="2" to-layer="830" to-port="1"/>
		<edge from-layer="830" from-port="2" to-layer="832" to-port="0"/>
		<edge from-layer="831" from-port="1" to-layer="832" to-port="1"/>
		<edge from-layer="832" from-port="2" to-layer="833" to-port="0"/>
		<edge from-layer="833" from-port="1" to-layer="838" to-port="0"/>
		<edge from-layer="834" from-port="1" to-layer="838" to-port="1"/>
		<edge from-layer="835" from-port="1" to-layer="838" to-port="2"/>
		<edge from-layer="836" from-port="1" to-layer="838" to-port="3"/>
		<edge from-layer="837" from-port="1" to-layer="838" to-port="4"/>
		<edge from-layer="839" from-port="1" to-layer="840" to-port="0"/>
		<edge from-layer="840" from-port="1" to-layer="845" to-port="0"/>
		<edge from-layer="841" from-port="1" to-layer="845" to-port="1"/>
		<edge from-layer="842" from-port="1" to-layer="845" to-port="2"/>
		<edge from-layer="843" from-port="1" to-layer="845" to-port="3"/>
		<edge from-layer="844" from-port="1" to-layer="845" to-port="4"/>
		<edge from-layer="838" from-port="5" to-layer="846" to-port="0"/>
		<edge from-layer="845" from-port="5" to-layer="846" to-port="1"/>
		<edge from-layer="846" from-port="2" to-layer="848" to-port="0"/>
		<edge from-layer="847" from-port="1" to-layer="848" to-port="1"/>
		<edge from-layer="848" from-port="2" to-layer="853" to-port="0"/>
		<edge from-layer="849" from-port="1" to-layer="853" to-port="1"/>
		<edge from-layer="850" from-port="1" to-layer="853" to-port="2"/>
		<edge from-layer="851" from-port="1" to-layer="853" to-port="3"/>
		<edge from-layer="852" from-port="1" to-layer="853" to-port="4"/>
		<edge from-layer="853" from-port="5" to-layer="854" to-port="0"/>
		<edge from-layer="802" from-port="5" to-layer="854" to-port="1"/>
		<edge from-layer="854" from-port="2" to-layer="859" to-port="0"/>
		<edge from-layer="855" from-port="1" to-layer="859" to-port="1"/>
		<edge from-layer="856" from-port="1" to-layer="859" to-port="2"/>
		<edge from-layer="857" from-port="1" to-layer="859" to-port="3"/>
		<edge from-layer="858" from-port="1" to-layer="859" to-port="4"/>
		<edge from-layer="860" from-port="1" to-layer="861" to-port="0"/>
		<edge from-layer="861" from-port="1" to-layer="866" to-port="0"/>
		<edge from-layer="862" from-port="1" to-layer="866" to-port="1"/>
		<edge from-layer="863" from-port="1" to-layer="866" to-port="2"/>
		<edge from-layer="864" from-port="1" to-layer="866" to-port="3"/>
		<edge from-layer="865" from-port="1" to-layer="866" to-port="4"/>
		<edge from-layer="859" from-port="5" to-layer="867" to-port="0"/>
		<edge from-layer="866" from-port="5" to-layer="867" to-port="1"/>
		<edge from-layer="867" from-port="2" to-layer="869" to-port="0"/>
		<edge from-layer="868" from-port="1" to-layer="869" to-port="1"/>
		<edge from-layer="869" from-port="2" to-layer="870" to-port="0"/>
		<edge from-layer="870" from-port="1" to-layer="875" to-port="0"/>
		<edge from-layer="871" from-port="1" to-layer="875" to-port="1"/>
		<edge from-layer="872" from-port="1" to-layer="875" to-port="2"/>
		<edge from-layer="873" from-port="1" to-layer="875" to-port="3"/>
		<edge from-layer="874" from-port="1" to-layer="875" to-port="4"/>
		<edge from-layer="876" from-port="1" to-layer="877" to-port="0"/>
		<edge from-layer="877" from-port="1" to-layer="882" to-port="0"/>
		<edge from-layer="878" from-port="1" to-layer="882" to-port="1"/>
		<edge from-layer="879" from-port="1" to-layer="882" to-port="2"/>
		<edge from-layer="880" from-port="1" to-layer="882" to-port="3"/>
		<edge from-layer="881" from-port="1" to-layer="882" to-port="4"/>
		<edge from-layer="882" from-port="5" to-layer="884" to-port="0"/>
		<edge from-layer="883" from-port="1" to-layer="884" to-port="1"/>
		<edge from-layer="884" from-port="2" to-layer="886" to-port="0"/>
		<edge from-layer="885" from-port="1" to-layer="886" to-port="1"/>
		<edge from-layer="875" from-port="5" to-layer="887" to-port="0"/>
		<edge from-layer="886" from-port="2" to-layer="887" to-port="1"/>
		<edge from-layer="887" from-port="2" to-layer="889" to-port="0"/>
		<edge from-layer="888" from-port="1" to-layer="889" to-port="1"/>
		<edge from-layer="889" from-port="2" to-layer="890" to-port="0"/>
		<edge from-layer="890" from-port="1" to-layer="895" to-port="0"/>
		<edge from-layer="891" from-port="1" to-layer="895" to-port="1"/>
		<edge from-layer="892" from-port="1" to-layer="895" to-port="2"/>
		<edge from-layer="893" from-port="1" to-layer="895" to-port="3"/>
		<edge from-layer="894" from-port="1" to-layer="895" to-port="4"/>
		<edge from-layer="896" from-port="1" to-layer="897" to-port="0"/>
		<edge from-layer="897" from-port="1" to-layer="902" to-port="0"/>
		<edge from-layer="898" from-port="1" to-layer="902" to-port="1"/>
		<edge from-layer="899" from-port="1" to-layer="902" to-port="2"/>
		<edge from-layer="900" from-port="1" to-layer="902" to-port="3"/>
		<edge from-layer="901" from-port="1" to-layer="902" to-port="4"/>
		<edge from-layer="895" from-port="5" to-layer="903" to-port="0"/>
		<edge from-layer="902" from-port="5" to-layer="903" to-port="1"/>
		<edge from-layer="903" from-port="2" to-layer="905" to-port="0"/>
		<edge from-layer="904" from-port="1" to-layer="905" to-port="1"/>
		<edge from-layer="905" from-port="2" to-layer="910" to-port="0"/>
		<edge from-layer="906" from-port="1" to-layer="910" to-port="1"/>
		<edge from-layer="907" from-port="1" to-layer="910" to-port="2"/>
		<edge from-layer="908" from-port="1" to-layer="910" to-port="3"/>
		<edge from-layer="909" from-port="1" to-layer="910" to-port="4"/>
		<edge from-layer="911" from-port="1" to-layer="912" to-port="0"/>
		<edge from-layer="912" from-port="1" to-layer="917" to-port="0"/>
		<edge from-layer="913" from-port="1" to-layer="917" to-port="1"/>
		<edge from-layer="914" from-port="1" to-layer="917" to-port="2"/>
		<edge from-layer="915" from-port="1" to-layer="917" to-port="3"/>
		<edge from-layer="916" from-port="1" to-layer="917" to-port="4"/>
		<edge from-layer="910" from-port="5" to-layer="918" to-port="0"/>
		<edge from-layer="917" from-port="5" to-layer="918" to-port="1"/>
		<edge from-layer="918" from-port="2" to-layer="920" to-port="0"/>
		<edge from-layer="919" from-port="1" to-layer="920" to-port="1"/>
		<edge from-layer="920" from-port="2" to-layer="921" to-port="0"/>
		<edge from-layer="921" from-port="1" to-layer="926" to-port="0"/>
		<edge from-layer="922" from-port="1" to-layer="926" to-port="1"/>
		<edge from-layer="923" from-port="1" to-layer="926" to-port="2"/>
		<edge from-layer="924" from-port="1" to-layer="926" to-port="3"/>
		<edge from-layer="925" from-port="1" to-layer="926" to-port="4"/>
		<edge from-layer="926" from-port="5" to-layer="927" to-port="0"/>
		<edge from-layer="927" from-port="1" to-layer="932" to-port="0"/>
		<edge from-layer="928" from-port="1" to-layer="932" to-port="1"/>
		<edge from-layer="929" from-port="1" to-layer="932" to-port="2"/>
		<edge from-layer="930" from-port="1" to-layer="932" to-port="3"/>
		<edge from-layer="931" from-port="1" to-layer="932" to-port="4"/>
		<edge from-layer="933" from-port="1" to-layer="934" to-port="0"/>
		<edge from-layer="934" from-port="1" to-layer="939" to-port="0"/>
		<edge from-layer="935" from-port="1" to-layer="939" to-port="1"/>
		<edge from-layer="936" from-port="1" to-layer="939" to-port="2"/>
		<edge from-layer="937" from-port="1" to-layer="939" to-port="3"/>
		<edge from-layer="938" from-port="1" to-layer="939" to-port="4"/>
		<edge from-layer="932" from-port="5" to-layer="940" to-port="0"/>
		<edge from-layer="939" from-port="5" to-layer="940" to-port="1"/>
		<edge from-layer="940" from-port="2" to-layer="942" to-port="0"/>
		<edge from-layer="941" from-port="1" to-layer="942" to-port="1"/>
		<edge from-layer="942" from-port="2" to-layer="944" to-port="0"/>
		<edge from-layer="943" from-port="1" to-layer="944" to-port="1"/>
		<edge from-layer="944" from-port="2" to-layer="946" to-port="0"/>
		<edge from-layer="945" from-port="1" to-layer="946" to-port="1"/>
		<edge from-layer="946" from-port="2" to-layer="947" to-port="0"/>
	</edges>
	<meta_data>
		<MO_version value="unknown version"/>
		<cli_parameters>
			<blobs_as_inputs value="True"/>
			<caffe_parser_path value="DIR"/>
			<data_type value="FP32"/>
			<disable_nhwc_to_nchw value="False"/>
			<disable_omitting_optional value="False"/>
			<disable_resnet_optimization value="False"/>
			<disable_weights_compression value="False"/>
			<enable_concat_optimization value="False"/>
			<enable_flattening_nested_params value="False"/>
			<enable_ssd_gluoncv value="False"/>
			<extensions value="DIR"/>
			<framework value="tf"/>
			<freeze_placeholder_with_value value="{}"/>
			<generate_deprecated_IR_V2 value="False"/>
			<generate_deprecated_IR_V7 value="False"/>
			<generate_experimental_IR_V10 value="True"/>
			<input_model value="DIR/mobilenet_v2_1.0_224.pb"/>
			<input_model_is_text value="False"/>
			<input_shape value="(1, 224, 224, 3)"/>
			<k value="DIR/CustomLayersMapping.xml"/>
			<keep_quantize_ops_in_IR value="True"/>
			<keep_shape_ops value="False"/>
			<legacy_mxnet_model value="False"/>
			<log_level value="ERROR"/>
			<mean_scale_values value="[(array([127.5, 127.5, 127.5]), None)]"/>
			<mean_values value="(127.5, 127.5, 127.5)"/>
			<model_name value="mobilenet_v2_1.0_224"/>
			<move_to_preprocess value="False"/>
			<output_dir value="DIR"/>
			<placeholder_data_types value="{}"/>
			<placeholder_shapes value="[  1 224 224   3]"/>
			<progress value="False"/>
			<remove_memory value="False"/>
			<remove_output_softmax value="False"/>
			<reverse_input_channels value="True"/>
			<save_params_from_nd value="False"/>
			<scale value="127.5"/>
			<scale_values value="()"/>
			<silent value="False"/>
			<stream_output value="False"/>
			<unset unset_cli_parameters="batch, counts, disable_fusing, disable_gfusing, finegrain_fusing, input, input_checkpoint, input_meta_graph, input_proto, input_symbol, mean_file, mean_file_offsets, nd_prefix_name, output, pretrained_model_name, saved_model_dir, saved_model_tags, tensorboard_logdir, tensorflow_custom_layer_libraries, tensorflow_custom_operations_config_update, tensorflow_object_detection_api_pipeline_config, tensorflow_use_custom_operations_config, transformations_config"/>
		</cli_parameters>
	</meta_data>
	<quantization_parameters>
		<config>{
		'compression': {
			'target_device': 'CPU',
			'algorithms': [
				{
					'name': 'AccuracyAwareQuantization',
					'params': {
						'preset': 'performance',
						'stat_subset_size': 300,
						'metric_subset_ratio': 0.2,
						'max_iter_num': 20,
						'maximal_drop': 0.01,
						'drop_type': 'relative',
						'metrics': [
							{
								'name': 'accuracy @ top1',
								'baseline_value': 0.7019
							},
							{
								'name': 'accuracy @ top5',
								'baseline_value': 0.8961
							}
						]
					}
				}
			]
		},
		'engine': {
			'models': [
				{
					'name': 'mobilenet_v2_1.0_224',
					'launchers': [
						{
							'framework': 'dlsdk',
							'device': 'CPU',
							'adapter': 'classification'
						}
					],
					'datasets': [
						{
							'name': 'ImageNet2012_bkgr',
							'data_source': 'PATH',
							'annotation': 'PATH',
							'dataset_meta': 'PATH',
							'annotation_conversion': {
								'converter': 'imagenet',
								'annotation_file': 'PATH',
								'labels_file': 'PATH',
								'has_background': true
							},
							'metrics': [
								{
									'name': 'accuracy @ top1',
									'type': 'accuracy',
									'top_k': 1
								},
								{
									'name': 'accuracy @ top5',
									'type': 'accuracy',
									'top_k': 5
								}
							],
							'preprocessing': [
								{
									'type': 'resize',
									'size': 256
								},
								{
									'type': 'crop',
									'size': 224
								}
							]
						}
					]
				}
			],
			'stat_requests_number': null,
			'eval_requests_number': null,
			'type': 'accuracy_checker'
		}
	}</config>
		<version value="1.0"/>
		<cli_params value="{'evaluate': False, 'output_dir': 'PATH', 'direct_dump': True, 'log_level': 'DEBUG', 'pbar': False, 'keep_uncompressed_weights': False}"/>
	</quantization_parameters>
</net>
