<?xml version="1.0" ?>
<net name="resnet_v1_50" version="10">
	<layers>
		<layer id="0" name="input" type="Parameter" version="opset1">
			<data element_type="f32" shape="1,3,224,224"/>
			<output>
				<port id="0" precision="FP32">
					<dim>1</dim>
					<dim>3</dim>
					<dim>224</dim>
					<dim>224</dim>
				</port>
			</output>
		</layer>
		<layer id="1" name="input/reverse_input_channels14964/Concat14981_const297_const" type="Const" version="opset1">
			<data element_type="f32" offset="0" shape="1,3,1,1" size="12"/>
			<output>
				<port id="1" precision="FP32">
					<dim>1</dim>
					<dim>3</dim>
					<dim>1</dim>
					<dim>1</dim>
				</port>
			</output>
		</layer>
		<layer id="2" name="Add_" type="Add" version="opset1">
			<input>
				<port id="0">
					<dim>1</dim>
					<dim>3</dim>
					<dim>224</dim>
					<dim>224</dim>
				</port>
				<port id="1">
					<dim>1</dim>
					<dim>3</dim>
					<dim>1</dim>
					<dim>1</dim>
				</port>
			</input>
			<output>
				<port id="2" precision="FP32">
					<dim>1</dim>
					<dim>3</dim>
					<dim>224</dim>
					<dim>224</dim>
				</port>
			</output>
		</layer>
		<layer id="3" name="22572261_const" type="Const" version="opset1">
			<data element_type="f32" offset="12" shape="" size="4"/>
			<output>
				<port id="1" precision="FP32"/>
			</output>
		</layer>
		<layer id="4" name="22582262_const" type="Const" version="opset1">
			<data element_type="f32" offset="16" shape="" size="4"/>
			<output>
				<port id="1" precision="FP32"/>
			</output>
		</layer>
		<layer id="5" name="22592263_const" type="Const" version="opset1">
			<data element_type="f32" offset="12" shape="" size="4"/>
			<output>
				<port id="1" precision="FP32"/>
			</output>
		</layer>
		<layer id="6" name="22602264_const" type="Const" version="opset1">
			<data element_type="f32" offset="16" shape="" size="4"/>
			<output>
				<port id="1" precision="FP32"/>
			</output>
		</layer>
		<layer id="7" name="resnet_v1_50/conv1/Conv2D/fq_input_0" type="FakeQuantize" version="opset1">
			<data levels="256"/>
			<input>
				<port id="0">
					<dim>1</dim>
					<dim>3</dim>
					<dim>224</dim>
					<dim>224</dim>
				</port>
				<port id="1"/>
				<port id="2"/>
				<port id="3"/>
				<port id="4"/>
			</input>
			<output>
				<port id="5" precision="FP32">
					<dim>1</dim>
					<dim>3</dim>
					<dim>224</dim>
					<dim>224</dim>
				</port>
			</output>
		</layer>
		<layer id="8" name="resnet_v1_50/conv1/Conv2D/fq_weights_1/Convert_to_float/Cast_05463_const" type="Const" version="opset1">
			<data element_type="u8" offset="20" shape="64,3,7,7" size="9408"/>
			<output>
				<port id="1" precision="U8">
					<dim>64</dim>
					<dim>3</dim>
					<dim>7</dim>
					<dim>7</dim>
				</port>
			</output>
		</layer>
		<layer id="9" name="resnet_v1_50/conv1/Conv2D/fq_weights_1/Convert_to_float" type="Convert" version="opset1">
			<data destination_type="f32"/>
			<input>
				<port id="0">
					<dim>64</dim>
					<dim>3</dim>
					<dim>7</dim>
					<dim>7</dim>
				</port>
			</input>
			<output>
				<port id="1" precision="FP32">
					<dim>64</dim>
					<dim>3</dim>
					<dim>7</dim>
					<dim>7</dim>
				</port>
			</output>
		</layer>
		<layer id="10" name="resnet_v1_50/conv1/Conv2D/fq_weights_1/Copy/out_low4757_const" type="Const" version="opset1">
			<data element_type="f32" offset="9428" shape="1" size="4"/>
			<output>
				<port id="1" precision="FP32">
					<dim>1</dim>
				</port>
			</output>
		</layer>
		<layer id="11" name="resnet_v1_50/conv1/Conv2D/fq_weights_1/Copy/out_high4758_const" type="Const" version="opset1">
			<data element_type="f32" offset="9432" shape="1" size="4"/>
			<output>
				<port id="1" precision="FP32">
					<dim>1</dim>
				</port>
			</output>
		</layer>
		<layer id="12" name="22692273_const" type="Const" version="opset1">
			<data element_type="f32" offset="9436" shape="64,1,1,1" size="256"/>
			<output>
				<port id="1" precision="FP32">
					<dim>64</dim>
					<dim>1</dim>
					<dim>1</dim>
					<dim>1</dim>
				</port>
			</output>
		</layer>
		<layer id="13" name="22702274_const" type="Const" version="opset1">
			<data element_type="f32" offset="9692" shape="64,1,1,1" size="256"/>
			<output>
				<port id="1" precision="FP32">
					<dim>64</dim>
					<dim>1</dim>
					<dim>1</dim>
					<dim>1</dim>
				</port>
			</output>
		</layer>
		<layer id="14" name="resnet_v1_50/conv1/Conv2D/fq_weights_1" type="FakeQuantize" version="opset1">
			<data levels="255"/>
			<input>
				<port id="0">
					<dim>64</dim>
					<dim>3</dim>
					<dim>7</dim>
					<dim>7</dim>
				</port>
				<port id="1">
					<dim>1</dim>
				</port>
				<port id="2">
					<dim>1</dim>
				</port>
				<port id="3">
					<dim>64</dim>
					<dim>1</dim>
					<dim>1</dim>
					<dim>1</dim>
				</port>
				<port id="4">
					<dim>64</dim>
					<dim>1</dim>
					<dim>1</dim>
					<dim>1</dim>
				</port>
			</input>
			<output>
				<port id="5" precision="FP32">
					<dim>64</dim>
					<dim>3</dim>
					<dim>7</dim>
					<dim>7</dim>
				</port>
			</output>
		</layer>
		<layer id="15" name="resnet_v1_50/conv1/Conv2D" type="Convolution" version="opset1">
			<data dilations="1,1" output_padding="0,0" pads_begin="3,3" pads_end="3,3" strides="2,2"/>
			<input>
				<port id="0">
					<dim>1</dim>
					<dim>3</dim>
					<dim>224</dim>
					<dim>224</dim>
				</port>
				<port id="1">
					<dim>64</dim>
					<dim>3</dim>
					<dim>7</dim>
					<dim>7</dim>
				</port>
			</input>
			<output>
				<port id="2" precision="FP32">
					<dim>1</dim>
					<dim>64</dim>
					<dim>112</dim>
					<dim>112</dim>
				</port>
			</output>
		</layer>
		<layer id="16" name="data_add_1031010315/copy_const301_const" type="Const" version="opset1">
			<data element_type="f32" offset="9948" shape="1,64,1,1" size="256"/>
			<output>
				<port id="1" precision="FP32">
					<dim>1</dim>
					<dim>64</dim>
					<dim>1</dim>
					<dim>1</dim>
				</port>
			</output>
		</layer>
		<layer id="17" name="resnet_v1_50/conv1/BatchNorm/FusedBatchNormV3/variance/Fused_Add_" type="Add" version="opset1">
			<input>
				<port id="0">
					<dim>1</dim>
					<dim>64</dim>
					<dim>112</dim>
					<dim>112</dim>
				</port>
				<port id="1">
					<dim>1</dim>
					<dim>64</dim>
					<dim>1</dim>
					<dim>1</dim>
				</port>
			</input>
			<output>
				<port id="2" precision="FP32">
					<dim>1</dim>
					<dim>64</dim>
					<dim>112</dim>
					<dim>112</dim>
				</port>
			</output>
		</layer>
		<layer id="18" name="resnet_v1_50/conv1/Relu" type="ReLU" version="opset1">
			<input>
				<port id="0">
					<dim>1</dim>
					<dim>64</dim>
					<dim>112</dim>
					<dim>112</dim>
				</port>
			</input>
			<output>
				<port id="1" precision="FP32">
					<dim>1</dim>
					<dim>64</dim>
					<dim>112</dim>
					<dim>112</dim>
				</port>
			</output>
		</layer>
		<layer id="19" name="30133017_const" type="Const" version="opset1">
			<data element_type="f32" offset="10204" shape="" size="4"/>
			<output>
				<port id="1" precision="FP32"/>
			</output>
		</layer>
		<layer id="20" name="30143018_const" type="Const" version="opset1">
			<data element_type="f32" offset="10208" shape="" size="4"/>
			<output>
				<port id="1" precision="FP32"/>
			</output>
		</layer>
		<layer id="21" name="30153019_const" type="Const" version="opset1">
			<data element_type="f32" offset="10204" shape="" size="4"/>
			<output>
				<port id="1" precision="FP32"/>
			</output>
		</layer>
		<layer id="22" name="30163020_const" type="Const" version="opset1">
			<data element_type="f32" offset="10208" shape="" size="4"/>
			<output>
				<port id="1" precision="FP32"/>
			</output>
		</layer>
		<layer id="23" name="resnet_v1_50/pool1/MaxPool/fq_input_0" type="FakeQuantize" version="opset1">
			<data levels="256"/>
			<input>
				<port id="0">
					<dim>1</dim>
					<dim>64</dim>
					<dim>112</dim>
					<dim>112</dim>
				</port>
				<port id="1"/>
				<port id="2"/>
				<port id="3"/>
				<port id="4"/>
			</input>
			<output>
				<port id="5" precision="FP32">
					<dim>1</dim>
					<dim>64</dim>
					<dim>112</dim>
					<dim>112</dim>
				</port>
			</output>
		</layer>
		<layer id="24" name="resnet_v1_50/pool1/MaxPool" type="MaxPool" version="opset1">
			<data auto_pad="same_upper" kernel="3,3" pads_begin="0,0" pads_end="1,1" strides="2,2"/>
			<input>
				<port id="0">
					<dim>1</dim>
					<dim>64</dim>
					<dim>112</dim>
					<dim>112</dim>
				</port>
			</input>
			<output>
				<port id="1" precision="FP32">
					<dim>1</dim>
					<dim>64</dim>
					<dim>56</dim>
					<dim>56</dim>
				</port>
			</output>
		</layer>
		<layer id="25" name="resnet_v1_50/block1/unit_1/bottleneck_v1/shortcut/Conv2D/fq_weights_1/Convert_to_float/Cast_05491_const" type="Const" version="opset1">
			<data element_type="u8" offset="10212" shape="256,64,1,1" size="16384"/>
			<output>
				<port id="1" precision="U8">
					<dim>256</dim>
					<dim>64</dim>
					<dim>1</dim>
					<dim>1</dim>
				</port>
			</output>
		</layer>
		<layer id="26" name="resnet_v1_50/block1/unit_1/bottleneck_v1/shortcut/Conv2D/fq_weights_1/Convert_to_float" type="Convert" version="opset1">
			<data destination_type="f32"/>
			<input>
				<port id="0">
					<dim>256</dim>
					<dim>64</dim>
					<dim>1</dim>
					<dim>1</dim>
				</port>
			</input>
			<output>
				<port id="1" precision="FP32">
					<dim>256</dim>
					<dim>64</dim>
					<dim>1</dim>
					<dim>1</dim>
				</port>
			</output>
		</layer>
		<layer id="27" name="resnet_v1_50/block1/unit_1/bottleneck_v1/shortcut/Conv2D/fq_weights_1/Copy/out_low4669_const" type="Const" version="opset1">
			<data element_type="f32" offset="26596" shape="1" size="4"/>
			<output>
				<port id="1" precision="FP32">
					<dim>1</dim>
				</port>
			</output>
		</layer>
		<layer id="28" name="resnet_v1_50/block1/unit_1/bottleneck_v1/shortcut/Conv2D/fq_weights_1/Copy/out_high4670_const" type="Const" version="opset1">
			<data element_type="f32" offset="9432" shape="1" size="4"/>
			<output>
				<port id="1" precision="FP32">
					<dim>1</dim>
				</port>
			</output>
		</layer>
		<layer id="29" name="18191823_const" type="Const" version="opset1">
			<data element_type="f32" offset="26600" shape="256,1,1,1" size="1024"/>
			<output>
				<port id="1" precision="FP32">
					<dim>256</dim>
					<dim>1</dim>
					<dim>1</dim>
					<dim>1</dim>
				</port>
			</output>
		</layer>
		<layer id="30" name="18201824_const" type="Const" version="opset1">
			<data element_type="f32" offset="27624" shape="256,1,1,1" size="1024"/>
			<output>
				<port id="1" precision="FP32">
					<dim>256</dim>
					<dim>1</dim>
					<dim>1</dim>
					<dim>1</dim>
				</port>
			</output>
		</layer>
		<layer id="31" name="resnet_v1_50/block1/unit_1/bottleneck_v1/shortcut/Conv2D/fq_weights_1" type="FakeQuantize" version="opset1">
			<data levels="255"/>
			<input>
				<port id="0">
					<dim>256</dim>
					<dim>64</dim>
					<dim>1</dim>
					<dim>1</dim>
				</port>
				<port id="1">
					<dim>1</dim>
				</port>
				<port id="2">
					<dim>1</dim>
				</port>
				<port id="3">
					<dim>256</dim>
					<dim>1</dim>
					<dim>1</dim>
					<dim>1</dim>
				</port>
				<port id="4">
					<dim>256</dim>
					<dim>1</dim>
					<dim>1</dim>
					<dim>1</dim>
				</port>
			</input>
			<output>
				<port id="5" precision="FP32">
					<dim>256</dim>
					<dim>64</dim>
					<dim>1</dim>
					<dim>1</dim>
				</port>
			</output>
		</layer>
		<layer id="32" name="resnet_v1_50/block1/unit_1/bottleneck_v1/shortcut/Conv2D" type="Convolution" version="opset1">
			<data auto_pad="same_upper" dilations="1,1" output_padding="0,0" pads_begin="0,0" pads_end="0,0" strides="1,1"/>
			<input>
				<port id="0">
					<dim>1</dim>
					<dim>64</dim>
					<dim>56</dim>
					<dim>56</dim>
				</port>
				<port id="1">
					<dim>256</dim>
					<dim>64</dim>
					<dim>1</dim>
					<dim>1</dim>
				</port>
			</input>
			<output>
				<port id="2" precision="FP32">
					<dim>1</dim>
					<dim>256</dim>
					<dim>56</dim>
					<dim>56</dim>
				</port>
			</output>
		</layer>
		<layer id="33" name="data_add_1034210347/copy_const307_const" type="Const" version="opset1">
			<data element_type="f32" offset="28648" shape="1,256,1,1" size="1024"/>
			<output>
				<port id="1" precision="FP32">
					<dim>1</dim>
					<dim>256</dim>
					<dim>1</dim>
					<dim>1</dim>
				</port>
			</output>
		</layer>
		<layer id="34" name="resnet_v1_50/block1/unit_1/bottleneck_v1/shortcut/BatchNorm/FusedBatchNormV3/variance/Fused_Add_" type="Add" version="opset1">
			<input>
				<port id="0">
					<dim>1</dim>
					<dim>256</dim>
					<dim>56</dim>
					<dim>56</dim>
				</port>
				<port id="1">
					<dim>1</dim>
					<dim>256</dim>
					<dim>1</dim>
					<dim>1</dim>
				</port>
			</input>
			<output>
				<port id="2" precision="FP32">
					<dim>1</dim>
					<dim>256</dim>
					<dim>56</dim>
					<dim>56</dim>
				</port>
			</output>
		</layer>
		<layer id="35" name="15871591_const" type="Const" version="opset1">
			<data element_type="f32" offset="29672" shape="" size="4"/>
			<output>
				<port id="1" precision="FP32"/>
			</output>
		</layer>
		<layer id="36" name="15881592_const" type="Const" version="opset1">
			<data element_type="f32" offset="29676" shape="" size="4"/>
			<output>
				<port id="1" precision="FP32"/>
			</output>
		</layer>
		<layer id="37" name="15891593_const" type="Const" version="opset1">
			<data element_type="f32" offset="29672" shape="" size="4"/>
			<output>
				<port id="1" precision="FP32"/>
			</output>
		</layer>
		<layer id="38" name="15901594_const" type="Const" version="opset1">
			<data element_type="f32" offset="29676" shape="" size="4"/>
			<output>
				<port id="1" precision="FP32"/>
			</output>
		</layer>
		<layer id="39" name="resnet_v1_50/block1/unit_1/bottleneck_v1/add/fq_input_0" type="FakeQuantize" version="opset1">
			<data levels="256"/>
			<input>
				<port id="0">
					<dim>1</dim>
					<dim>256</dim>
					<dim>56</dim>
					<dim>56</dim>
				</port>
				<port id="1"/>
				<port id="2"/>
				<port id="3"/>
				<port id="4"/>
			</input>
			<output>
				<port id="5" precision="FP32">
					<dim>1</dim>
					<dim>256</dim>
					<dim>56</dim>
					<dim>56</dim>
				</port>
			</output>
		</layer>
		<layer id="40" name="resnet_v1_50/block1/unit_1/bottleneck_v1/conv1/Conv2D/fq_weights_1/Convert_to_float/Cast_05443_const" type="Const" version="opset1">
			<data element_type="u8" offset="29680" shape="64,64,1,1" size="4096"/>
			<output>
				<port id="1" precision="U8">
					<dim>64</dim>
					<dim>64</dim>
					<dim>1</dim>
					<dim>1</dim>
				</port>
			</output>
		</layer>
		<layer id="41" name="resnet_v1_50/block1/unit_1/bottleneck_v1/conv1/Conv2D/fq_weights_1/Convert_to_float" type="Convert" version="opset1">
			<data destination_type="f32"/>
			<input>
				<port id="0">
					<dim>64</dim>
					<dim>64</dim>
					<dim>1</dim>
					<dim>1</dim>
				</port>
			</input>
			<output>
				<port id="1" precision="FP32">
					<dim>64</dim>
					<dim>64</dim>
					<dim>1</dim>
					<dim>1</dim>
				</port>
			</output>
		</layer>
		<layer id="42" name="resnet_v1_50/block1/unit_1/bottleneck_v1/conv1/Conv2D/fq_weights_1/Copy/out_low4501_const" type="Const" version="opset1">
			<data element_type="f32" offset="26596" shape="1" size="4"/>
			<output>
				<port id="1" precision="FP32">
					<dim>1</dim>
				</port>
			</output>
		</layer>
		<layer id="43" name="resnet_v1_50/block1/unit_1/bottleneck_v1/conv1/Conv2D/fq_weights_1/Copy/out_high4502_const" type="Const" version="opset1">
			<data element_type="f32" offset="9432" shape="1" size="4"/>
			<output>
				<port id="1" precision="FP32">
					<dim>1</dim>
				</port>
			</output>
		</layer>
		<layer id="44" name="11391143_const" type="Const" version="opset1">
			<data element_type="f32" offset="33776" shape="64,1,1,1" size="256"/>
			<output>
				<port id="1" precision="FP32">
					<dim>64</dim>
					<dim>1</dim>
					<dim>1</dim>
					<dim>1</dim>
				</port>
			</output>
		</layer>
		<layer id="45" name="11401144_const" type="Const" version="opset1">
			<data element_type="f32" offset="34032" shape="64,1,1,1" size="256"/>
			<output>
				<port id="1" precision="FP32">
					<dim>64</dim>
					<dim>1</dim>
					<dim>1</dim>
					<dim>1</dim>
				</port>
			</output>
		</layer>
		<layer id="46" name="resnet_v1_50/block1/unit_1/bottleneck_v1/conv1/Conv2D/fq_weights_1" type="FakeQuantize" version="opset1">
			<data levels="255"/>
			<input>
				<port id="0">
					<dim>64</dim>
					<dim>64</dim>
					<dim>1</dim>
					<dim>1</dim>
				</port>
				<port id="1">
					<dim>1</dim>
				</port>
				<port id="2">
					<dim>1</dim>
				</port>
				<port id="3">
					<dim>64</dim>
					<dim>1</dim>
					<dim>1</dim>
					<dim>1</dim>
				</port>
				<port id="4">
					<dim>64</dim>
					<dim>1</dim>
					<dim>1</dim>
					<dim>1</dim>
				</port>
			</input>
			<output>
				<port id="5" precision="FP32">
					<dim>64</dim>
					<dim>64</dim>
					<dim>1</dim>
					<dim>1</dim>
				</port>
			</output>
		</layer>
		<layer id="47" name="resnet_v1_50/block1/unit_1/bottleneck_v1/conv1/Conv2D" type="Convolution" version="opset1">
			<data auto_pad="same_upper" dilations="1,1" output_padding="0,0" pads_begin="0,0" pads_end="0,0" strides="1,1"/>
			<input>
				<port id="0">
					<dim>1</dim>
					<dim>64</dim>
					<dim>56</dim>
					<dim>56</dim>
				</port>
				<port id="1">
					<dim>64</dim>
					<dim>64</dim>
					<dim>1</dim>
					<dim>1</dim>
				</port>
			</input>
			<output>
				<port id="2" precision="FP32">
					<dim>1</dim>
					<dim>64</dim>
					<dim>56</dim>
					<dim>56</dim>
				</port>
			</output>
		</layer>
		<layer id="48" name="data_add_1031810323/copy_const311_const" type="Const" version="opset1">
			<data element_type="f32" offset="34288" shape="1,64,1,1" size="256"/>
			<output>
				<port id="1" precision="FP32">
					<dim>1</dim>
					<dim>64</dim>
					<dim>1</dim>
					<dim>1</dim>
				</port>
			</output>
		</layer>
		<layer id="49" name="resnet_v1_50/block1/unit_1/bottleneck_v1/conv1/BatchNorm/FusedBatchNormV3/variance/Fused_Add_" type="Add" version="opset1">
			<input>
				<port id="0">
					<dim>1</dim>
					<dim>64</dim>
					<dim>56</dim>
					<dim>56</dim>
				</port>
				<port id="1">
					<dim>1</dim>
					<dim>64</dim>
					<dim>1</dim>
					<dim>1</dim>
				</port>
			</input>
			<output>
				<port id="2" precision="FP32">
					<dim>1</dim>
					<dim>64</dim>
					<dim>56</dim>
					<dim>56</dim>
				</port>
			</output>
		</layer>
		<layer id="50" name="resnet_v1_50/block1/unit_1/bottleneck_v1/conv1/Relu" type="ReLU" version="opset1">
			<input>
				<port id="0">
					<dim>1</dim>
					<dim>64</dim>
					<dim>56</dim>
					<dim>56</dim>
				</port>
			</input>
			<output>
				<port id="1" precision="FP32">
					<dim>1</dim>
					<dim>64</dim>
					<dim>56</dim>
					<dim>56</dim>
				</port>
			</output>
		</layer>
		<layer id="51" name="13471351_const" type="Const" version="opset1">
			<data element_type="f32" offset="34544" shape="" size="4"/>
			<output>
				<port id="1" precision="FP32"/>
			</output>
		</layer>
		<layer id="52" name="13481352_const" type="Const" version="opset1">
			<data element_type="f32" offset="34548" shape="" size="4"/>
			<output>
				<port id="1" precision="FP32"/>
			</output>
		</layer>
		<layer id="53" name="13491353_const" type="Const" version="opset1">
			<data element_type="f32" offset="34544" shape="" size="4"/>
			<output>
				<port id="1" precision="FP32"/>
			</output>
		</layer>
		<layer id="54" name="13501354_const" type="Const" version="opset1">
			<data element_type="f32" offset="34548" shape="" size="4"/>
			<output>
				<port id="1" precision="FP32"/>
			</output>
		</layer>
		<layer id="55" name="resnet_v1_50/block1/unit_1/bottleneck_v1/conv2/Conv2D/fq_input_0" type="FakeQuantize" version="opset1">
			<data levels="256"/>
			<input>
				<port id="0">
					<dim>1</dim>
					<dim>64</dim>
					<dim>56</dim>
					<dim>56</dim>
				</port>
				<port id="1"/>
				<port id="2"/>
				<port id="3"/>
				<port id="4"/>
			</input>
			<output>
				<port id="5" precision="FP32">
					<dim>1</dim>
					<dim>64</dim>
					<dim>56</dim>
					<dim>56</dim>
				</port>
			</output>
		</layer>
		<layer id="56" name="resnet_v1_50/block1/unit_1/bottleneck_v1/conv2/Conv2D/fq_weights_1/Convert_to_float/Cast_05401_const" type="Const" version="opset1">
			<data element_type="u8" offset="34552" shape="64,64,3,3" size="36864"/>
			<output>
				<port id="1" precision="U8">
					<dim>64</dim>
					<dim>64</dim>
					<dim>3</dim>
					<dim>3</dim>
				</port>
			</output>
		</layer>
		<layer id="57" name="resnet_v1_50/block1/unit_1/bottleneck_v1/conv2/Conv2D/fq_weights_1/Convert_to_float" type="Convert" version="opset1">
			<data destination_type="f32"/>
			<input>
				<port id="0">
					<dim>64</dim>
					<dim>64</dim>
					<dim>3</dim>
					<dim>3</dim>
				</port>
			</input>
			<output>
				<port id="1" precision="FP32">
					<dim>64</dim>
					<dim>64</dim>
					<dim>3</dim>
					<dim>3</dim>
				</port>
			</output>
		</layer>
		<layer id="58" name="resnet_v1_50/block1/unit_1/bottleneck_v1/conv2/Conv2D/fq_weights_1/Copy/out_low4445_const" type="Const" version="opset1">
			<data element_type="f32" offset="71416" shape="1" size="4"/>
			<output>
				<port id="1" precision="FP32">
					<dim>1</dim>
				</port>
			</output>
		</layer>
		<layer id="59" name="resnet_v1_50/block1/unit_1/bottleneck_v1/conv2/Conv2D/fq_weights_1/Copy/out_high4446_const" type="Const" version="opset1">
			<data element_type="f32" offset="9432" shape="1" size="4"/>
			<output>
				<port id="1" precision="FP32">
					<dim>1</dim>
				</port>
			</output>
		</layer>
		<layer id="60" name="13591363_const" type="Const" version="opset1">
			<data element_type="f32" offset="71420" shape="64,1,1,1" size="256"/>
			<output>
				<port id="1" precision="FP32">
					<dim>64</dim>
					<dim>1</dim>
					<dim>1</dim>
					<dim>1</dim>
				</port>
			</output>
		</layer>
		<layer id="61" name="13601364_const" type="Const" version="opset1">
			<data element_type="f32" offset="71676" shape="64,1,1,1" size="256"/>
			<output>
				<port id="1" precision="FP32">
					<dim>64</dim>
					<dim>1</dim>
					<dim>1</dim>
					<dim>1</dim>
				</port>
			</output>
		</layer>
		<layer id="62" name="resnet_v1_50/block1/unit_1/bottleneck_v1/conv2/Conv2D/fq_weights_1" type="FakeQuantize" version="opset1">
			<data levels="255"/>
			<input>
				<port id="0">
					<dim>64</dim>
					<dim>64</dim>
					<dim>3</dim>
					<dim>3</dim>
				</port>
				<port id="1">
					<dim>1</dim>
				</port>
				<port id="2">
					<dim>1</dim>
				</port>
				<port id="3">
					<dim>64</dim>
					<dim>1</dim>
					<dim>1</dim>
					<dim>1</dim>
				</port>
				<port id="4">
					<dim>64</dim>
					<dim>1</dim>
					<dim>1</dim>
					<dim>1</dim>
				</port>
			</input>
			<output>
				<port id="5" precision="FP32">
					<dim>64</dim>
					<dim>64</dim>
					<dim>3</dim>
					<dim>3</dim>
				</port>
			</output>
		</layer>
		<layer id="63" name="resnet_v1_50/block1/unit_1/bottleneck_v1/conv2/Conv2D" type="Convolution" version="opset1">
			<data auto_pad="same_upper" dilations="1,1" output_padding="0,0" pads_begin="1,1" pads_end="1,1" strides="1,1"/>
			<input>
				<port id="0">
					<dim>1</dim>
					<dim>64</dim>
					<dim>56</dim>
					<dim>56</dim>
				</port>
				<port id="1">
					<dim>64</dim>
					<dim>64</dim>
					<dim>3</dim>
					<dim>3</dim>
				</port>
			</input>
			<output>
				<port id="2" precision="FP32">
					<dim>1</dim>
					<dim>64</dim>
					<dim>56</dim>
					<dim>56</dim>
				</port>
			</output>
		</layer>
		<layer id="64" name="data_add_1032610331/copy_const316_const" type="Const" version="opset1">
			<data element_type="f32" offset="71932" shape="1,64,1,1" size="256"/>
			<output>
				<port id="1" precision="FP32">
					<dim>1</dim>
					<dim>64</dim>
					<dim>1</dim>
					<dim>1</dim>
				</port>
			</output>
		</layer>
		<layer id="65" name="resnet_v1_50/block1/unit_1/bottleneck_v1/conv2/BatchNorm/FusedBatchNormV3/variance/Fused_Add_" type="Add" version="opset1">
			<input>
				<port id="0">
					<dim>1</dim>
					<dim>64</dim>
					<dim>56</dim>
					<dim>56</dim>
				</port>
				<port id="1">
					<dim>1</dim>
					<dim>64</dim>
					<dim>1</dim>
					<dim>1</dim>
				</port>
			</input>
			<output>
				<port id="2" precision="FP32">
					<dim>1</dim>
					<dim>64</dim>
					<dim>56</dim>
					<dim>56</dim>
				</port>
			</output>
		</layer>
		<layer id="66" name="resnet_v1_50/block1/unit_1/bottleneck_v1/conv2/Relu" type="ReLU" version="opset1">
			<input>
				<port id="0">
					<dim>1</dim>
					<dim>64</dim>
					<dim>56</dim>
					<dim>56</dim>
				</port>
			</input>
			<output>
				<port id="1" precision="FP32">
					<dim>1</dim>
					<dim>64</dim>
					<dim>56</dim>
					<dim>56</dim>
				</port>
			</output>
		</layer>
		<layer id="67" name="18271831_const" type="Const" version="opset1">
			<data element_type="f32" offset="72188" shape="" size="4"/>
			<output>
				<port id="1" precision="FP32"/>
			</output>
		</layer>
		<layer id="68" name="18281832_const" type="Const" version="opset1">
			<data element_type="f32" offset="72192" shape="" size="4"/>
			<output>
				<port id="1" precision="FP32"/>
			</output>
		</layer>
		<layer id="69" name="18291833_const" type="Const" version="opset1">
			<data element_type="f32" offset="72188" shape="" size="4"/>
			<output>
				<port id="1" precision="FP32"/>
			</output>
		</layer>
		<layer id="70" name="18301834_const" type="Const" version="opset1">
			<data element_type="f32" offset="72192" shape="" size="4"/>
			<output>
				<port id="1" precision="FP32"/>
			</output>
		</layer>
		<layer id="71" name="resnet_v1_50/block1/unit_1/bottleneck_v1/conv3/Conv2D/fq_input_0" type="FakeQuantize" version="opset1">
			<data levels="256"/>
			<input>
				<port id="0">
					<dim>1</dim>
					<dim>64</dim>
					<dim>56</dim>
					<dim>56</dim>
				</port>
				<port id="1"/>
				<port id="2"/>
				<port id="3"/>
				<port id="4"/>
			</input>
			<output>
				<port id="5" precision="FP32">
					<dim>1</dim>
					<dim>64</dim>
					<dim>56</dim>
					<dim>56</dim>
				</port>
			</output>
		</layer>
		<layer id="72" name="resnet_v1_50/block1/unit_1/bottleneck_v1/conv3/Conv2D/fq_weights_1/Convert_to_float/Cast_05409_const" type="Const" version="opset1">
			<data element_type="u8" offset="72196" shape="256,64,1,1" size="16384"/>
			<output>
				<port id="1" precision="U8">
					<dim>256</dim>
					<dim>64</dim>
					<dim>1</dim>
					<dim>1</dim>
				</port>
			</output>
		</layer>
		<layer id="73" name="resnet_v1_50/block1/unit_1/bottleneck_v1/conv3/Conv2D/fq_weights_1/Convert_to_float" type="Convert" version="opset1">
			<data destination_type="f32"/>
			<input>
				<port id="0">
					<dim>256</dim>
					<dim>64</dim>
					<dim>1</dim>
					<dim>1</dim>
				</port>
			</input>
			<output>
				<port id="1" precision="FP32">
					<dim>256</dim>
					<dim>64</dim>
					<dim>1</dim>
					<dim>1</dim>
				</port>
			</output>
		</layer>
		<layer id="74" name="resnet_v1_50/block1/unit_1/bottleneck_v1/conv3/Conv2D/fq_weights_1/Copy/out_low4613_const" type="Const" version="opset1">
			<data element_type="f32" offset="88580" shape="1" size="4"/>
			<output>
				<port id="1" precision="FP32">
					<dim>1</dim>
				</port>
			</output>
		</layer>
		<layer id="75" name="resnet_v1_50/block1/unit_1/bottleneck_v1/conv3/Conv2D/fq_weights_1/Copy/out_high4614_const" type="Const" version="opset1">
			<data element_type="f32" offset="9432" shape="1" size="4"/>
			<output>
				<port id="1" precision="FP32">
					<dim>1</dim>
				</port>
			</output>
		</layer>
		<layer id="76" name="18391843_const" type="Const" version="opset1">
			<data element_type="f32" offset="88584" shape="256,1,1,1" size="1024"/>
			<output>
				<port id="1" precision="FP32">
					<dim>256</dim>
					<dim>1</dim>
					<dim>1</dim>
					<dim>1</dim>
				</port>
			</output>
		</layer>
		<layer id="77" name="18401844_const" type="Const" version="opset1">
			<data element_type="f32" offset="89608" shape="256,1,1,1" size="1024"/>
			<output>
				<port id="1" precision="FP32">
					<dim>256</dim>
					<dim>1</dim>
					<dim>1</dim>
					<dim>1</dim>
				</port>
			</output>
		</layer>
		<layer id="78" name="resnet_v1_50/block1/unit_1/bottleneck_v1/conv3/Conv2D/fq_weights_1" type="FakeQuantize" version="opset1">
			<data levels="255"/>
			<input>
				<port id="0">
					<dim>256</dim>
					<dim>64</dim>
					<dim>1</dim>
					<dim>1</dim>
				</port>
				<port id="1">
					<dim>1</dim>
				</port>
				<port id="2">
					<dim>1</dim>
				</port>
				<port id="3">
					<dim>256</dim>
					<dim>1</dim>
					<dim>1</dim>
					<dim>1</dim>
				</port>
				<port id="4">
					<dim>256</dim>
					<dim>1</dim>
					<dim>1</dim>
					<dim>1</dim>
				</port>
			</input>
			<output>
				<port id="5" precision="FP32">
					<dim>256</dim>
					<dim>64</dim>
					<dim>1</dim>
					<dim>1</dim>
				</port>
			</output>
		</layer>
		<layer id="79" name="resnet_v1_50/block1/unit_1/bottleneck_v1/conv3/Conv2D" type="Convolution" version="opset1">
			<data auto_pad="same_upper" dilations="1,1" output_padding="0,0" pads_begin="0,0" pads_end="0,0" strides="1,1"/>
			<input>
				<port id="0">
					<dim>1</dim>
					<dim>64</dim>
					<dim>56</dim>
					<dim>56</dim>
				</port>
				<port id="1">
					<dim>256</dim>
					<dim>64</dim>
					<dim>1</dim>
					<dim>1</dim>
				</port>
			</input>
			<output>
				<port id="2" precision="FP32">
					<dim>1</dim>
					<dim>256</dim>
					<dim>56</dim>
					<dim>56</dim>
				</port>
			</output>
		</layer>
		<layer id="80" name="data_add_1033410339/copy_const321_const" type="Const" version="opset1">
			<data element_type="f32" offset="90632" shape="1,256,1,1" size="1024"/>
			<output>
				<port id="1" precision="FP32">
					<dim>1</dim>
					<dim>256</dim>
					<dim>1</dim>
					<dim>1</dim>
				</port>
			</output>
		</layer>
		<layer id="81" name="resnet_v1_50/block1/unit_1/bottleneck_v1/conv3/BatchNorm/FusedBatchNormV3/variance/Fused_Add_" type="Add" version="opset1">
			<input>
				<port id="0">
					<dim>1</dim>
					<dim>256</dim>
					<dim>56</dim>
					<dim>56</dim>
				</port>
				<port id="1">
					<dim>1</dim>
					<dim>256</dim>
					<dim>1</dim>
					<dim>1</dim>
				</port>
			</input>
			<output>
				<port id="2" precision="FP32">
					<dim>1</dim>
					<dim>256</dim>
					<dim>56</dim>
					<dim>56</dim>
				</port>
			</output>
		</layer>
		<layer id="82" name="15971601_const" type="Const" version="opset1">
			<data element_type="f32" offset="91656" shape="" size="4"/>
			<output>
				<port id="1" precision="FP32"/>
			</output>
		</layer>
		<layer id="83" name="15981602_const" type="Const" version="opset1">
			<data element_type="f32" offset="91660" shape="" size="4"/>
			<output>
				<port id="1" precision="FP32"/>
			</output>
		</layer>
		<layer id="84" name="15991603_const" type="Const" version="opset1">
			<data element_type="f32" offset="91656" shape="" size="4"/>
			<output>
				<port id="1" precision="FP32"/>
			</output>
		</layer>
		<layer id="85" name="16001604_const" type="Const" version="opset1">
			<data element_type="f32" offset="91660" shape="" size="4"/>
			<output>
				<port id="1" precision="FP32"/>
			</output>
		</layer>
		<layer id="86" name="resnet_v1_50/block1/unit_1/bottleneck_v1/add/fq_input_1" type="FakeQuantize" version="opset1">
			<data levels="256"/>
			<input>
				<port id="0">
					<dim>1</dim>
					<dim>256</dim>
					<dim>56</dim>
					<dim>56</dim>
				</port>
				<port id="1"/>
				<port id="2"/>
				<port id="3"/>
				<port id="4"/>
			</input>
			<output>
				<port id="5" precision="FP32">
					<dim>1</dim>
					<dim>256</dim>
					<dim>56</dim>
					<dim>56</dim>
				</port>
			</output>
		</layer>
		<layer id="87" name="resnet_v1_50/block1/unit_1/bottleneck_v1/add" type="Add" version="opset1">
			<input>
				<port id="0">
					<dim>1</dim>
					<dim>256</dim>
					<dim>56</dim>
					<dim>56</dim>
				</port>
				<port id="1">
					<dim>1</dim>
					<dim>256</dim>
					<dim>56</dim>
					<dim>56</dim>
				</port>
			</input>
			<output>
				<port id="2" precision="FP32">
					<dim>1</dim>
					<dim>256</dim>
					<dim>56</dim>
					<dim>56</dim>
				</port>
			</output>
		</layer>
		<layer id="88" name="resnet_v1_50/block1/unit_1/bottleneck_v1/Relu" type="ReLU" version="opset1">
			<input>
				<port id="0">
					<dim>1</dim>
					<dim>256</dim>
					<dim>56</dim>
					<dim>56</dim>
				</port>
			</input>
			<output>
				<port id="1" precision="FP32">
					<dim>1</dim>
					<dim>256</dim>
					<dim>56</dim>
					<dim>56</dim>
				</port>
			</output>
		</layer>
		<layer id="89" name="16271631_const" type="Const" version="opset1">
			<data element_type="f32" offset="91664" shape="" size="4"/>
			<output>
				<port id="1" precision="FP32"/>
			</output>
		</layer>
		<layer id="90" name="16281632_const" type="Const" version="opset1">
			<data element_type="f32" offset="91668" shape="" size="4"/>
			<output>
				<port id="1" precision="FP32"/>
			</output>
		</layer>
		<layer id="91" name="16291633_const" type="Const" version="opset1">
			<data element_type="f32" offset="91664" shape="" size="4"/>
			<output>
				<port id="1" precision="FP32"/>
			</output>
		</layer>
		<layer id="92" name="16301634_const" type="Const" version="opset1">
			<data element_type="f32" offset="91668" shape="" size="4"/>
			<output>
				<port id="1" precision="FP32"/>
			</output>
		</layer>
		<layer id="93" name="resnet_v1_50/block1/unit_2/bottleneck_v1/add/fq_input_0" type="FakeQuantize" version="opset1">
			<data levels="256"/>
			<input>
				<port id="0">
					<dim>1</dim>
					<dim>256</dim>
					<dim>56</dim>
					<dim>56</dim>
				</port>
				<port id="1"/>
				<port id="2"/>
				<port id="3"/>
				<port id="4"/>
			</input>
			<output>
				<port id="5" precision="FP32">
					<dim>1</dim>
					<dim>256</dim>
					<dim>56</dim>
					<dim>56</dim>
				</port>
			</output>
		</layer>
		<layer id="94" name="resnet_v1_50/block1/unit_2/bottleneck_v1/conv1/Conv2D/fq_weights_1/Convert_to_float/Cast_05457_const" type="Const" version="opset1">
			<data element_type="u8" offset="91672" shape="64,256,1,1" size="16384"/>
			<output>
				<port id="1" precision="U8">
					<dim>64</dim>
					<dim>256</dim>
					<dim>1</dim>
					<dim>1</dim>
				</port>
			</output>
		</layer>
		<layer id="95" name="resnet_v1_50/block1/unit_2/bottleneck_v1/conv1/Conv2D/fq_weights_1/Convert_to_float" type="Convert" version="opset1">
			<data destination_type="f32"/>
			<input>
				<port id="0">
					<dim>64</dim>
					<dim>256</dim>
					<dim>1</dim>
					<dim>1</dim>
				</port>
			</input>
			<output>
				<port id="1" precision="FP32">
					<dim>64</dim>
					<dim>256</dim>
					<dim>1</dim>
					<dim>1</dim>
				</port>
			</output>
		</layer>
		<layer id="96" name="resnet_v1_50/block1/unit_2/bottleneck_v1/conv1/Conv2D/fq_weights_1/Copy/out_low4589_const" type="Const" version="opset1">
			<data element_type="f32" offset="108056" shape="1" size="4"/>
			<output>
				<port id="1" precision="FP32">
					<dim>1</dim>
				</port>
			</output>
		</layer>
		<layer id="97" name="resnet_v1_50/block1/unit_2/bottleneck_v1/conv1/Conv2D/fq_weights_1/Copy/out_high4590_const" type="Const" version="opset1">
			<data element_type="f32" offset="9432" shape="1" size="4"/>
			<output>
				<port id="1" precision="FP32">
					<dim>1</dim>
				</port>
			</output>
		</layer>
		<layer id="98" name="12591263_const" type="Const" version="opset1">
			<data element_type="f32" offset="108060" shape="64,1,1,1" size="256"/>
			<output>
				<port id="1" precision="FP32">
					<dim>64</dim>
					<dim>1</dim>
					<dim>1</dim>
					<dim>1</dim>
				</port>
			</output>
		</layer>
		<layer id="99" name="12601264_const" type="Const" version="opset1">
			<data element_type="f32" offset="108316" shape="64,1,1,1" size="256"/>
			<output>
				<port id="1" precision="FP32">
					<dim>64</dim>
					<dim>1</dim>
					<dim>1</dim>
					<dim>1</dim>
				</port>
			</output>
		</layer>
		<layer id="100" name="resnet_v1_50/block1/unit_2/bottleneck_v1/conv1/Conv2D/fq_weights_1" type="FakeQuantize" version="opset1">
			<data levels="255"/>
			<input>
				<port id="0">
					<dim>64</dim>
					<dim>256</dim>
					<dim>1</dim>
					<dim>1</dim>
				</port>
				<port id="1">
					<dim>1</dim>
				</port>
				<port id="2">
					<dim>1</dim>
				</port>
				<port id="3">
					<dim>64</dim>
					<dim>1</dim>
					<dim>1</dim>
					<dim>1</dim>
				</port>
				<port id="4">
					<dim>64</dim>
					<dim>1</dim>
					<dim>1</dim>
					<dim>1</dim>
				</port>
			</input>
			<output>
				<port id="5" precision="FP32">
					<dim>64</dim>
					<dim>256</dim>
					<dim>1</dim>
					<dim>1</dim>
				</port>
			</output>
		</layer>
		<layer id="101" name="resnet_v1_50/block1/unit_2/bottleneck_v1/conv1/Conv2D" type="Convolution" version="opset1">
			<data auto_pad="same_upper" dilations="1,1" output_padding="0,0" pads_begin="0,0" pads_end="0,0" strides="1,1"/>
			<input>
				<port id="0">
					<dim>1</dim>
					<dim>256</dim>
					<dim>56</dim>
					<dim>56</dim>
				</port>
				<port id="1">
					<dim>64</dim>
					<dim>256</dim>
					<dim>1</dim>
					<dim>1</dim>
				</port>
			</input>
			<output>
				<port id="2" precision="FP32">
					<dim>1</dim>
					<dim>64</dim>
					<dim>56</dim>
					<dim>56</dim>
				</port>
			</output>
		</layer>
		<layer id="102" name="data_add_1035010355/copy_const327_const" type="Const" version="opset1">
			<data element_type="f32" offset="108572" shape="1,64,1,1" size="256"/>
			<output>
				<port id="1" precision="FP32">
					<dim>1</dim>
					<dim>64</dim>
					<dim>1</dim>
					<dim>1</dim>
				</port>
			</output>
		</layer>
		<layer id="103" name="resnet_v1_50/block1/unit_2/bottleneck_v1/conv1/BatchNorm/FusedBatchNormV3/variance/Fused_Add_" type="Add" version="opset1">
			<input>
				<port id="0">
					<dim>1</dim>
					<dim>64</dim>
					<dim>56</dim>
					<dim>56</dim>
				</port>
				<port id="1">
					<dim>1</dim>
					<dim>64</dim>
					<dim>1</dim>
					<dim>1</dim>
				</port>
			</input>
			<output>
				<port id="2" precision="FP32">
					<dim>1</dim>
					<dim>64</dim>
					<dim>56</dim>
					<dim>56</dim>
				</port>
			</output>
		</layer>
		<layer id="104" name="resnet_v1_50/block1/unit_2/bottleneck_v1/conv1/Relu" type="ReLU" version="opset1">
			<input>
				<port id="0">
					<dim>1</dim>
					<dim>64</dim>
					<dim>56</dim>
					<dim>56</dim>
				</port>
			</input>
			<output>
				<port id="1" precision="FP32">
					<dim>1</dim>
					<dim>64</dim>
					<dim>56</dim>
					<dim>56</dim>
				</port>
			</output>
		</layer>
		<layer id="105" name="967971_const" type="Const" version="opset1">
			<data element_type="f32" offset="108828" shape="" size="4"/>
			<output>
				<port id="1" precision="FP32"/>
			</output>
		</layer>
		<layer id="106" name="968972_const" type="Const" version="opset1">
			<data element_type="f32" offset="108832" shape="" size="4"/>
			<output>
				<port id="1" precision="FP32"/>
			</output>
		</layer>
		<layer id="107" name="969973_const" type="Const" version="opset1">
			<data element_type="f32" offset="108828" shape="" size="4"/>
			<output>
				<port id="1" precision="FP32"/>
			</output>
		</layer>
		<layer id="108" name="970974_const" type="Const" version="opset1">
			<data element_type="f32" offset="108832" shape="" size="4"/>
			<output>
				<port id="1" precision="FP32"/>
			</output>
		</layer>
		<layer id="109" name="resnet_v1_50/block1/unit_2/bottleneck_v1/conv2/Conv2D/fq_input_0" type="FakeQuantize" version="opset1">
			<data levels="256"/>
			<input>
				<port id="0">
					<dim>1</dim>
					<dim>64</dim>
					<dim>56</dim>
					<dim>56</dim>
				</port>
				<port id="1"/>
				<port id="2"/>
				<port id="3"/>
				<port id="4"/>
			</input>
			<output>
				<port id="5" precision="FP32">
					<dim>1</dim>
					<dim>64</dim>
					<dim>56</dim>
					<dim>56</dim>
				</port>
			</output>
		</layer>
		<layer id="110" name="resnet_v1_50/block1/unit_2/bottleneck_v1/conv2/Conv2D/fq_weights_1/Convert_to_float/Cast_05395_const" type="Const" version="opset1">
			<data element_type="u8" offset="108836" shape="64,64,3,3" size="36864"/>
			<output>
				<port id="1" precision="U8">
					<dim>64</dim>
					<dim>64</dim>
					<dim>3</dim>
					<dim>3</dim>
				</port>
			</output>
		</layer>
		<layer id="111" name="resnet_v1_50/block1/unit_2/bottleneck_v1/conv2/Conv2D/fq_weights_1/Convert_to_float" type="Convert" version="opset1">
			<data destination_type="f32"/>
			<input>
				<port id="0">
					<dim>64</dim>
					<dim>64</dim>
					<dim>3</dim>
					<dim>3</dim>
				</port>
			</input>
			<output>
				<port id="1" precision="FP32">
					<dim>64</dim>
					<dim>64</dim>
					<dim>3</dim>
					<dim>3</dim>
				</port>
			</output>
		</layer>
		<layer id="112" name="resnet_v1_50/block1/unit_2/bottleneck_v1/conv2/Conv2D/fq_weights_1/Copy/out_low4685_const" type="Const" version="opset1">
			<data element_type="f32" offset="145700" shape="1" size="4"/>
			<output>
				<port id="1" precision="FP32">
					<dim>1</dim>
				</port>
			</output>
		</layer>
		<layer id="113" name="resnet_v1_50/block1/unit_2/bottleneck_v1/conv2/Conv2D/fq_weights_1/Copy/out_high4686_const" type="Const" version="opset1">
			<data element_type="f32" offset="9432" shape="1" size="4"/>
			<output>
				<port id="1" precision="FP32">
					<dim>1</dim>
				</port>
			</output>
		</layer>
		<layer id="114" name="979983_const" type="Const" version="opset1">
			<data element_type="f32" offset="145704" shape="64,1,1,1" size="256"/>
			<output>
				<port id="1" precision="FP32">
					<dim>64</dim>
					<dim>1</dim>
					<dim>1</dim>
					<dim>1</dim>
				</port>
			</output>
		</layer>
		<layer id="115" name="980984_const" type="Const" version="opset1">
			<data element_type="f32" offset="145960" shape="64,1,1,1" size="256"/>
			<output>
				<port id="1" precision="FP32">
					<dim>64</dim>
					<dim>1</dim>
					<dim>1</dim>
					<dim>1</dim>
				</port>
			</output>
		</layer>
		<layer id="116" name="resnet_v1_50/block1/unit_2/bottleneck_v1/conv2/Conv2D/fq_weights_1" type="FakeQuantize" version="opset1">
			<data levels="255"/>
			<input>
				<port id="0">
					<dim>64</dim>
					<dim>64</dim>
					<dim>3</dim>
					<dim>3</dim>
				</port>
				<port id="1">
					<dim>1</dim>
				</port>
				<port id="2">
					<dim>1</dim>
				</port>
				<port id="3">
					<dim>64</dim>
					<dim>1</dim>
					<dim>1</dim>
					<dim>1</dim>
				</port>
				<port id="4">
					<dim>64</dim>
					<dim>1</dim>
					<dim>1</dim>
					<dim>1</dim>
				</port>
			</input>
			<output>
				<port id="5" precision="FP32">
					<dim>64</dim>
					<dim>64</dim>
					<dim>3</dim>
					<dim>3</dim>
				</port>
			</output>
		</layer>
		<layer id="117" name="resnet_v1_50/block1/unit_2/bottleneck_v1/conv2/Conv2D" type="Convolution" version="opset1">
			<data auto_pad="same_upper" dilations="1,1" output_padding="0,0" pads_begin="1,1" pads_end="1,1" strides="1,1"/>
			<input>
				<port id="0">
					<dim>1</dim>
					<dim>64</dim>
					<dim>56</dim>
					<dim>56</dim>
				</port>
				<port id="1">
					<dim>64</dim>
					<dim>64</dim>
					<dim>3</dim>
					<dim>3</dim>
				</port>
			</input>
			<output>
				<port id="2" precision="FP32">
					<dim>1</dim>
					<dim>64</dim>
					<dim>56</dim>
					<dim>56</dim>
				</port>
			</output>
		</layer>
		<layer id="118" name="data_add_1035810363/copy_const332_const" type="Const" version="opset1">
			<data element_type="f32" offset="146216" shape="1,64,1,1" size="256"/>
			<output>
				<port id="1" precision="FP32">
					<dim>1</dim>
					<dim>64</dim>
					<dim>1</dim>
					<dim>1</dim>
				</port>
			</output>
		</layer>
		<layer id="119" name="resnet_v1_50/block1/unit_2/bottleneck_v1/conv2/BatchNorm/FusedBatchNormV3/variance/Fused_Add_" type="Add" version="opset1">
			<input>
				<port id="0">
					<dim>1</dim>
					<dim>64</dim>
					<dim>56</dim>
					<dim>56</dim>
				</port>
				<port id="1">
					<dim>1</dim>
					<dim>64</dim>
					<dim>1</dim>
					<dim>1</dim>
				</port>
			</input>
			<output>
				<port id="2" precision="FP32">
					<dim>1</dim>
					<dim>64</dim>
					<dim>56</dim>
					<dim>56</dim>
				</port>
			</output>
		</layer>
		<layer id="120" name="resnet_v1_50/block1/unit_2/bottleneck_v1/conv2/Relu" type="ReLU" version="opset1">
			<input>
				<port id="0">
					<dim>1</dim>
					<dim>64</dim>
					<dim>56</dim>
					<dim>56</dim>
				</port>
			</input>
			<output>
				<port id="1" precision="FP32">
					<dim>1</dim>
					<dim>64</dim>
					<dim>56</dim>
					<dim>56</dim>
				</port>
			</output>
		</layer>
		<layer id="121" name="17871791_const" type="Const" version="opset1">
			<data element_type="f32" offset="146472" shape="" size="4"/>
			<output>
				<port id="1" precision="FP32"/>
			</output>
		</layer>
		<layer id="122" name="17881792_const" type="Const" version="opset1">
			<data element_type="f32" offset="146476" shape="" size="4"/>
			<output>
				<port id="1" precision="FP32"/>
			</output>
		</layer>
		<layer id="123" name="17891793_const" type="Const" version="opset1">
			<data element_type="f32" offset="146472" shape="" size="4"/>
			<output>
				<port id="1" precision="FP32"/>
			</output>
		</layer>
		<layer id="124" name="17901794_const" type="Const" version="opset1">
			<data element_type="f32" offset="146476" shape="" size="4"/>
			<output>
				<port id="1" precision="FP32"/>
			</output>
		</layer>
		<layer id="125" name="resnet_v1_50/block1/unit_2/bottleneck_v1/conv3/Conv2D/fq_input_0" type="FakeQuantize" version="opset1">
			<data levels="256"/>
			<input>
				<port id="0">
					<dim>1</dim>
					<dim>64</dim>
					<dim>56</dim>
					<dim>56</dim>
				</port>
				<port id="1"/>
				<port id="2"/>
				<port id="3"/>
				<port id="4"/>
			</input>
			<output>
				<port id="5" precision="FP32">
					<dim>1</dim>
					<dim>64</dim>
					<dim>56</dim>
					<dim>56</dim>
				</port>
			</output>
		</layer>
		<layer id="126" name="resnet_v1_50/block1/unit_2/bottleneck_v1/conv3/Conv2D/fq_weights_1/Convert_to_float/Cast_05391_const" type="Const" version="opset1">
			<data element_type="u8" offset="146480" shape="256,64,1,1" size="16384"/>
			<output>
				<port id="1" precision="U8">
					<dim>256</dim>
					<dim>64</dim>
					<dim>1</dim>
					<dim>1</dim>
				</port>
			</output>
		</layer>
		<layer id="127" name="resnet_v1_50/block1/unit_2/bottleneck_v1/conv3/Conv2D/fq_weights_1/Convert_to_float" type="Convert" version="opset1">
			<data destination_type="f32"/>
			<input>
				<port id="0">
					<dim>256</dim>
					<dim>64</dim>
					<dim>1</dim>
					<dim>1</dim>
				</port>
			</input>
			<output>
				<port id="1" precision="FP32">
					<dim>256</dim>
					<dim>64</dim>
					<dim>1</dim>
					<dim>1</dim>
				</port>
			</output>
		</layer>
		<layer id="128" name="resnet_v1_50/block1/unit_2/bottleneck_v1/conv3/Conv2D/fq_weights_1/Copy/out_low4677_const" type="Const" version="opset1">
			<data element_type="f32" offset="162864" shape="1" size="4"/>
			<output>
				<port id="1" precision="FP32">
					<dim>1</dim>
				</port>
			</output>
		</layer>
		<layer id="129" name="resnet_v1_50/block1/unit_2/bottleneck_v1/conv3/Conv2D/fq_weights_1/Copy/out_high4678_const" type="Const" version="opset1">
			<data element_type="f32" offset="9432" shape="1" size="4"/>
			<output>
				<port id="1" precision="FP32">
					<dim>1</dim>
				</port>
			</output>
		</layer>
		<layer id="130" name="17991803_const" type="Const" version="opset1">
			<data element_type="f32" offset="162868" shape="256,1,1,1" size="1024"/>
			<output>
				<port id="1" precision="FP32">
					<dim>256</dim>
					<dim>1</dim>
					<dim>1</dim>
					<dim>1</dim>
				</port>
			</output>
		</layer>
		<layer id="131" name="18001804_const" type="Const" version="opset1">
			<data element_type="f32" offset="163892" shape="256,1,1,1" size="1024"/>
			<output>
				<port id="1" precision="FP32">
					<dim>256</dim>
					<dim>1</dim>
					<dim>1</dim>
					<dim>1</dim>
				</port>
			</output>
		</layer>
		<layer id="132" name="resnet_v1_50/block1/unit_2/bottleneck_v1/conv3/Conv2D/fq_weights_1" type="FakeQuantize" version="opset1">
			<data levels="255"/>
			<input>
				<port id="0">
					<dim>256</dim>
					<dim>64</dim>
					<dim>1</dim>
					<dim>1</dim>
				</port>
				<port id="1">
					<dim>1</dim>
				</port>
				<port id="2">
					<dim>1</dim>
				</port>
				<port id="3">
					<dim>256</dim>
					<dim>1</dim>
					<dim>1</dim>
					<dim>1</dim>
				</port>
				<port id="4">
					<dim>256</dim>
					<dim>1</dim>
					<dim>1</dim>
					<dim>1</dim>
				</port>
			</input>
			<output>
				<port id="5" precision="FP32">
					<dim>256</dim>
					<dim>64</dim>
					<dim>1</dim>
					<dim>1</dim>
				</port>
			</output>
		</layer>
		<layer id="133" name="resnet_v1_50/block1/unit_2/bottleneck_v1/conv3/Conv2D" type="Convolution" version="opset1">
			<data auto_pad="same_upper" dilations="1,1" output_padding="0,0" pads_begin="0,0" pads_end="0,0" strides="1,1"/>
			<input>
				<port id="0">
					<dim>1</dim>
					<dim>64</dim>
					<dim>56</dim>
					<dim>56</dim>
				</port>
				<port id="1">
					<dim>256</dim>
					<dim>64</dim>
					<dim>1</dim>
					<dim>1</dim>
				</port>
			</input>
			<output>
				<port id="2" precision="FP32">
					<dim>1</dim>
					<dim>256</dim>
					<dim>56</dim>
					<dim>56</dim>
				</port>
			</output>
		</layer>
		<layer id="134" name="data_add_1036610371/copy_const337_const" type="Const" version="opset1">
			<data element_type="f32" offset="164916" shape="1,256,1,1" size="1024"/>
			<output>
				<port id="1" precision="FP32">
					<dim>1</dim>
					<dim>256</dim>
					<dim>1</dim>
					<dim>1</dim>
				</port>
			</output>
		</layer>
		<layer id="135" name="resnet_v1_50/block1/unit_2/bottleneck_v1/conv3/BatchNorm/FusedBatchNormV3/variance/Fused_Add_" type="Add" version="opset1">
			<input>
				<port id="0">
					<dim>1</dim>
					<dim>256</dim>
					<dim>56</dim>
					<dim>56</dim>
				</port>
				<port id="1">
					<dim>1</dim>
					<dim>256</dim>
					<dim>1</dim>
					<dim>1</dim>
				</port>
			</input>
			<output>
				<port id="2" precision="FP32">
					<dim>1</dim>
					<dim>256</dim>
					<dim>56</dim>
					<dim>56</dim>
				</port>
			</output>
		</layer>
		<layer id="136" name="16371641_const" type="Const" version="opset1">
			<data element_type="f32" offset="165940" shape="" size="4"/>
			<output>
				<port id="1" precision="FP32"/>
			</output>
		</layer>
		<layer id="137" name="16381642_const" type="Const" version="opset1">
			<data element_type="f32" offset="165944" shape="" size="4"/>
			<output>
				<port id="1" precision="FP32"/>
			</output>
		</layer>
		<layer id="138" name="16391643_const" type="Const" version="opset1">
			<data element_type="f32" offset="165940" shape="" size="4"/>
			<output>
				<port id="1" precision="FP32"/>
			</output>
		</layer>
		<layer id="139" name="16401644_const" type="Const" version="opset1">
			<data element_type="f32" offset="165944" shape="" size="4"/>
			<output>
				<port id="1" precision="FP32"/>
			</output>
		</layer>
		<layer id="140" name="resnet_v1_50/block1/unit_2/bottleneck_v1/add/fq_input_1" type="FakeQuantize" version="opset1">
			<data levels="256"/>
			<input>
				<port id="0">
					<dim>1</dim>
					<dim>256</dim>
					<dim>56</dim>
					<dim>56</dim>
				</port>
				<port id="1"/>
				<port id="2"/>
				<port id="3"/>
				<port id="4"/>
			</input>
			<output>
				<port id="5" precision="FP32">
					<dim>1</dim>
					<dim>256</dim>
					<dim>56</dim>
					<dim>56</dim>
				</port>
			</output>
		</layer>
		<layer id="141" name="resnet_v1_50/block1/unit_2/bottleneck_v1/add" type="Add" version="opset1">
			<input>
				<port id="0">
					<dim>1</dim>
					<dim>256</dim>
					<dim>56</dim>
					<dim>56</dim>
				</port>
				<port id="1">
					<dim>1</dim>
					<dim>256</dim>
					<dim>56</dim>
					<dim>56</dim>
				</port>
			</input>
			<output>
				<port id="2" precision="FP32">
					<dim>1</dim>
					<dim>256</dim>
					<dim>56</dim>
					<dim>56</dim>
				</port>
			</output>
		</layer>
		<layer id="142" name="resnet_v1_50/block1/unit_2/bottleneck_v1/Relu" type="ReLU" version="opset1">
			<input>
				<port id="0">
					<dim>1</dim>
					<dim>256</dim>
					<dim>56</dim>
					<dim>56</dim>
				</port>
			</input>
			<output>
				<port id="1" precision="FP32">
					<dim>1</dim>
					<dim>256</dim>
					<dim>56</dim>
					<dim>56</dim>
				</port>
			</output>
		</layer>
		<layer id="143" name="14871491_const" type="Const" version="opset1">
			<data element_type="f32" offset="165948" shape="" size="4"/>
			<output>
				<port id="1" precision="FP32"/>
			</output>
		</layer>
		<layer id="144" name="14881492_const" type="Const" version="opset1">
			<data element_type="f32" offset="165952" shape="" size="4"/>
			<output>
				<port id="1" precision="FP32"/>
			</output>
		</layer>
		<layer id="145" name="14891493_const" type="Const" version="opset1">
			<data element_type="f32" offset="165948" shape="" size="4"/>
			<output>
				<port id="1" precision="FP32"/>
			</output>
		</layer>
		<layer id="146" name="14901494_const" type="Const" version="opset1">
			<data element_type="f32" offset="165952" shape="" size="4"/>
			<output>
				<port id="1" precision="FP32"/>
			</output>
		</layer>
		<layer id="147" name="resnet_v1_50/block1/unit_3/bottleneck_v1/conv1/Conv2D/fq_input_0" type="FakeQuantize" version="opset1">
			<data levels="256"/>
			<input>
				<port id="0">
					<dim>1</dim>
					<dim>256</dim>
					<dim>56</dim>
					<dim>56</dim>
				</port>
				<port id="1"/>
				<port id="2"/>
				<port id="3"/>
				<port id="4"/>
			</input>
			<output>
				<port id="5" precision="FP32">
					<dim>1</dim>
					<dim>256</dim>
					<dim>56</dim>
					<dim>56</dim>
				</port>
			</output>
		</layer>
		<layer id="148" name="resnet_v1_50/block1/unit_3/bottleneck_v1/shortcut/MaxPool" type="MaxPool" version="opset1">
			<data auto_pad="same_upper" kernel="1,1" pads_begin="0,0" pads_end="0,0" strides="2,2"/>
			<input>
				<port id="0">
					<dim>1</dim>
					<dim>256</dim>
					<dim>56</dim>
					<dim>56</dim>
				</port>
			</input>
			<output>
				<port id="1" precision="FP32">
					<dim>1</dim>
					<dim>256</dim>
					<dim>28</dim>
					<dim>28</dim>
				</port>
			</output>
		</layer>
		<layer id="149" name="resnet_v1_50/block1/unit_3/bottleneck_v1/conv1/Conv2D/fq_weights_1/Convert_to_float/Cast_05479_const" type="Const" version="opset1">
			<data element_type="u8" offset="165956" shape="64,256,1,1" size="16384"/>
			<output>
				<port id="1" precision="U8">
					<dim>64</dim>
					<dim>256</dim>
					<dim>1</dim>
					<dim>1</dim>
				</port>
			</output>
		</layer>
		<layer id="150" name="resnet_v1_50/block1/unit_3/bottleneck_v1/conv1/Conv2D/fq_weights_1/Convert_to_float" type="Convert" version="opset1">
			<data destination_type="f32"/>
			<input>
				<port id="0">
					<dim>64</dim>
					<dim>256</dim>
					<dim>1</dim>
					<dim>1</dim>
				</port>
			</input>
			<output>
				<port id="1" precision="FP32">
					<dim>64</dim>
					<dim>256</dim>
					<dim>1</dim>
					<dim>1</dim>
				</port>
			</output>
		</layer>
		<layer id="151" name="resnet_v1_50/block1/unit_3/bottleneck_v1/conv1/Conv2D/fq_weights_1/Copy/out_low4421_const" type="Const" version="opset1">
			<data element_type="f32" offset="182340" shape="1" size="4"/>
			<output>
				<port id="1" precision="FP32">
					<dim>1</dim>
				</port>
			</output>
		</layer>
		<layer id="152" name="resnet_v1_50/block1/unit_3/bottleneck_v1/conv1/Conv2D/fq_weights_1/Copy/out_high4422_const" type="Const" version="opset1">
			<data element_type="f32" offset="9432" shape="1" size="4"/>
			<output>
				<port id="1" precision="FP32">
					<dim>1</dim>
				</port>
			</output>
		</layer>
		<layer id="153" name="14991503_const" type="Const" version="opset1">
			<data element_type="f32" offset="182344" shape="64,1,1,1" size="256"/>
			<output>
				<port id="1" precision="FP32">
					<dim>64</dim>
					<dim>1</dim>
					<dim>1</dim>
					<dim>1</dim>
				</port>
			</output>
		</layer>
		<layer id="154" name="15001504_const" type="Const" version="opset1">
			<data element_type="f32" offset="182600" shape="64,1,1,1" size="256"/>
			<output>
				<port id="1" precision="FP32">
					<dim>64</dim>
					<dim>1</dim>
					<dim>1</dim>
					<dim>1</dim>
				</port>
			</output>
		</layer>
		<layer id="155" name="resnet_v1_50/block1/unit_3/bottleneck_v1/conv1/Conv2D/fq_weights_1" type="FakeQuantize" version="opset1">
			<data levels="255"/>
			<input>
				<port id="0">
					<dim>64</dim>
					<dim>256</dim>
					<dim>1</dim>
					<dim>1</dim>
				</port>
				<port id="1">
					<dim>1</dim>
				</port>
				<port id="2">
					<dim>1</dim>
				</port>
				<port id="3">
					<dim>64</dim>
					<dim>1</dim>
					<dim>1</dim>
					<dim>1</dim>
				</port>
				<port id="4">
					<dim>64</dim>
					<dim>1</dim>
					<dim>1</dim>
					<dim>1</dim>
				</port>
			</input>
			<output>
				<port id="5" precision="FP32">
					<dim>64</dim>
					<dim>256</dim>
					<dim>1</dim>
					<dim>1</dim>
				</port>
			</output>
		</layer>
		<layer id="156" name="resnet_v1_50/block1/unit_3/bottleneck_v1/conv1/Conv2D" type="Convolution" version="opset1">
			<data auto_pad="same_upper" dilations="1,1" output_padding="0,0" pads_begin="0,0" pads_end="0,0" strides="1,1"/>
			<input>
				<port id="0">
					<dim>1</dim>
					<dim>256</dim>
					<dim>56</dim>
					<dim>56</dim>
				</port>
				<port id="1">
					<dim>64</dim>
					<dim>256</dim>
					<dim>1</dim>
					<dim>1</dim>
				</port>
			</input>
			<output>
				<port id="2" precision="FP32">
					<dim>1</dim>
					<dim>64</dim>
					<dim>56</dim>
					<dim>56</dim>
				</port>
			</output>
		</layer>
		<layer id="157" name="data_add_1037410379/copy_const344_const" type="Const" version="opset1">
			<data element_type="f32" offset="182856" shape="1,64,1,1" size="256"/>
			<output>
				<port id="1" precision="FP32">
					<dim>1</dim>
					<dim>64</dim>
					<dim>1</dim>
					<dim>1</dim>
				</port>
			</output>
		</layer>
		<layer id="158" name="resnet_v1_50/block1/unit_3/bottleneck_v1/conv1/BatchNorm/FusedBatchNormV3/variance/Fused_Add_" type="Add" version="opset1">
			<input>
				<port id="0">
					<dim>1</dim>
					<dim>64</dim>
					<dim>56</dim>
					<dim>56</dim>
				</port>
				<port id="1">
					<dim>1</dim>
					<dim>64</dim>
					<dim>1</dim>
					<dim>1</dim>
				</port>
			</input>
			<output>
				<port id="2" precision="FP32">
					<dim>1</dim>
					<dim>64</dim>
					<dim>56</dim>
					<dim>56</dim>
				</port>
			</output>
		</layer>
		<layer id="159" name="resnet_v1_50/block1/unit_3/bottleneck_v1/conv1/Relu" type="ReLU" version="opset1">
			<input>
				<port id="0">
					<dim>1</dim>
					<dim>64</dim>
					<dim>56</dim>
					<dim>56</dim>
				</port>
			</input>
			<output>
				<port id="1" precision="FP32">
					<dim>1</dim>
					<dim>64</dim>
					<dim>56</dim>
					<dim>56</dim>
				</port>
			</output>
		</layer>
		<layer id="160" name="19271931_const" type="Const" version="opset1">
			<data element_type="f32" offset="183112" shape="" size="4"/>
			<output>
				<port id="1" precision="FP32"/>
			</output>
		</layer>
		<layer id="161" name="19281932_const" type="Const" version="opset1">
			<data element_type="f32" offset="183116" shape="" size="4"/>
			<output>
				<port id="1" precision="FP32"/>
			</output>
		</layer>
		<layer id="162" name="19291933_const" type="Const" version="opset1">
			<data element_type="f32" offset="183112" shape="" size="4"/>
			<output>
				<port id="1" precision="FP32"/>
			</output>
		</layer>
		<layer id="163" name="19301934_const" type="Const" version="opset1">
			<data element_type="f32" offset="183116" shape="" size="4"/>
			<output>
				<port id="1" precision="FP32"/>
			</output>
		</layer>
		<layer id="164" name="resnet_v1_50/block1/unit_3/bottleneck_v1/conv2/Conv2D/fq_input_0" type="FakeQuantize" version="opset1">
			<data levels="256"/>
			<input>
				<port id="0">
					<dim>1</dim>
					<dim>64</dim>
					<dim>56</dim>
					<dim>56</dim>
				</port>
				<port id="1"/>
				<port id="2"/>
				<port id="3"/>
				<port id="4"/>
			</input>
			<output>
				<port id="5" precision="FP32">
					<dim>1</dim>
					<dim>64</dim>
					<dim>56</dim>
					<dim>56</dim>
				</port>
			</output>
		</layer>
		<layer id="165" name="resnet_v1_50/block1/unit_3/bottleneck_v1/conv2/Conv2D/fq_weights_1/Convert_to_float/Cast_05497_const" type="Const" version="opset1">
			<data element_type="u8" offset="183120" shape="64,64,3,3" size="36864"/>
			<output>
				<port id="1" precision="U8">
					<dim>64</dim>
					<dim>64</dim>
					<dim>3</dim>
					<dim>3</dim>
				</port>
			</output>
		</layer>
		<layer id="166" name="resnet_v1_50/block1/unit_3/bottleneck_v1/conv2/Conv2D/fq_weights_1/Convert_to_float" type="Convert" version="opset1">
			<data destination_type="f32"/>
			<input>
				<port id="0">
					<dim>64</dim>
					<dim>64</dim>
					<dim>3</dim>
					<dim>3</dim>
				</port>
			</input>
			<output>
				<port id="1" precision="FP32">
					<dim>64</dim>
					<dim>64</dim>
					<dim>3</dim>
					<dim>3</dim>
				</port>
			</output>
		</layer>
		<layer id="167" name="resnet_v1_50/block1/unit_3/bottleneck_v1/conv2/Conv2D/fq_weights_1/Copy/out_low4749_const" type="Const" version="opset1">
			<data element_type="f32" offset="219984" shape="1" size="4"/>
			<output>
				<port id="1" precision="FP32">
					<dim>1</dim>
				</port>
			</output>
		</layer>
		<layer id="168" name="resnet_v1_50/block1/unit_3/bottleneck_v1/conv2/Conv2D/fq_weights_1/Copy/out_high4750_const" type="Const" version="opset1">
			<data element_type="f32" offset="9432" shape="1" size="4"/>
			<output>
				<port id="1" precision="FP32">
					<dim>1</dim>
				</port>
			</output>
		</layer>
		<layer id="169" name="19391943_const" type="Const" version="opset1">
			<data element_type="f32" offset="219988" shape="64,1,1,1" size="256"/>
			<output>
				<port id="1" precision="FP32">
					<dim>64</dim>
					<dim>1</dim>
					<dim>1</dim>
					<dim>1</dim>
				</port>
			</output>
		</layer>
		<layer id="170" name="19401944_const" type="Const" version="opset1">
			<data element_type="f32" offset="220244" shape="64,1,1,1" size="256"/>
			<output>
				<port id="1" precision="FP32">
					<dim>64</dim>
					<dim>1</dim>
					<dim>1</dim>
					<dim>1</dim>
				</port>
			</output>
		</layer>
		<layer id="171" name="resnet_v1_50/block1/unit_3/bottleneck_v1/conv2/Conv2D/fq_weights_1" type="FakeQuantize" version="opset1">
			<data levels="255"/>
			<input>
				<port id="0">
					<dim>64</dim>
					<dim>64</dim>
					<dim>3</dim>
					<dim>3</dim>
				</port>
				<port id="1">
					<dim>1</dim>
				</port>
				<port id="2">
					<dim>1</dim>
				</port>
				<port id="3">
					<dim>64</dim>
					<dim>1</dim>
					<dim>1</dim>
					<dim>1</dim>
				</port>
				<port id="4">
					<dim>64</dim>
					<dim>1</dim>
					<dim>1</dim>
					<dim>1</dim>
				</port>
			</input>
			<output>
				<port id="5" precision="FP32">
					<dim>64</dim>
					<dim>64</dim>
					<dim>3</dim>
					<dim>3</dim>
				</port>
			</output>
		</layer>
		<layer id="172" name="resnet_v1_50/block1/unit_3/bottleneck_v1/conv2/Conv2D" type="Convolution" version="opset1">
			<data dilations="1,1" output_padding="0,0" pads_begin="1,1" pads_end="1,1" strides="2,2"/>
			<input>
				<port id="0">
					<dim>1</dim>
					<dim>64</dim>
					<dim>56</dim>
					<dim>56</dim>
				</port>
				<port id="1">
					<dim>64</dim>
					<dim>64</dim>
					<dim>3</dim>
					<dim>3</dim>
				</port>
			</input>
			<output>
				<port id="2" precision="FP32">
					<dim>1</dim>
					<dim>64</dim>
					<dim>28</dim>
					<dim>28</dim>
				</port>
			</output>
		</layer>
		<layer id="173" name="data_add_1038210387/copy_const349_const" type="Const" version="opset1">
			<data element_type="f32" offset="220500" shape="1,64,1,1" size="256"/>
			<output>
				<port id="1" precision="FP32">
					<dim>1</dim>
					<dim>64</dim>
					<dim>1</dim>
					<dim>1</dim>
				</port>
			</output>
		</layer>
		<layer id="174" name="resnet_v1_50/block1/unit_3/bottleneck_v1/conv2/BatchNorm/FusedBatchNormV3/variance/Fused_Add_" type="Add" version="opset1">
			<input>
				<port id="0">
					<dim>1</dim>
					<dim>64</dim>
					<dim>28</dim>
					<dim>28</dim>
				</port>
				<port id="1">
					<dim>1</dim>
					<dim>64</dim>
					<dim>1</dim>
					<dim>1</dim>
				</port>
			</input>
			<output>
				<port id="2" precision="FP32">
					<dim>1</dim>
					<dim>64</dim>
					<dim>28</dim>
					<dim>28</dim>
				</port>
			</output>
		</layer>
		<layer id="175" name="resnet_v1_50/block1/unit_3/bottleneck_v1/conv2/Relu" type="ReLU" version="opset1">
			<input>
				<port id="0">
					<dim>1</dim>
					<dim>64</dim>
					<dim>28</dim>
					<dim>28</dim>
				</port>
			</input>
			<output>
				<port id="1" precision="FP32">
					<dim>1</dim>
					<dim>64</dim>
					<dim>28</dim>
					<dim>28</dim>
				</port>
			</output>
		</layer>
		<layer id="176" name="17471751_const" type="Const" version="opset1">
			<data element_type="f32" offset="220756" shape="" size="4"/>
			<output>
				<port id="1" precision="FP32"/>
			</output>
		</layer>
		<layer id="177" name="17481752_const" type="Const" version="opset1">
			<data element_type="f32" offset="220760" shape="" size="4"/>
			<output>
				<port id="1" precision="FP32"/>
			</output>
		</layer>
		<layer id="178" name="17491753_const" type="Const" version="opset1">
			<data element_type="f32" offset="220756" shape="" size="4"/>
			<output>
				<port id="1" precision="FP32"/>
			</output>
		</layer>
		<layer id="179" name="17501754_const" type="Const" version="opset1">
			<data element_type="f32" offset="220760" shape="" size="4"/>
			<output>
				<port id="1" precision="FP32"/>
			</output>
		</layer>
		<layer id="180" name="resnet_v1_50/block1/unit_3/bottleneck_v1/conv3/Conv2D/fq_input_0" type="FakeQuantize" version="opset1">
			<data levels="256"/>
			<input>
				<port id="0">
					<dim>1</dim>
					<dim>64</dim>
					<dim>28</dim>
					<dim>28</dim>
				</port>
				<port id="1"/>
				<port id="2"/>
				<port id="3"/>
				<port id="4"/>
			</input>
			<output>
				<port id="5" precision="FP32">
					<dim>1</dim>
					<dim>64</dim>
					<dim>28</dim>
					<dim>28</dim>
				</port>
			</output>
		</layer>
		<layer id="181" name="resnet_v1_50/block1/unit_3/bottleneck_v1/conv3/Conv2D/fq_weights_1/Convert_to_float/Cast_05449_const" type="Const" version="opset1">
			<data element_type="u8" offset="220764" shape="256,64,1,1" size="16384"/>
			<output>
				<port id="1" precision="U8">
					<dim>256</dim>
					<dim>64</dim>
					<dim>1</dim>
					<dim>1</dim>
				</port>
			</output>
		</layer>
		<layer id="182" name="resnet_v1_50/block1/unit_3/bottleneck_v1/conv3/Conv2D/fq_weights_1/Convert_to_float" type="Convert" version="opset1">
			<data destination_type="f32"/>
			<input>
				<port id="0">
					<dim>256</dim>
					<dim>64</dim>
					<dim>1</dim>
					<dim>1</dim>
				</port>
			</input>
			<output>
				<port id="1" precision="FP32">
					<dim>256</dim>
					<dim>64</dim>
					<dim>1</dim>
					<dim>1</dim>
				</port>
			</output>
		</layer>
		<layer id="183" name="resnet_v1_50/block1/unit_3/bottleneck_v1/conv3/Conv2D/fq_weights_1/Copy/out_low4397_const" type="Const" version="opset1">
			<data element_type="f32" offset="237148" shape="1" size="4"/>
			<output>
				<port id="1" precision="FP32">
					<dim>1</dim>
				</port>
			</output>
		</layer>
		<layer id="184" name="resnet_v1_50/block1/unit_3/bottleneck_v1/conv3/Conv2D/fq_weights_1/Copy/out_high4398_const" type="Const" version="opset1">
			<data element_type="f32" offset="9432" shape="1" size="4"/>
			<output>
				<port id="1" precision="FP32">
					<dim>1</dim>
				</port>
			</output>
		</layer>
		<layer id="185" name="17591763_const" type="Const" version="opset1">
			<data element_type="f32" offset="237152" shape="256,1,1,1" size="1024"/>
			<output>
				<port id="1" precision="FP32">
					<dim>256</dim>
					<dim>1</dim>
					<dim>1</dim>
					<dim>1</dim>
				</port>
			</output>
		</layer>
		<layer id="186" name="17601764_const" type="Const" version="opset1">
			<data element_type="f32" offset="238176" shape="256,1,1,1" size="1024"/>
			<output>
				<port id="1" precision="FP32">
					<dim>256</dim>
					<dim>1</dim>
					<dim>1</dim>
					<dim>1</dim>
				</port>
			</output>
		</layer>
		<layer id="187" name="resnet_v1_50/block1/unit_3/bottleneck_v1/conv3/Conv2D/fq_weights_1" type="FakeQuantize" version="opset1">
			<data levels="255"/>
			<input>
				<port id="0">
					<dim>256</dim>
					<dim>64</dim>
					<dim>1</dim>
					<dim>1</dim>
				</port>
				<port id="1">
					<dim>1</dim>
				</port>
				<port id="2">
					<dim>1</dim>
				</port>
				<port id="3">
					<dim>256</dim>
					<dim>1</dim>
					<dim>1</dim>
					<dim>1</dim>
				</port>
				<port id="4">
					<dim>256</dim>
					<dim>1</dim>
					<dim>1</dim>
					<dim>1</dim>
				</port>
			</input>
			<output>
				<port id="5" precision="FP32">
					<dim>256</dim>
					<dim>64</dim>
					<dim>1</dim>
					<dim>1</dim>
				</port>
			</output>
		</layer>
		<layer id="188" name="resnet_v1_50/block1/unit_3/bottleneck_v1/conv3/Conv2D" type="Convolution" version="opset1">
			<data auto_pad="same_upper" dilations="1,1" output_padding="0,0" pads_begin="0,0" pads_end="0,0" strides="1,1"/>
			<input>
				<port id="0">
					<dim>1</dim>
					<dim>64</dim>
					<dim>28</dim>
					<dim>28</dim>
				</port>
				<port id="1">
					<dim>256</dim>
					<dim>64</dim>
					<dim>1</dim>
					<dim>1</dim>
				</port>
			</input>
			<output>
				<port id="2" precision="FP32">
					<dim>1</dim>
					<dim>256</dim>
					<dim>28</dim>
					<dim>28</dim>
				</port>
			</output>
		</layer>
		<layer id="189" name="data_add_1039010395/copy_const354_const" type="Const" version="opset1">
			<data element_type="f32" offset="239200" shape="1,256,1,1" size="1024"/>
			<output>
				<port id="1" precision="FP32">
					<dim>1</dim>
					<dim>256</dim>
					<dim>1</dim>
					<dim>1</dim>
				</port>
			</output>
		</layer>
		<layer id="190" name="resnet_v1_50/block1/unit_3/bottleneck_v1/conv3/BatchNorm/FusedBatchNormV3/variance/Fused_Add_" type="Add" version="opset1">
			<input>
				<port id="0">
					<dim>1</dim>
					<dim>256</dim>
					<dim>28</dim>
					<dim>28</dim>
				</port>
				<port id="1">
					<dim>1</dim>
					<dim>256</dim>
					<dim>1</dim>
					<dim>1</dim>
				</port>
			</input>
			<output>
				<port id="2" precision="FP32">
					<dim>1</dim>
					<dim>256</dim>
					<dim>28</dim>
					<dim>28</dim>
				</port>
			</output>
		</layer>
		<layer id="191" name="10971101_const" type="Const" version="opset1">
			<data element_type="f32" offset="240224" shape="" size="4"/>
			<output>
				<port id="1" precision="FP32"/>
			</output>
		</layer>
		<layer id="192" name="10981102_const" type="Const" version="opset1">
			<data element_type="f32" offset="240228" shape="" size="4"/>
			<output>
				<port id="1" precision="FP32"/>
			</output>
		</layer>
		<layer id="193" name="10991103_const" type="Const" version="opset1">
			<data element_type="f32" offset="240224" shape="" size="4"/>
			<output>
				<port id="1" precision="FP32"/>
			</output>
		</layer>
		<layer id="194" name="11001104_const" type="Const" version="opset1">
			<data element_type="f32" offset="240228" shape="" size="4"/>
			<output>
				<port id="1" precision="FP32"/>
			</output>
		</layer>
		<layer id="195" name="resnet_v1_50/block1/unit_3/bottleneck_v1/add/fq_input_1" type="FakeQuantize" version="opset1">
			<data levels="256"/>
			<input>
				<port id="0">
					<dim>1</dim>
					<dim>256</dim>
					<dim>28</dim>
					<dim>28</dim>
				</port>
				<port id="1"/>
				<port id="2"/>
				<port id="3"/>
				<port id="4"/>
			</input>
			<output>
				<port id="5" precision="FP32">
					<dim>1</dim>
					<dim>256</dim>
					<dim>28</dim>
					<dim>28</dim>
				</port>
			</output>
		</layer>
		<layer id="196" name="resnet_v1_50/block1/unit_3/bottleneck_v1/add" type="Add" version="opset1">
			<input>
				<port id="0">
					<dim>1</dim>
					<dim>256</dim>
					<dim>28</dim>
					<dim>28</dim>
				</port>
				<port id="1">
					<dim>1</dim>
					<dim>256</dim>
					<dim>28</dim>
					<dim>28</dim>
				</port>
			</input>
			<output>
				<port id="2" precision="FP32">
					<dim>1</dim>
					<dim>256</dim>
					<dim>28</dim>
					<dim>28</dim>
				</port>
			</output>
		</layer>
		<layer id="197" name="resnet_v1_50/block1/unit_3/bottleneck_v1/Relu" type="ReLU" version="opset1">
			<input>
				<port id="0">
					<dim>1</dim>
					<dim>256</dim>
					<dim>28</dim>
					<dim>28</dim>
				</port>
			</input>
			<output>
				<port id="1" precision="FP32">
					<dim>1</dim>
					<dim>256</dim>
					<dim>28</dim>
					<dim>28</dim>
				</port>
			</output>
		</layer>
		<layer id="198" name="15471551_const" type="Const" version="opset1">
			<data element_type="f32" offset="240232" shape="" size="4"/>
			<output>
				<port id="1" precision="FP32"/>
			</output>
		</layer>
		<layer id="199" name="15481552_const" type="Const" version="opset1">
			<data element_type="f32" offset="240236" shape="" size="4"/>
			<output>
				<port id="1" precision="FP32"/>
			</output>
		</layer>
		<layer id="200" name="15491553_const" type="Const" version="opset1">
			<data element_type="f32" offset="240232" shape="" size="4"/>
			<output>
				<port id="1" precision="FP32"/>
			</output>
		</layer>
		<layer id="201" name="15501554_const" type="Const" version="opset1">
			<data element_type="f32" offset="240236" shape="" size="4"/>
			<output>
				<port id="1" precision="FP32"/>
			</output>
		</layer>
		<layer id="202" name="resnet_v1_50/block2/unit_1/bottleneck_v1/conv1/Conv2D/fq_input_0" type="FakeQuantize" version="opset1">
			<data levels="256"/>
			<input>
				<port id="0">
					<dim>1</dim>
					<dim>256</dim>
					<dim>28</dim>
					<dim>28</dim>
				</port>
				<port id="1"/>
				<port id="2"/>
				<port id="3"/>
				<port id="4"/>
			</input>
			<output>
				<port id="5" precision="FP32">
					<dim>1</dim>
					<dim>256</dim>
					<dim>28</dim>
					<dim>28</dim>
				</port>
			</output>
		</layer>
		<layer id="203" name="resnet_v1_50/block2/unit_1/bottleneck_v1/shortcut/Conv2D/fq_weights_1/Convert_to_float/Cast_05427_const" type="Const" version="opset1">
			<data element_type="u8" offset="240240" shape="512,256,1,1" size="131072"/>
			<output>
				<port id="1" precision="U8">
					<dim>512</dim>
					<dim>256</dim>
					<dim>1</dim>
					<dim>1</dim>
				</port>
			</output>
		</layer>
		<layer id="204" name="resnet_v1_50/block2/unit_1/bottleneck_v1/shortcut/Conv2D/fq_weights_1/Convert_to_float" type="Convert" version="opset1">
			<data destination_type="f32"/>
			<input>
				<port id="0">
					<dim>512</dim>
					<dim>256</dim>
					<dim>1</dim>
					<dim>1</dim>
				</port>
			</input>
			<output>
				<port id="1" precision="FP32">
					<dim>512</dim>
					<dim>256</dim>
					<dim>1</dim>
					<dim>1</dim>
				</port>
			</output>
		</layer>
		<layer id="205" name="resnet_v1_50/block2/unit_1/bottleneck_v1/shortcut/Conv2D/fq_weights_1/Copy/out_low4437_const" type="Const" version="opset1">
			<data element_type="f32" offset="371312" shape="1" size="4"/>
			<output>
				<port id="1" precision="FP32">
					<dim>1</dim>
				</port>
			</output>
		</layer>
		<layer id="206" name="resnet_v1_50/block2/unit_1/bottleneck_v1/shortcut/Conv2D/fq_weights_1/Copy/out_high4438_const" type="Const" version="opset1">
			<data element_type="f32" offset="9432" shape="1" size="4"/>
			<output>
				<port id="1" precision="FP32">
					<dim>1</dim>
				</port>
			</output>
		</layer>
		<layer id="207" name="11591163_const" type="Const" version="opset1">
			<data element_type="f32" offset="371316" shape="512,1,1,1" size="2048"/>
			<output>
				<port id="1" precision="FP32">
					<dim>512</dim>
					<dim>1</dim>
					<dim>1</dim>
					<dim>1</dim>
				</port>
			</output>
		</layer>
		<layer id="208" name="11601164_const" type="Const" version="opset1">
			<data element_type="f32" offset="373364" shape="512,1,1,1" size="2048"/>
			<output>
				<port id="1" precision="FP32">
					<dim>512</dim>
					<dim>1</dim>
					<dim>1</dim>
					<dim>1</dim>
				</port>
			</output>
		</layer>
		<layer id="209" name="resnet_v1_50/block2/unit_1/bottleneck_v1/shortcut/Conv2D/fq_weights_1" type="FakeQuantize" version="opset1">
			<data levels="255"/>
			<input>
				<port id="0">
					<dim>512</dim>
					<dim>256</dim>
					<dim>1</dim>
					<dim>1</dim>
				</port>
				<port id="1">
					<dim>1</dim>
				</port>
				<port id="2">
					<dim>1</dim>
				</port>
				<port id="3">
					<dim>512</dim>
					<dim>1</dim>
					<dim>1</dim>
					<dim>1</dim>
				</port>
				<port id="4">
					<dim>512</dim>
					<dim>1</dim>
					<dim>1</dim>
					<dim>1</dim>
				</port>
			</input>
			<output>
				<port id="5" precision="FP32">
					<dim>512</dim>
					<dim>256</dim>
					<dim>1</dim>
					<dim>1</dim>
				</port>
			</output>
		</layer>
		<layer id="210" name="resnet_v1_50/block2/unit_1/bottleneck_v1/shortcut/Conv2D" type="Convolution" version="opset1">
			<data auto_pad="same_upper" dilations="1,1" output_padding="0,0" pads_begin="0,0" pads_end="0,0" strides="1,1"/>
			<input>
				<port id="0">
					<dim>1</dim>
					<dim>256</dim>
					<dim>28</dim>
					<dim>28</dim>
				</port>
				<port id="1">
					<dim>512</dim>
					<dim>256</dim>
					<dim>1</dim>
					<dim>1</dim>
				</port>
			</input>
			<output>
				<port id="2" precision="FP32">
					<dim>1</dim>
					<dim>512</dim>
					<dim>28</dim>
					<dim>28</dim>
				</port>
			</output>
		</layer>
		<layer id="211" name="data_add_1042210427/copy_const360_const" type="Const" version="opset1">
			<data element_type="f32" offset="375412" shape="1,512,1,1" size="2048"/>
			<output>
				<port id="1" precision="FP32">
					<dim>1</dim>
					<dim>512</dim>
					<dim>1</dim>
					<dim>1</dim>
				</port>
			</output>
		</layer>
		<layer id="212" name="resnet_v1_50/block2/unit_1/bottleneck_v1/shortcut/BatchNorm/FusedBatchNormV3/variance/Fused_Add_" type="Add" version="opset1">
			<input>
				<port id="0">
					<dim>1</dim>
					<dim>512</dim>
					<dim>28</dim>
					<dim>28</dim>
				</port>
				<port id="1">
					<dim>1</dim>
					<dim>512</dim>
					<dim>1</dim>
					<dim>1</dim>
				</port>
			</input>
			<output>
				<port id="2" precision="FP32">
					<dim>1</dim>
					<dim>512</dim>
					<dim>28</dim>
					<dim>28</dim>
				</port>
			</output>
		</layer>
		<layer id="213" name="14471451_const" type="Const" version="opset1">
			<data element_type="f32" offset="377460" shape="" size="4"/>
			<output>
				<port id="1" precision="FP32"/>
			</output>
		</layer>
		<layer id="214" name="14481452_const" type="Const" version="opset1">
			<data element_type="f32" offset="377464" shape="" size="4"/>
			<output>
				<port id="1" precision="FP32"/>
			</output>
		</layer>
		<layer id="215" name="14491453_const" type="Const" version="opset1">
			<data element_type="f32" offset="377460" shape="" size="4"/>
			<output>
				<port id="1" precision="FP32"/>
			</output>
		</layer>
		<layer id="216" name="14501454_const" type="Const" version="opset1">
			<data element_type="f32" offset="377464" shape="" size="4"/>
			<output>
				<port id="1" precision="FP32"/>
			</output>
		</layer>
		<layer id="217" name="resnet_v1_50/block2/unit_1/bottleneck_v1/add/fq_input_0" type="FakeQuantize" version="opset1">
			<data levels="256"/>
			<input>
				<port id="0">
					<dim>1</dim>
					<dim>512</dim>
					<dim>28</dim>
					<dim>28</dim>
				</port>
				<port id="1"/>
				<port id="2"/>
				<port id="3"/>
				<port id="4"/>
			</input>
			<output>
				<port id="5" precision="FP32">
					<dim>1</dim>
					<dim>512</dim>
					<dim>28</dim>
					<dim>28</dim>
				</port>
			</output>
		</layer>
		<layer id="218" name="resnet_v1_50/block2/unit_1/bottleneck_v1/conv1/Conv2D/fq_weights_1/Convert_to_float/Cast_05485_const" type="Const" version="opset1">
			<data element_type="u8" offset="377468" shape="128,256,1,1" size="32768"/>
			<output>
				<port id="1" precision="U8">
					<dim>128</dim>
					<dim>256</dim>
					<dim>1</dim>
					<dim>1</dim>
				</port>
			</output>
		</layer>
		<layer id="219" name="resnet_v1_50/block2/unit_1/bottleneck_v1/conv1/Conv2D/fq_weights_1/Convert_to_float" type="Convert" version="opset1">
			<data destination_type="f32"/>
			<input>
				<port id="0">
					<dim>128</dim>
					<dim>256</dim>
					<dim>1</dim>
					<dim>1</dim>
				</port>
			</input>
			<output>
				<port id="1" precision="FP32">
					<dim>128</dim>
					<dim>256</dim>
					<dim>1</dim>
					<dim>1</dim>
				</port>
			</output>
		</layer>
		<layer id="220" name="resnet_v1_50/block2/unit_1/bottleneck_v1/conv1/Conv2D/fq_weights_1/Copy/out_low4637_const" type="Const" version="opset1">
			<data element_type="f32" offset="371312" shape="1" size="4"/>
			<output>
				<port id="1" precision="FP32">
					<dim>1</dim>
				</port>
			</output>
		</layer>
		<layer id="221" name="resnet_v1_50/block2/unit_1/bottleneck_v1/conv1/Conv2D/fq_weights_1/Copy/out_high4638_const" type="Const" version="opset1">
			<data element_type="f32" offset="9432" shape="1" size="4"/>
			<output>
				<port id="1" precision="FP32">
					<dim>1</dim>
				</port>
			</output>
		</layer>
		<layer id="222" name="15591563_const" type="Const" version="opset1">
			<data element_type="f32" offset="410236" shape="128,1,1,1" size="512"/>
			<output>
				<port id="1" precision="FP32">
					<dim>128</dim>
					<dim>1</dim>
					<dim>1</dim>
					<dim>1</dim>
				</port>
			</output>
		</layer>
		<layer id="223" name="15601564_const" type="Const" version="opset1">
			<data element_type="f32" offset="410748" shape="128,1,1,1" size="512"/>
			<output>
				<port id="1" precision="FP32">
					<dim>128</dim>
					<dim>1</dim>
					<dim>1</dim>
					<dim>1</dim>
				</port>
			</output>
		</layer>
		<layer id="224" name="resnet_v1_50/block2/unit_1/bottleneck_v1/conv1/Conv2D/fq_weights_1" type="FakeQuantize" version="opset1">
			<data levels="255"/>
			<input>
				<port id="0">
					<dim>128</dim>
					<dim>256</dim>
					<dim>1</dim>
					<dim>1</dim>
				</port>
				<port id="1">
					<dim>1</dim>
				</port>
				<port id="2">
					<dim>1</dim>
				</port>
				<port id="3">
					<dim>128</dim>
					<dim>1</dim>
					<dim>1</dim>
					<dim>1</dim>
				</port>
				<port id="4">
					<dim>128</dim>
					<dim>1</dim>
					<dim>1</dim>
					<dim>1</dim>
				</port>
			</input>
			<output>
				<port id="5" precision="FP32">
					<dim>128</dim>
					<dim>256</dim>
					<dim>1</dim>
					<dim>1</dim>
				</port>
			</output>
		</layer>
		<layer id="225" name="resnet_v1_50/block2/unit_1/bottleneck_v1/conv1/Conv2D" type="Convolution" version="opset1">
			<data auto_pad="same_upper" dilations="1,1" output_padding="0,0" pads_begin="0,0" pads_end="0,0" strides="1,1"/>
			<input>
				<port id="0">
					<dim>1</dim>
					<dim>256</dim>
					<dim>28</dim>
					<dim>28</dim>
				</port>
				<port id="1">
					<dim>128</dim>
					<dim>256</dim>
					<dim>1</dim>
					<dim>1</dim>
				</port>
			</input>
			<output>
				<port id="2" precision="FP32">
					<dim>1</dim>
					<dim>128</dim>
					<dim>28</dim>
					<dim>28</dim>
				</port>
			</output>
		</layer>
		<layer id="226" name="data_add_1039810403/copy_const364_const" type="Const" version="opset1">
			<data element_type="f32" offset="411260" shape="1,128,1,1" size="512"/>
			<output>
				<port id="1" precision="FP32">
					<dim>1</dim>
					<dim>128</dim>
					<dim>1</dim>
					<dim>1</dim>
				</port>
			</output>
		</layer>
		<layer id="227" name="resnet_v1_50/block2/unit_1/bottleneck_v1/conv1/BatchNorm/FusedBatchNormV3/variance/Fused_Add_" type="Add" version="opset1">
			<input>
				<port id="0">
					<dim>1</dim>
					<dim>128</dim>
					<dim>28</dim>
					<dim>28</dim>
				</port>
				<port id="1">
					<dim>1</dim>
					<dim>128</dim>
					<dim>1</dim>
					<dim>1</dim>
				</port>
			</input>
			<output>
				<port id="2" precision="FP32">
					<dim>1</dim>
					<dim>128</dim>
					<dim>28</dim>
					<dim>28</dim>
				</port>
			</output>
		</layer>
		<layer id="228" name="resnet_v1_50/block2/unit_1/bottleneck_v1/conv1/Relu" type="ReLU" version="opset1">
			<input>
				<port id="0">
					<dim>1</dim>
					<dim>128</dim>
					<dim>28</dim>
					<dim>28</dim>
				</port>
			</input>
			<output>
				<port id="1" precision="FP32">
					<dim>1</dim>
					<dim>128</dim>
					<dim>28</dim>
					<dim>28</dim>
				</port>
			</output>
		</layer>
		<layer id="229" name="17671771_const" type="Const" version="opset1">
			<data element_type="f32" offset="411772" shape="" size="4"/>
			<output>
				<port id="1" precision="FP32"/>
			</output>
		</layer>
		<layer id="230" name="17681772_const" type="Const" version="opset1">
			<data element_type="f32" offset="411776" shape="" size="4"/>
			<output>
				<port id="1" precision="FP32"/>
			</output>
		</layer>
		<layer id="231" name="17691773_const" type="Const" version="opset1">
			<data element_type="f32" offset="411772" shape="" size="4"/>
			<output>
				<port id="1" precision="FP32"/>
			</output>
		</layer>
		<layer id="232" name="17701774_const" type="Const" version="opset1">
			<data element_type="f32" offset="411776" shape="" size="4"/>
			<output>
				<port id="1" precision="FP32"/>
			</output>
		</layer>
		<layer id="233" name="resnet_v1_50/block2/unit_1/bottleneck_v1/conv2/Conv2D/fq_input_0" type="FakeQuantize" version="opset1">
			<data levels="256"/>
			<input>
				<port id="0">
					<dim>1</dim>
					<dim>128</dim>
					<dim>28</dim>
					<dim>28</dim>
				</port>
				<port id="1"/>
				<port id="2"/>
				<port id="3"/>
				<port id="4"/>
			</input>
			<output>
				<port id="5" precision="FP32">
					<dim>1</dim>
					<dim>128</dim>
					<dim>28</dim>
					<dim>28</dim>
				</port>
			</output>
		</layer>
		<layer id="234" name="resnet_v1_50/block2/unit_1/bottleneck_v1/conv2/Conv2D/fq_weights_1/Convert_to_float/Cast_05397_const" type="Const" version="opset1">
			<data element_type="u8" offset="411780" shape="128,128,3,3" size="147456"/>
			<output>
				<port id="1" precision="U8">
					<dim>128</dim>
					<dim>128</dim>
					<dim>3</dim>
					<dim>3</dim>
				</port>
			</output>
		</layer>
		<layer id="235" name="resnet_v1_50/block2/unit_1/bottleneck_v1/conv2/Conv2D/fq_weights_1/Convert_to_float" type="Convert" version="opset1">
			<data destination_type="f32"/>
			<input>
				<port id="0">
					<dim>128</dim>
					<dim>128</dim>
					<dim>3</dim>
					<dim>3</dim>
				</port>
			</input>
			<output>
				<port id="1" precision="FP32">
					<dim>128</dim>
					<dim>128</dim>
					<dim>3</dim>
					<dim>3</dim>
				</port>
			</output>
		</layer>
		<layer id="236" name="resnet_v1_50/block2/unit_1/bottleneck_v1/conv2/Conv2D/fq_weights_1/Copy/out_low4621_const" type="Const" version="opset1">
			<data element_type="f32" offset="559236" shape="1" size="4"/>
			<output>
				<port id="1" precision="FP32">
					<dim>1</dim>
				</port>
			</output>
		</layer>
		<layer id="237" name="resnet_v1_50/block2/unit_1/bottleneck_v1/conv2/Conv2D/fq_weights_1/Copy/out_high4622_const" type="Const" version="opset1">
			<data element_type="f32" offset="9432" shape="1" size="4"/>
			<output>
				<port id="1" precision="FP32">
					<dim>1</dim>
				</port>
			</output>
		</layer>
		<layer id="238" name="17791783_const" type="Const" version="opset1">
			<data element_type="f32" offset="559240" shape="128,1,1,1" size="512"/>
			<output>
				<port id="1" precision="FP32">
					<dim>128</dim>
					<dim>1</dim>
					<dim>1</dim>
					<dim>1</dim>
				</port>
			</output>
		</layer>
		<layer id="239" name="17801784_const" type="Const" version="opset1">
			<data element_type="f32" offset="559752" shape="128,1,1,1" size="512"/>
			<output>
				<port id="1" precision="FP32">
					<dim>128</dim>
					<dim>1</dim>
					<dim>1</dim>
					<dim>1</dim>
				</port>
			</output>
		</layer>
		<layer id="240" name="resnet_v1_50/block2/unit_1/bottleneck_v1/conv2/Conv2D/fq_weights_1" type="FakeQuantize" version="opset1">
			<data levels="255"/>
			<input>
				<port id="0">
					<dim>128</dim>
					<dim>128</dim>
					<dim>3</dim>
					<dim>3</dim>
				</port>
				<port id="1">
					<dim>1</dim>
				</port>
				<port id="2">
					<dim>1</dim>
				</port>
				<port id="3">
					<dim>128</dim>
					<dim>1</dim>
					<dim>1</dim>
					<dim>1</dim>
				</port>
				<port id="4">
					<dim>128</dim>
					<dim>1</dim>
					<dim>1</dim>
					<dim>1</dim>
				</port>
			</input>
			<output>
				<port id="5" precision="FP32">
					<dim>128</dim>
					<dim>128</dim>
					<dim>3</dim>
					<dim>3</dim>
				</port>
			</output>
		</layer>
		<layer id="241" name="resnet_v1_50/block2/unit_1/bottleneck_v1/conv2/Conv2D" type="Convolution" version="opset1">
			<data auto_pad="same_upper" dilations="1,1" output_padding="0,0" pads_begin="1,1" pads_end="1,1" strides="1,1"/>
			<input>
				<port id="0">
					<dim>1</dim>
					<dim>128</dim>
					<dim>28</dim>
					<dim>28</dim>
				</port>
				<port id="1">
					<dim>128</dim>
					<dim>128</dim>
					<dim>3</dim>
					<dim>3</dim>
				</port>
			</input>
			<output>
				<port id="2" precision="FP32">
					<dim>1</dim>
					<dim>128</dim>
					<dim>28</dim>
					<dim>28</dim>
				</port>
			</output>
		</layer>
		<layer id="242" name="data_add_1040610411/copy_const369_const" type="Const" version="opset1">
			<data element_type="f32" offset="560264" shape="1,128,1,1" size="512"/>
			<output>
				<port id="1" precision="FP32">
					<dim>1</dim>
					<dim>128</dim>
					<dim>1</dim>
					<dim>1</dim>
				</port>
			</output>
		</layer>
		<layer id="243" name="resnet_v1_50/block2/unit_1/bottleneck_v1/conv2/BatchNorm/FusedBatchNormV3/variance/Fused_Add_" type="Add" version="opset1">
			<input>
				<port id="0">
					<dim>1</dim>
					<dim>128</dim>
					<dim>28</dim>
					<dim>28</dim>
				</port>
				<port id="1">
					<dim>1</dim>
					<dim>128</dim>
					<dim>1</dim>
					<dim>1</dim>
				</port>
			</input>
			<output>
				<port id="2" precision="FP32">
					<dim>1</dim>
					<dim>128</dim>
					<dim>28</dim>
					<dim>28</dim>
				</port>
			</output>
		</layer>
		<layer id="244" name="resnet_v1_50/block2/unit_1/bottleneck_v1/conv2/Relu" type="ReLU" version="opset1">
			<input>
				<port id="0">
					<dim>1</dim>
					<dim>128</dim>
					<dim>28</dim>
					<dim>28</dim>
				</port>
			</input>
			<output>
				<port id="1" precision="FP32">
					<dim>1</dim>
					<dim>128</dim>
					<dim>28</dim>
					<dim>28</dim>
				</port>
			</output>
		</layer>
		<layer id="245" name="22772281_const" type="Const" version="opset1">
			<data element_type="f32" offset="560776" shape="" size="4"/>
			<output>
				<port id="1" precision="FP32"/>
			</output>
		</layer>
		<layer id="246" name="22782282_const" type="Const" version="opset1">
			<data element_type="f32" offset="560780" shape="" size="4"/>
			<output>
				<port id="1" precision="FP32"/>
			</output>
		</layer>
		<layer id="247" name="22792283_const" type="Const" version="opset1">
			<data element_type="f32" offset="560776" shape="" size="4"/>
			<output>
				<port id="1" precision="FP32"/>
			</output>
		</layer>
		<layer id="248" name="22802284_const" type="Const" version="opset1">
			<data element_type="f32" offset="560780" shape="" size="4"/>
			<output>
				<port id="1" precision="FP32"/>
			</output>
		</layer>
		<layer id="249" name="resnet_v1_50/block2/unit_1/bottleneck_v1/conv3/Conv2D/fq_input_0" type="FakeQuantize" version="opset1">
			<data levels="256"/>
			<input>
				<port id="0">
					<dim>1</dim>
					<dim>128</dim>
					<dim>28</dim>
					<dim>28</dim>
				</port>
				<port id="1"/>
				<port id="2"/>
				<port id="3"/>
				<port id="4"/>
			</input>
			<output>
				<port id="5" precision="FP32">
					<dim>1</dim>
					<dim>128</dim>
					<dim>28</dim>
					<dim>28</dim>
				</port>
			</output>
		</layer>
		<layer id="250" name="resnet_v1_50/block2/unit_1/bottleneck_v1/conv3/Conv2D/fq_weights_1/Convert_to_float/Cast_05431_const" type="Const" version="opset1">
			<data element_type="u8" offset="560784" shape="512,128,1,1" size="65536"/>
			<output>
				<port id="1" precision="U8">
					<dim>512</dim>
					<dim>128</dim>
					<dim>1</dim>
					<dim>1</dim>
				</port>
			</output>
		</layer>
		<layer id="251" name="resnet_v1_50/block2/unit_1/bottleneck_v1/conv3/Conv2D/fq_weights_1/Convert_to_float" type="Convert" version="opset1">
			<data destination_type="f32"/>
			<input>
				<port id="0">
					<dim>512</dim>
					<dim>128</dim>
					<dim>1</dim>
					<dim>1</dim>
				</port>
			</input>
			<output>
				<port id="1" precision="FP32">
					<dim>512</dim>
					<dim>128</dim>
					<dim>1</dim>
					<dim>1</dim>
				</port>
			</output>
		</layer>
		<layer id="252" name="resnet_v1_50/block2/unit_1/bottleneck_v1/conv3/Conv2D/fq_weights_1/Copy/out_low4605_const" type="Const" version="opset1">
			<data element_type="f32" offset="626320" shape="1" size="4"/>
			<output>
				<port id="1" precision="FP32">
					<dim>1</dim>
				</port>
			</output>
		</layer>
		<layer id="253" name="resnet_v1_50/block2/unit_1/bottleneck_v1/conv3/Conv2D/fq_weights_1/Copy/out_high4606_const" type="Const" version="opset1">
			<data element_type="f32" offset="9432" shape="1" size="4"/>
			<output>
				<port id="1" precision="FP32">
					<dim>1</dim>
				</port>
			</output>
		</layer>
		<layer id="254" name="22892293_const" type="Const" version="opset1">
			<data element_type="f32" offset="626324" shape="512,1,1,1" size="2048"/>
			<output>
				<port id="1" precision="FP32">
					<dim>512</dim>
					<dim>1</dim>
					<dim>1</dim>
					<dim>1</dim>
				</port>
			</output>
		</layer>
		<layer id="255" name="22902294_const" type="Const" version="opset1">
			<data element_type="f32" offset="628372" shape="512,1,1,1" size="2048"/>
			<output>
				<port id="1" precision="FP32">
					<dim>512</dim>
					<dim>1</dim>
					<dim>1</dim>
					<dim>1</dim>
				</port>
			</output>
		</layer>
		<layer id="256" name="resnet_v1_50/block2/unit_1/bottleneck_v1/conv3/Conv2D/fq_weights_1" type="FakeQuantize" version="opset1">
			<data levels="255"/>
			<input>
				<port id="0">
					<dim>512</dim>
					<dim>128</dim>
					<dim>1</dim>
					<dim>1</dim>
				</port>
				<port id="1">
					<dim>1</dim>
				</port>
				<port id="2">
					<dim>1</dim>
				</port>
				<port id="3">
					<dim>512</dim>
					<dim>1</dim>
					<dim>1</dim>
					<dim>1</dim>
				</port>
				<port id="4">
					<dim>512</dim>
					<dim>1</dim>
					<dim>1</dim>
					<dim>1</dim>
				</port>
			</input>
			<output>
				<port id="5" precision="FP32">
					<dim>512</dim>
					<dim>128</dim>
					<dim>1</dim>
					<dim>1</dim>
				</port>
			</output>
		</layer>
		<layer id="257" name="resnet_v1_50/block2/unit_1/bottleneck_v1/conv3/Conv2D" type="Convolution" version="opset1">
			<data auto_pad="same_upper" dilations="1,1" output_padding="0,0" pads_begin="0,0" pads_end="0,0" strides="1,1"/>
			<input>
				<port id="0">
					<dim>1</dim>
					<dim>128</dim>
					<dim>28</dim>
					<dim>28</dim>
				</port>
				<port id="1">
					<dim>512</dim>
					<dim>128</dim>
					<dim>1</dim>
					<dim>1</dim>
				</port>
			</input>
			<output>
				<port id="2" precision="FP32">
					<dim>1</dim>
					<dim>512</dim>
					<dim>28</dim>
					<dim>28</dim>
				</port>
			</output>
		</layer>
		<layer id="258" name="data_add_1041410419/copy_const374_const" type="Const" version="opset1">
			<data element_type="f32" offset="630420" shape="1,512,1,1" size="2048"/>
			<output>
				<port id="1" precision="FP32">
					<dim>1</dim>
					<dim>512</dim>
					<dim>1</dim>
					<dim>1</dim>
				</port>
			</output>
		</layer>
		<layer id="259" name="resnet_v1_50/block2/unit_1/bottleneck_v1/conv3/BatchNorm/FusedBatchNormV3/variance/Fused_Add_" type="Add" version="opset1">
			<input>
				<port id="0">
					<dim>1</dim>
					<dim>512</dim>
					<dim>28</dim>
					<dim>28</dim>
				</port>
				<port id="1">
					<dim>1</dim>
					<dim>512</dim>
					<dim>1</dim>
					<dim>1</dim>
				</port>
			</input>
			<output>
				<port id="2" precision="FP32">
					<dim>1</dim>
					<dim>512</dim>
					<dim>28</dim>
					<dim>28</dim>
				</port>
			</output>
		</layer>
		<layer id="260" name="14571461_const" type="Const" version="opset1">
			<data element_type="f32" offset="632468" shape="" size="4"/>
			<output>
				<port id="1" precision="FP32"/>
			</output>
		</layer>
		<layer id="261" name="14581462_const" type="Const" version="opset1">
			<data element_type="f32" offset="632472" shape="" size="4"/>
			<output>
				<port id="1" precision="FP32"/>
			</output>
		</layer>
		<layer id="262" name="14591463_const" type="Const" version="opset1">
			<data element_type="f32" offset="632468" shape="" size="4"/>
			<output>
				<port id="1" precision="FP32"/>
			</output>
		</layer>
		<layer id="263" name="14601464_const" type="Const" version="opset1">
			<data element_type="f32" offset="632472" shape="" size="4"/>
			<output>
				<port id="1" precision="FP32"/>
			</output>
		</layer>
		<layer id="264" name="resnet_v1_50/block2/unit_1/bottleneck_v1/add/fq_input_1" type="FakeQuantize" version="opset1">
			<data levels="256"/>
			<input>
				<port id="0">
					<dim>1</dim>
					<dim>512</dim>
					<dim>28</dim>
					<dim>28</dim>
				</port>
				<port id="1"/>
				<port id="2"/>
				<port id="3"/>
				<port id="4"/>
			</input>
			<output>
				<port id="5" precision="FP32">
					<dim>1</dim>
					<dim>512</dim>
					<dim>28</dim>
					<dim>28</dim>
				</port>
			</output>
		</layer>
		<layer id="265" name="resnet_v1_50/block2/unit_1/bottleneck_v1/add" type="Add" version="opset1">
			<input>
				<port id="0">
					<dim>1</dim>
					<dim>512</dim>
					<dim>28</dim>
					<dim>28</dim>
				</port>
				<port id="1">
					<dim>1</dim>
					<dim>512</dim>
					<dim>28</dim>
					<dim>28</dim>
				</port>
			</input>
			<output>
				<port id="2" precision="FP32">
					<dim>1</dim>
					<dim>512</dim>
					<dim>28</dim>
					<dim>28</dim>
				</port>
			</output>
		</layer>
		<layer id="266" name="resnet_v1_50/block2/unit_1/bottleneck_v1/Relu" type="ReLU" version="opset1">
			<input>
				<port id="0">
					<dim>1</dim>
					<dim>512</dim>
					<dim>28</dim>
					<dim>28</dim>
				</port>
			</input>
			<output>
				<port id="1" precision="FP32">
					<dim>1</dim>
					<dim>512</dim>
					<dim>28</dim>
					<dim>28</dim>
				</port>
			</output>
		</layer>
		<layer id="267" name="13671371_const" type="Const" version="opset1">
			<data element_type="f32" offset="632476" shape="" size="4"/>
			<output>
				<port id="1" precision="FP32"/>
			</output>
		</layer>
		<layer id="268" name="13681372_const" type="Const" version="opset1">
			<data element_type="f32" offset="632480" shape="" size="4"/>
			<output>
				<port id="1" precision="FP32"/>
			</output>
		</layer>
		<layer id="269" name="13691373_const" type="Const" version="opset1">
			<data element_type="f32" offset="632476" shape="" size="4"/>
			<output>
				<port id="1" precision="FP32"/>
			</output>
		</layer>
		<layer id="270" name="13701374_const" type="Const" version="opset1">
			<data element_type="f32" offset="632480" shape="" size="4"/>
			<output>
				<port id="1" precision="FP32"/>
			</output>
		</layer>
		<layer id="271" name="resnet_v1_50/block2/unit_2/bottleneck_v1/add/fq_input_0" type="FakeQuantize" version="opset1">
			<data levels="256"/>
			<input>
				<port id="0">
					<dim>1</dim>
					<dim>512</dim>
					<dim>28</dim>
					<dim>28</dim>
				</port>
				<port id="1"/>
				<port id="2"/>
				<port id="3"/>
				<port id="4"/>
			</input>
			<output>
				<port id="5" precision="FP32">
					<dim>1</dim>
					<dim>512</dim>
					<dim>28</dim>
					<dim>28</dim>
				</port>
			</output>
		</layer>
		<layer id="272" name="resnet_v1_50/block2/unit_2/bottleneck_v1/conv1/Conv2D/fq_weights_1/Convert_to_float/Cast_05405_const" type="Const" version="opset1">
			<data element_type="u8" offset="632484" shape="128,512,1,1" size="65536"/>
			<output>
				<port id="1" precision="U8">
					<dim>128</dim>
					<dim>512</dim>
					<dim>1</dim>
					<dim>1</dim>
				</port>
			</output>
		</layer>
		<layer id="273" name="resnet_v1_50/block2/unit_2/bottleneck_v1/conv1/Conv2D/fq_weights_1/Convert_to_float" type="Convert" version="opset1">
			<data destination_type="f32"/>
			<input>
				<port id="0">
					<dim>128</dim>
					<dim>512</dim>
					<dim>1</dim>
					<dim>1</dim>
				</port>
			</input>
			<output>
				<port id="1" precision="FP32">
					<dim>128</dim>
					<dim>512</dim>
					<dim>1</dim>
					<dim>1</dim>
				</port>
			</output>
		</layer>
		<layer id="274" name="resnet_v1_50/block2/unit_2/bottleneck_v1/conv1/Conv2D/fq_weights_1/Copy/out_low4509_const" type="Const" version="opset1">
			<data element_type="f32" offset="698020" shape="1" size="4"/>
			<output>
				<port id="1" precision="FP32">
					<dim>1</dim>
				</port>
			</output>
		</layer>
		<layer id="275" name="resnet_v1_50/block2/unit_2/bottleneck_v1/conv1/Conv2D/fq_weights_1/Copy/out_high4510_const" type="Const" version="opset1">
			<data element_type="f32" offset="9432" shape="1" size="4"/>
			<output>
				<port id="1" precision="FP32">
					<dim>1</dim>
				</port>
			</output>
		</layer>
		<layer id="276" name="16591663_const" type="Const" version="opset1">
			<data element_type="f32" offset="698024" shape="128,1,1,1" size="512"/>
			<output>
				<port id="1" precision="FP32">
					<dim>128</dim>
					<dim>1</dim>
					<dim>1</dim>
					<dim>1</dim>
				</port>
			</output>
		</layer>
		<layer id="277" name="16601664_const" type="Const" version="opset1">
			<data element_type="f32" offset="698536" shape="128,1,1,1" size="512"/>
			<output>
				<port id="1" precision="FP32">
					<dim>128</dim>
					<dim>1</dim>
					<dim>1</dim>
					<dim>1</dim>
				</port>
			</output>
		</layer>
		<layer id="278" name="resnet_v1_50/block2/unit_2/bottleneck_v1/conv1/Conv2D/fq_weights_1" type="FakeQuantize" version="opset1">
			<data levels="255"/>
			<input>
				<port id="0">
					<dim>128</dim>
					<dim>512</dim>
					<dim>1</dim>
					<dim>1</dim>
				</port>
				<port id="1">
					<dim>1</dim>
				</port>
				<port id="2">
					<dim>1</dim>
				</port>
				<port id="3">
					<dim>128</dim>
					<dim>1</dim>
					<dim>1</dim>
					<dim>1</dim>
				</port>
				<port id="4">
					<dim>128</dim>
					<dim>1</dim>
					<dim>1</dim>
					<dim>1</dim>
				</port>
			</input>
			<output>
				<port id="5" precision="FP32">
					<dim>128</dim>
					<dim>512</dim>
					<dim>1</dim>
					<dim>1</dim>
				</port>
			</output>
		</layer>
		<layer id="279" name="resnet_v1_50/block2/unit_2/bottleneck_v1/conv1/Conv2D" type="Convolution" version="opset1">
			<data auto_pad="same_upper" dilations="1,1" output_padding="0,0" pads_begin="0,0" pads_end="0,0" strides="1,1"/>
			<input>
				<port id="0">
					<dim>1</dim>
					<dim>512</dim>
					<dim>28</dim>
					<dim>28</dim>
				</port>
				<port id="1">
					<dim>128</dim>
					<dim>512</dim>
					<dim>1</dim>
					<dim>1</dim>
				</port>
			</input>
			<output>
				<port id="2" precision="FP32">
					<dim>1</dim>
					<dim>128</dim>
					<dim>28</dim>
					<dim>28</dim>
				</port>
			</output>
		</layer>
		<layer id="280" name="data_add_1043010435/copy_const380_const" type="Const" version="opset1">
			<data element_type="f32" offset="699048" shape="1,128,1,1" size="512"/>
			<output>
				<port id="1" precision="FP32">
					<dim>1</dim>
					<dim>128</dim>
					<dim>1</dim>
					<dim>1</dim>
				</port>
			</output>
		</layer>
		<layer id="281" name="resnet_v1_50/block2/unit_2/bottleneck_v1/conv1/BatchNorm/FusedBatchNormV3/variance/Fused_Add_" type="Add" version="opset1">
			<input>
				<port id="0">
					<dim>1</dim>
					<dim>128</dim>
					<dim>28</dim>
					<dim>28</dim>
				</port>
				<port id="1">
					<dim>1</dim>
					<dim>128</dim>
					<dim>1</dim>
					<dim>1</dim>
				</port>
			</input>
			<output>
				<port id="2" precision="FP32">
					<dim>1</dim>
					<dim>128</dim>
					<dim>28</dim>
					<dim>28</dim>
				</port>
			</output>
		</layer>
		<layer id="282" name="resnet_v1_50/block2/unit_2/bottleneck_v1/conv1/Relu" type="ReLU" version="opset1">
			<input>
				<port id="0">
					<dim>1</dim>
					<dim>128</dim>
					<dim>28</dim>
					<dim>28</dim>
				</port>
			</input>
			<output>
				<port id="1" precision="FP32">
					<dim>1</dim>
					<dim>128</dim>
					<dim>28</dim>
					<dim>28</dim>
				</port>
			</output>
		</layer>
		<layer id="283" name="14671471_const" type="Const" version="opset1">
			<data element_type="f32" offset="699560" shape="" size="4"/>
			<output>
				<port id="1" precision="FP32"/>
			</output>
		</layer>
		<layer id="284" name="14681472_const" type="Const" version="opset1">
			<data element_type="f32" offset="699564" shape="" size="4"/>
			<output>
				<port id="1" precision="FP32"/>
			</output>
		</layer>
		<layer id="285" name="14691473_const" type="Const" version="opset1">
			<data element_type="f32" offset="699560" shape="" size="4"/>
			<output>
				<port id="1" precision="FP32"/>
			</output>
		</layer>
		<layer id="286" name="14701474_const" type="Const" version="opset1">
			<data element_type="f32" offset="699564" shape="" size="4"/>
			<output>
				<port id="1" precision="FP32"/>
			</output>
		</layer>
		<layer id="287" name="resnet_v1_50/block2/unit_2/bottleneck_v1/conv2/Conv2D/fq_input_0" type="FakeQuantize" version="opset1">
			<data levels="256"/>
			<input>
				<port id="0">
					<dim>1</dim>
					<dim>128</dim>
					<dim>28</dim>
					<dim>28</dim>
				</port>
				<port id="1"/>
				<port id="2"/>
				<port id="3"/>
				<port id="4"/>
			</input>
			<output>
				<port id="5" precision="FP32">
					<dim>1</dim>
					<dim>128</dim>
					<dim>28</dim>
					<dim>28</dim>
				</port>
			</output>
		</layer>
		<layer id="288" name="resnet_v1_50/block2/unit_2/bottleneck_v1/conv2/Conv2D/fq_weights_1/Convert_to_float/Cast_05421_const" type="Const" version="opset1">
			<data element_type="u8" offset="699568" shape="128,128,3,3" size="147456"/>
			<output>
				<port id="1" precision="U8">
					<dim>128</dim>
					<dim>128</dim>
					<dim>3</dim>
					<dim>3</dim>
				</port>
			</output>
		</layer>
		<layer id="289" name="resnet_v1_50/block2/unit_2/bottleneck_v1/conv2/Conv2D/fq_weights_1/Convert_to_float" type="Convert" version="opset1">
			<data destination_type="f32"/>
			<input>
				<port id="0">
					<dim>128</dim>
					<dim>128</dim>
					<dim>3</dim>
					<dim>3</dim>
				</port>
			</input>
			<output>
				<port id="1" precision="FP32">
					<dim>128</dim>
					<dim>128</dim>
					<dim>3</dim>
					<dim>3</dim>
				</port>
			</output>
		</layer>
		<layer id="290" name="resnet_v1_50/block2/unit_2/bottleneck_v1/conv2/Conv2D/fq_weights_1/Copy/out_low4357_const" type="Const" version="opset1">
			<data element_type="f32" offset="847024" shape="1" size="4"/>
			<output>
				<port id="1" precision="FP32">
					<dim>1</dim>
				</port>
			</output>
		</layer>
		<layer id="291" name="resnet_v1_50/block2/unit_2/bottleneck_v1/conv2/Conv2D/fq_weights_1/Copy/out_high4358_const" type="Const" version="opset1">
			<data element_type="f32" offset="9432" shape="1" size="4"/>
			<output>
				<port id="1" precision="FP32">
					<dim>1</dim>
				</port>
			</output>
		</layer>
		<layer id="292" name="14791483_const" type="Const" version="opset1">
			<data element_type="f32" offset="847028" shape="128,1,1,1" size="512"/>
			<output>
				<port id="1" precision="FP32">
					<dim>128</dim>
					<dim>1</dim>
					<dim>1</dim>
					<dim>1</dim>
				</port>
			</output>
		</layer>
		<layer id="293" name="14801484_const" type="Const" version="opset1">
			<data element_type="f32" offset="847540" shape="128,1,1,1" size="512"/>
			<output>
				<port id="1" precision="FP32">
					<dim>128</dim>
					<dim>1</dim>
					<dim>1</dim>
					<dim>1</dim>
				</port>
			</output>
		</layer>
		<layer id="294" name="resnet_v1_50/block2/unit_2/bottleneck_v1/conv2/Conv2D/fq_weights_1" type="FakeQuantize" version="opset1">
			<data levels="255"/>
			<input>
				<port id="0">
					<dim>128</dim>
					<dim>128</dim>
					<dim>3</dim>
					<dim>3</dim>
				</port>
				<port id="1">
					<dim>1</dim>
				</port>
				<port id="2">
					<dim>1</dim>
				</port>
				<port id="3">
					<dim>128</dim>
					<dim>1</dim>
					<dim>1</dim>
					<dim>1</dim>
				</port>
				<port id="4">
					<dim>128</dim>
					<dim>1</dim>
					<dim>1</dim>
					<dim>1</dim>
				</port>
			</input>
			<output>
				<port id="5" precision="FP32">
					<dim>128</dim>
					<dim>128</dim>
					<dim>3</dim>
					<dim>3</dim>
				</port>
			</output>
		</layer>
		<layer id="295" name="resnet_v1_50/block2/unit_2/bottleneck_v1/conv2/Conv2D" type="Convolution" version="opset1">
			<data auto_pad="same_upper" dilations="1,1" output_padding="0,0" pads_begin="1,1" pads_end="1,1" strides="1,1"/>
			<input>
				<port id="0">
					<dim>1</dim>
					<dim>128</dim>
					<dim>28</dim>
					<dim>28</dim>
				</port>
				<port id="1">
					<dim>128</dim>
					<dim>128</dim>
					<dim>3</dim>
					<dim>3</dim>
				</port>
			</input>
			<output>
				<port id="2" precision="FP32">
					<dim>1</dim>
					<dim>128</dim>
					<dim>28</dim>
					<dim>28</dim>
				</port>
			</output>
		</layer>
		<layer id="296" name="data_add_1043810443/copy_const385_const" type="Const" version="opset1">
			<data element_type="f32" offset="848052" shape="1,128,1,1" size="512"/>
			<output>
				<port id="1" precision="FP32">
					<dim>1</dim>
					<dim>128</dim>
					<dim>1</dim>
					<dim>1</dim>
				</port>
			</output>
		</layer>
		<layer id="297" name="resnet_v1_50/block2/unit_2/bottleneck_v1/conv2/BatchNorm/FusedBatchNormV3/variance/Fused_Add_" type="Add" version="opset1">
			<input>
				<port id="0">
					<dim>1</dim>
					<dim>128</dim>
					<dim>28</dim>
					<dim>28</dim>
				</port>
				<port id="1">
					<dim>1</dim>
					<dim>128</dim>
					<dim>1</dim>
					<dim>1</dim>
				</port>
			</input>
			<output>
				<port id="2" precision="FP32">
					<dim>1</dim>
					<dim>128</dim>
					<dim>28</dim>
					<dim>28</dim>
				</port>
			</output>
		</layer>
		<layer id="298" name="resnet_v1_50/block2/unit_2/bottleneck_v1/conv2/Relu" type="ReLU" version="opset1">
			<input>
				<port id="0">
					<dim>1</dim>
					<dim>128</dim>
					<dim>28</dim>
					<dim>28</dim>
				</port>
			</input>
			<output>
				<port id="1" precision="FP32">
					<dim>1</dim>
					<dim>128</dim>
					<dim>28</dim>
					<dim>28</dim>
				</port>
			</output>
		</layer>
		<layer id="299" name="19071911_const" type="Const" version="opset1">
			<data element_type="f32" offset="848564" shape="" size="4"/>
			<output>
				<port id="1" precision="FP32"/>
			</output>
		</layer>
		<layer id="300" name="19081912_const" type="Const" version="opset1">
			<data element_type="f32" offset="848568" shape="" size="4"/>
			<output>
				<port id="1" precision="FP32"/>
			</output>
		</layer>
		<layer id="301" name="19091913_const" type="Const" version="opset1">
			<data element_type="f32" offset="848564" shape="" size="4"/>
			<output>
				<port id="1" precision="FP32"/>
			</output>
		</layer>
		<layer id="302" name="19101914_const" type="Const" version="opset1">
			<data element_type="f32" offset="848568" shape="" size="4"/>
			<output>
				<port id="1" precision="FP32"/>
			</output>
		</layer>
		<layer id="303" name="resnet_v1_50/block2/unit_2/bottleneck_v1/conv3/Conv2D/fq_input_0" type="FakeQuantize" version="opset1">
			<data levels="256"/>
			<input>
				<port id="0">
					<dim>1</dim>
					<dim>128</dim>
					<dim>28</dim>
					<dim>28</dim>
				</port>
				<port id="1"/>
				<port id="2"/>
				<port id="3"/>
				<port id="4"/>
			</input>
			<output>
				<port id="5" precision="FP32">
					<dim>1</dim>
					<dim>128</dim>
					<dim>28</dim>
					<dim>28</dim>
				</port>
			</output>
		</layer>
		<layer id="304" name="resnet_v1_50/block2/unit_2/bottleneck_v1/conv3/Conv2D/fq_weights_1/Convert_to_float/Cast_05493_const" type="Const" version="opset1">
			<data element_type="u8" offset="848572" shape="512,128,1,1" size="65536"/>
			<output>
				<port id="1" precision="U8">
					<dim>512</dim>
					<dim>128</dim>
					<dim>1</dim>
					<dim>1</dim>
				</port>
			</output>
		</layer>
		<layer id="305" name="resnet_v1_50/block2/unit_2/bottleneck_v1/conv3/Conv2D/fq_weights_1/Convert_to_float" type="Convert" version="opset1">
			<data destination_type="f32"/>
			<input>
				<port id="0">
					<dim>512</dim>
					<dim>128</dim>
					<dim>1</dim>
					<dim>1</dim>
				</port>
			</input>
			<output>
				<port id="1" precision="FP32">
					<dim>512</dim>
					<dim>128</dim>
					<dim>1</dim>
					<dim>1</dim>
				</port>
			</output>
		</layer>
		<layer id="306" name="resnet_v1_50/block2/unit_2/bottleneck_v1/conv3/Conv2D/fq_weights_1/Copy/out_low4413_const" type="Const" version="opset1">
			<data element_type="f32" offset="914108" shape="1" size="4"/>
			<output>
				<port id="1" precision="FP32">
					<dim>1</dim>
				</port>
			</output>
		</layer>
		<layer id="307" name="resnet_v1_50/block2/unit_2/bottleneck_v1/conv3/Conv2D/fq_weights_1/Copy/out_high4414_const" type="Const" version="opset1">
			<data element_type="f32" offset="9432" shape="1" size="4"/>
			<output>
				<port id="1" precision="FP32">
					<dim>1</dim>
				</port>
			</output>
		</layer>
		<layer id="308" name="19191923_const" type="Const" version="opset1">
			<data element_type="f32" offset="914112" shape="512,1,1,1" size="2048"/>
			<output>
				<port id="1" precision="FP32">
					<dim>512</dim>
					<dim>1</dim>
					<dim>1</dim>
					<dim>1</dim>
				</port>
			</output>
		</layer>
		<layer id="309" name="19201924_const" type="Const" version="opset1">
			<data element_type="f32" offset="916160" shape="512,1,1,1" size="2048"/>
			<output>
				<port id="1" precision="FP32">
					<dim>512</dim>
					<dim>1</dim>
					<dim>1</dim>
					<dim>1</dim>
				</port>
			</output>
		</layer>
		<layer id="310" name="resnet_v1_50/block2/unit_2/bottleneck_v1/conv3/Conv2D/fq_weights_1" type="FakeQuantize" version="opset1">
			<data levels="255"/>
			<input>
				<port id="0">
					<dim>512</dim>
					<dim>128</dim>
					<dim>1</dim>
					<dim>1</dim>
				</port>
				<port id="1">
					<dim>1</dim>
				</port>
				<port id="2">
					<dim>1</dim>
				</port>
				<port id="3">
					<dim>512</dim>
					<dim>1</dim>
					<dim>1</dim>
					<dim>1</dim>
				</port>
				<port id="4">
					<dim>512</dim>
					<dim>1</dim>
					<dim>1</dim>
					<dim>1</dim>
				</port>
			</input>
			<output>
				<port id="5" precision="FP32">
					<dim>512</dim>
					<dim>128</dim>
					<dim>1</dim>
					<dim>1</dim>
				</port>
			</output>
		</layer>
		<layer id="311" name="resnet_v1_50/block2/unit_2/bottleneck_v1/conv3/Conv2D" type="Convolution" version="opset1">
			<data auto_pad="same_upper" dilations="1,1" output_padding="0,0" pads_begin="0,0" pads_end="0,0" strides="1,1"/>
			<input>
				<port id="0">
					<dim>1</dim>
					<dim>128</dim>
					<dim>28</dim>
					<dim>28</dim>
				</port>
				<port id="1">
					<dim>512</dim>
					<dim>128</dim>
					<dim>1</dim>
					<dim>1</dim>
				</port>
			</input>
			<output>
				<port id="2" precision="FP32">
					<dim>1</dim>
					<dim>512</dim>
					<dim>28</dim>
					<dim>28</dim>
				</port>
			</output>
		</layer>
		<layer id="312" name="data_add_1044610451/copy_const390_const" type="Const" version="opset1">
			<data element_type="f32" offset="918208" shape="1,512,1,1" size="2048"/>
			<output>
				<port id="1" precision="FP32">
					<dim>1</dim>
					<dim>512</dim>
					<dim>1</dim>
					<dim>1</dim>
				</port>
			</output>
		</layer>
		<layer id="313" name="resnet_v1_50/block2/unit_2/bottleneck_v1/conv3/BatchNorm/FusedBatchNormV3/variance/Fused_Add_" type="Add" version="opset1">
			<input>
				<port id="0">
					<dim>1</dim>
					<dim>512</dim>
					<dim>28</dim>
					<dim>28</dim>
				</port>
				<port id="1">
					<dim>1</dim>
					<dim>512</dim>
					<dim>1</dim>
					<dim>1</dim>
				</port>
			</input>
			<output>
				<port id="2" precision="FP32">
					<dim>1</dim>
					<dim>512</dim>
					<dim>28</dim>
					<dim>28</dim>
				</port>
			</output>
		</layer>
		<layer id="314" name="13771381_const" type="Const" version="opset1">
			<data element_type="f32" offset="920256" shape="" size="4"/>
			<output>
				<port id="1" precision="FP32"/>
			</output>
		</layer>
		<layer id="315" name="13781382_const" type="Const" version="opset1">
			<data element_type="f32" offset="920260" shape="" size="4"/>
			<output>
				<port id="1" precision="FP32"/>
			</output>
		</layer>
		<layer id="316" name="13791383_const" type="Const" version="opset1">
			<data element_type="f32" offset="920256" shape="" size="4"/>
			<output>
				<port id="1" precision="FP32"/>
			</output>
		</layer>
		<layer id="317" name="13801384_const" type="Const" version="opset1">
			<data element_type="f32" offset="920260" shape="" size="4"/>
			<output>
				<port id="1" precision="FP32"/>
			</output>
		</layer>
		<layer id="318" name="resnet_v1_50/block2/unit_2/bottleneck_v1/add/fq_input_1" type="FakeQuantize" version="opset1">
			<data levels="256"/>
			<input>
				<port id="0">
					<dim>1</dim>
					<dim>512</dim>
					<dim>28</dim>
					<dim>28</dim>
				</port>
				<port id="1"/>
				<port id="2"/>
				<port id="3"/>
				<port id="4"/>
			</input>
			<output>
				<port id="5" precision="FP32">
					<dim>1</dim>
					<dim>512</dim>
					<dim>28</dim>
					<dim>28</dim>
				</port>
			</output>
		</layer>
		<layer id="319" name="resnet_v1_50/block2/unit_2/bottleneck_v1/add" type="Add" version="opset1">
			<input>
				<port id="0">
					<dim>1</dim>
					<dim>512</dim>
					<dim>28</dim>
					<dim>28</dim>
				</port>
				<port id="1">
					<dim>1</dim>
					<dim>512</dim>
					<dim>28</dim>
					<dim>28</dim>
				</port>
			</input>
			<output>
				<port id="2" precision="FP32">
					<dim>1</dim>
					<dim>512</dim>
					<dim>28</dim>
					<dim>28</dim>
				</port>
			</output>
		</layer>
		<layer id="320" name="resnet_v1_50/block2/unit_2/bottleneck_v1/Relu" type="ReLU" version="opset1">
			<input>
				<port id="0">
					<dim>1</dim>
					<dim>512</dim>
					<dim>28</dim>
					<dim>28</dim>
				</port>
			</input>
			<output>
				<port id="1" precision="FP32">
					<dim>1</dim>
					<dim>512</dim>
					<dim>28</dim>
					<dim>28</dim>
				</port>
			</output>
		</layer>
		<layer id="321" name="21772181_const" type="Const" version="opset1">
			<data element_type="f32" offset="920264" shape="" size="4"/>
			<output>
				<port id="1" precision="FP32"/>
			</output>
		</layer>
		<layer id="322" name="21782182_const" type="Const" version="opset1">
			<data element_type="f32" offset="920268" shape="" size="4"/>
			<output>
				<port id="1" precision="FP32"/>
			</output>
		</layer>
		<layer id="323" name="21792183_const" type="Const" version="opset1">
			<data element_type="f32" offset="920264" shape="" size="4"/>
			<output>
				<port id="1" precision="FP32"/>
			</output>
		</layer>
		<layer id="324" name="21802184_const" type="Const" version="opset1">
			<data element_type="f32" offset="920268" shape="" size="4"/>
			<output>
				<port id="1" precision="FP32"/>
			</output>
		</layer>
		<layer id="325" name="resnet_v1_50/block2/unit_3/bottleneck_v1/add/fq_input_0" type="FakeQuantize" version="opset1">
			<data levels="256"/>
			<input>
				<port id="0">
					<dim>1</dim>
					<dim>512</dim>
					<dim>28</dim>
					<dim>28</dim>
				</port>
				<port id="1"/>
				<port id="2"/>
				<port id="3"/>
				<port id="4"/>
			</input>
			<output>
				<port id="5" precision="FP32">
					<dim>1</dim>
					<dim>512</dim>
					<dim>28</dim>
					<dim>28</dim>
				</port>
			</output>
		</layer>
		<layer id="326" name="resnet_v1_50/block2/unit_3/bottleneck_v1/conv1/Conv2D/fq_weights_1/Convert_to_float/Cast_05439_const" type="Const" version="opset1">
			<data element_type="u8" offset="920272" shape="128,512,1,1" size="65536"/>
			<output>
				<port id="1" precision="U8">
					<dim>128</dim>
					<dim>512</dim>
					<dim>1</dim>
					<dim>1</dim>
				</port>
			</output>
		</layer>
		<layer id="327" name="resnet_v1_50/block2/unit_3/bottleneck_v1/conv1/Conv2D/fq_weights_1/Convert_to_float" type="Convert" version="opset1">
			<data destination_type="f32"/>
			<input>
				<port id="0">
					<dim>128</dim>
					<dim>512</dim>
					<dim>1</dim>
					<dim>1</dim>
				</port>
			</input>
			<output>
				<port id="1" precision="FP32">
					<dim>128</dim>
					<dim>512</dim>
					<dim>1</dim>
					<dim>1</dim>
				</port>
			</output>
		</layer>
		<layer id="328" name="resnet_v1_50/block2/unit_3/bottleneck_v1/conv1/Conv2D/fq_weights_1/Copy/out_low4389_const" type="Const" version="opset1">
			<data element_type="f32" offset="985808" shape="1" size="4"/>
			<output>
				<port id="1" precision="FP32">
					<dim>1</dim>
				</port>
			</output>
		</layer>
		<layer id="329" name="resnet_v1_50/block2/unit_3/bottleneck_v1/conv1/Conv2D/fq_weights_1/Copy/out_high4390_const" type="Const" version="opset1">
			<data element_type="f32" offset="9432" shape="1" size="4"/>
			<output>
				<port id="1" precision="FP32">
					<dim>1</dim>
				</port>
			</output>
		</layer>
		<layer id="330" name="11791183_const" type="Const" version="opset1">
			<data element_type="f32" offset="985812" shape="128,1,1,1" size="512"/>
			<output>
				<port id="1" precision="FP32">
					<dim>128</dim>
					<dim>1</dim>
					<dim>1</dim>
					<dim>1</dim>
				</port>
			</output>
		</layer>
		<layer id="331" name="11801184_const" type="Const" version="opset1">
			<data element_type="f32" offset="986324" shape="128,1,1,1" size="512"/>
			<output>
				<port id="1" precision="FP32">
					<dim>128</dim>
					<dim>1</dim>
					<dim>1</dim>
					<dim>1</dim>
				</port>
			</output>
		</layer>
		<layer id="332" name="resnet_v1_50/block2/unit_3/bottleneck_v1/conv1/Conv2D/fq_weights_1" type="FakeQuantize" version="opset1">
			<data levels="255"/>
			<input>
				<port id="0">
					<dim>128</dim>
					<dim>512</dim>
					<dim>1</dim>
					<dim>1</dim>
				</port>
				<port id="1">
					<dim>1</dim>
				</port>
				<port id="2">
					<dim>1</dim>
				</port>
				<port id="3">
					<dim>128</dim>
					<dim>1</dim>
					<dim>1</dim>
					<dim>1</dim>
				</port>
				<port id="4">
					<dim>128</dim>
					<dim>1</dim>
					<dim>1</dim>
					<dim>1</dim>
				</port>
			</input>
			<output>
				<port id="5" precision="FP32">
					<dim>128</dim>
					<dim>512</dim>
					<dim>1</dim>
					<dim>1</dim>
				</port>
			</output>
		</layer>
		<layer id="333" name="resnet_v1_50/block2/unit_3/bottleneck_v1/conv1/Conv2D" type="Convolution" version="opset1">
			<data auto_pad="same_upper" dilations="1,1" output_padding="0,0" pads_begin="0,0" pads_end="0,0" strides="1,1"/>
			<input>
				<port id="0">
					<dim>1</dim>
					<dim>512</dim>
					<dim>28</dim>
					<dim>28</dim>
				</port>
				<port id="1">
					<dim>128</dim>
					<dim>512</dim>
					<dim>1</dim>
					<dim>1</dim>
				</port>
			</input>
			<output>
				<port id="2" precision="FP32">
					<dim>1</dim>
					<dim>128</dim>
					<dim>28</dim>
					<dim>28</dim>
				</port>
			</output>
		</layer>
		<layer id="334" name="data_add_1045410459/copy_const396_const" type="Const" version="opset1">
			<data element_type="f32" offset="986836" shape="1,128,1,1" size="512"/>
			<output>
				<port id="1" precision="FP32">
					<dim>1</dim>
					<dim>128</dim>
					<dim>1</dim>
					<dim>1</dim>
				</port>
			</output>
		</layer>
		<layer id="335" name="resnet_v1_50/block2/unit_3/bottleneck_v1/conv1/BatchNorm/FusedBatchNormV3/variance/Fused_Add_" type="Add" version="opset1">
			<input>
				<port id="0">
					<dim>1</dim>
					<dim>128</dim>
					<dim>28</dim>
					<dim>28</dim>
				</port>
				<port id="1">
					<dim>1</dim>
					<dim>128</dim>
					<dim>1</dim>
					<dim>1</dim>
				</port>
			</input>
			<output>
				<port id="2" precision="FP32">
					<dim>1</dim>
					<dim>128</dim>
					<dim>28</dim>
					<dim>28</dim>
				</port>
			</output>
		</layer>
		<layer id="336" name="resnet_v1_50/block2/unit_3/bottleneck_v1/conv1/Relu" type="ReLU" version="opset1">
			<input>
				<port id="0">
					<dim>1</dim>
					<dim>128</dim>
					<dim>28</dim>
					<dim>28</dim>
				</port>
			</input>
			<output>
				<port id="1" precision="FP32">
					<dim>1</dim>
					<dim>128</dim>
					<dim>28</dim>
					<dim>28</dim>
				</port>
			</output>
		</layer>
		<layer id="337" name="19871991_const" type="Const" version="opset1">
			<data element_type="f32" offset="987348" shape="" size="4"/>
			<output>
				<port id="1" precision="FP32"/>
			</output>
		</layer>
		<layer id="338" name="19881992_const" type="Const" version="opset1">
			<data element_type="f32" offset="987352" shape="" size="4"/>
			<output>
				<port id="1" precision="FP32"/>
			</output>
		</layer>
		<layer id="339" name="19891993_const" type="Const" version="opset1">
			<data element_type="f32" offset="987348" shape="" size="4"/>
			<output>
				<port id="1" precision="FP32"/>
			</output>
		</layer>
		<layer id="340" name="19901994_const" type="Const" version="opset1">
			<data element_type="f32" offset="987352" shape="" size="4"/>
			<output>
				<port id="1" precision="FP32"/>
			</output>
		</layer>
		<layer id="341" name="resnet_v1_50/block2/unit_3/bottleneck_v1/conv2/Conv2D/fq_input_0" type="FakeQuantize" version="opset1">
			<data levels="256"/>
			<input>
				<port id="0">
					<dim>1</dim>
					<dim>128</dim>
					<dim>28</dim>
					<dim>28</dim>
				</port>
				<port id="1"/>
				<port id="2"/>
				<port id="3"/>
				<port id="4"/>
			</input>
			<output>
				<port id="5" precision="FP32">
					<dim>1</dim>
					<dim>128</dim>
					<dim>28</dim>
					<dim>28</dim>
				</port>
			</output>
		</layer>
		<layer id="342" name="resnet_v1_50/block2/unit_3/bottleneck_v1/conv2/Conv2D/fq_weights_1/Convert_to_float/Cast_05393_const" type="Const" version="opset1">
			<data element_type="u8" offset="987356" shape="128,128,3,3" size="147456"/>
			<output>
				<port id="1" precision="U8">
					<dim>128</dim>
					<dim>128</dim>
					<dim>3</dim>
					<dim>3</dim>
				</port>
			</output>
		</layer>
		<layer id="343" name="resnet_v1_50/block2/unit_3/bottleneck_v1/conv2/Conv2D/fq_weights_1/Convert_to_float" type="Convert" version="opset1">
			<data destination_type="f32"/>
			<input>
				<port id="0">
					<dim>128</dim>
					<dim>128</dim>
					<dim>3</dim>
					<dim>3</dim>
				</port>
			</input>
			<output>
				<port id="1" precision="FP32">
					<dim>128</dim>
					<dim>128</dim>
					<dim>3</dim>
					<dim>3</dim>
				</port>
			</output>
		</layer>
		<layer id="344" name="resnet_v1_50/block2/unit_3/bottleneck_v1/conv2/Conv2D/fq_weights_1/Copy/out_low4581_const" type="Const" version="opset1">
			<data element_type="f32" offset="1134812" shape="1" size="4"/>
			<output>
				<port id="1" precision="FP32">
					<dim>1</dim>
				</port>
			</output>
		</layer>
		<layer id="345" name="resnet_v1_50/block2/unit_3/bottleneck_v1/conv2/Conv2D/fq_weights_1/Copy/out_high4582_const" type="Const" version="opset1">
			<data element_type="f32" offset="9432" shape="1" size="4"/>
			<output>
				<port id="1" precision="FP32">
					<dim>1</dim>
				</port>
			</output>
		</layer>
		<layer id="346" name="19992003_const" type="Const" version="opset1">
			<data element_type="f32" offset="1134816" shape="128,1,1,1" size="512"/>
			<output>
				<port id="1" precision="FP32">
					<dim>128</dim>
					<dim>1</dim>
					<dim>1</dim>
					<dim>1</dim>
				</port>
			</output>
		</layer>
		<layer id="347" name="20002004_const" type="Const" version="opset1">
			<data element_type="f32" offset="1135328" shape="128,1,1,1" size="512"/>
			<output>
				<port id="1" precision="FP32">
					<dim>128</dim>
					<dim>1</dim>
					<dim>1</dim>
					<dim>1</dim>
				</port>
			</output>
		</layer>
		<layer id="348" name="resnet_v1_50/block2/unit_3/bottleneck_v1/conv2/Conv2D/fq_weights_1" type="FakeQuantize" version="opset1">
			<data levels="255"/>
			<input>
				<port id="0">
					<dim>128</dim>
					<dim>128</dim>
					<dim>3</dim>
					<dim>3</dim>
				</port>
				<port id="1">
					<dim>1</dim>
				</port>
				<port id="2">
					<dim>1</dim>
				</port>
				<port id="3">
					<dim>128</dim>
					<dim>1</dim>
					<dim>1</dim>
					<dim>1</dim>
				</port>
				<port id="4">
					<dim>128</dim>
					<dim>1</dim>
					<dim>1</dim>
					<dim>1</dim>
				</port>
			</input>
			<output>
				<port id="5" precision="FP32">
					<dim>128</dim>
					<dim>128</dim>
					<dim>3</dim>
					<dim>3</dim>
				</port>
			</output>
		</layer>
		<layer id="349" name="resnet_v1_50/block2/unit_3/bottleneck_v1/conv2/Conv2D" type="Convolution" version="opset1">
			<data auto_pad="same_upper" dilations="1,1" output_padding="0,0" pads_begin="1,1" pads_end="1,1" strides="1,1"/>
			<input>
				<port id="0">
					<dim>1</dim>
					<dim>128</dim>
					<dim>28</dim>
					<dim>28</dim>
				</port>
				<port id="1">
					<dim>128</dim>
					<dim>128</dim>
					<dim>3</dim>
					<dim>3</dim>
				</port>
			</input>
			<output>
				<port id="2" precision="FP32">
					<dim>1</dim>
					<dim>128</dim>
					<dim>28</dim>
					<dim>28</dim>
				</port>
			</output>
		</layer>
		<layer id="350" name="data_add_1046210467/copy_const401_const" type="Const" version="opset1">
			<data element_type="f32" offset="1135840" shape="1,128,1,1" size="512"/>
			<output>
				<port id="1" precision="FP32">
					<dim>1</dim>
					<dim>128</dim>
					<dim>1</dim>
					<dim>1</dim>
				</port>
			</output>
		</layer>
		<layer id="351" name="resnet_v1_50/block2/unit_3/bottleneck_v1/conv2/BatchNorm/FusedBatchNormV3/variance/Fused_Add_" type="Add" version="opset1">
			<input>
				<port id="0">
					<dim>1</dim>
					<dim>128</dim>
					<dim>28</dim>
					<dim>28</dim>
				</port>
				<port id="1">
					<dim>1</dim>
					<dim>128</dim>
					<dim>1</dim>
					<dim>1</dim>
				</port>
			</input>
			<output>
				<port id="2" precision="FP32">
					<dim>1</dim>
					<dim>128</dim>
					<dim>28</dim>
					<dim>28</dim>
				</port>
			</output>
		</layer>
		<layer id="352" name="resnet_v1_50/block2/unit_3/bottleneck_v1/conv2/Relu" type="ReLU" version="opset1">
			<input>
				<port id="0">
					<dim>1</dim>
					<dim>128</dim>
					<dim>28</dim>
					<dim>28</dim>
				</port>
			</input>
			<output>
				<port id="1" precision="FP32">
					<dim>1</dim>
					<dim>128</dim>
					<dim>28</dim>
					<dim>28</dim>
				</port>
			</output>
		</layer>
		<layer id="353" name="13071311_const" type="Const" version="opset1">
			<data element_type="f32" offset="1136352" shape="" size="4"/>
			<output>
				<port id="1" precision="FP32"/>
			</output>
		</layer>
		<layer id="354" name="13081312_const" type="Const" version="opset1">
			<data element_type="f32" offset="1136356" shape="" size="4"/>
			<output>
				<port id="1" precision="FP32"/>
			</output>
		</layer>
		<layer id="355" name="13091313_const" type="Const" version="opset1">
			<data element_type="f32" offset="1136352" shape="" size="4"/>
			<output>
				<port id="1" precision="FP32"/>
			</output>
		</layer>
		<layer id="356" name="13101314_const" type="Const" version="opset1">
			<data element_type="f32" offset="1136356" shape="" size="4"/>
			<output>
				<port id="1" precision="FP32"/>
			</output>
		</layer>
		<layer id="357" name="resnet_v1_50/block2/unit_3/bottleneck_v1/conv3/Conv2D/fq_input_0" type="FakeQuantize" version="opset1">
			<data levels="256"/>
			<input>
				<port id="0">
					<dim>1</dim>
					<dim>128</dim>
					<dim>28</dim>
					<dim>28</dim>
				</port>
				<port id="1"/>
				<port id="2"/>
				<port id="3"/>
				<port id="4"/>
			</input>
			<output>
				<port id="5" precision="FP32">
					<dim>1</dim>
					<dim>128</dim>
					<dim>28</dim>
					<dim>28</dim>
				</port>
			</output>
		</layer>
		<layer id="358" name="resnet_v1_50/block2/unit_3/bottleneck_v1/conv3/Conv2D/fq_weights_1/Convert_to_float/Cast_05425_const" type="Const" version="opset1">
			<data element_type="u8" offset="1136360" shape="512,128,1,1" size="65536"/>
			<output>
				<port id="1" precision="U8">
					<dim>512</dim>
					<dim>128</dim>
					<dim>1</dim>
					<dim>1</dim>
				</port>
			</output>
		</layer>
		<layer id="359" name="resnet_v1_50/block2/unit_3/bottleneck_v1/conv3/Conv2D/fq_weights_1/Convert_to_float" type="Convert" version="opset1">
			<data destination_type="f32"/>
			<input>
				<port id="0">
					<dim>512</dim>
					<dim>128</dim>
					<dim>1</dim>
					<dim>1</dim>
				</port>
			</input>
			<output>
				<port id="1" precision="FP32">
					<dim>512</dim>
					<dim>128</dim>
					<dim>1</dim>
					<dim>1</dim>
				</port>
			</output>
		</layer>
		<layer id="360" name="resnet_v1_50/block2/unit_3/bottleneck_v1/conv3/Conv2D/fq_weights_1/Copy/out_low4765_const" type="Const" version="opset1">
			<data element_type="f32" offset="1201896" shape="1" size="4"/>
			<output>
				<port id="1" precision="FP32">
					<dim>1</dim>
				</port>
			</output>
		</layer>
		<layer id="361" name="resnet_v1_50/block2/unit_3/bottleneck_v1/conv3/Conv2D/fq_weights_1/Copy/out_high4766_const" type="Const" version="opset1">
			<data element_type="f32" offset="9432" shape="1" size="4"/>
			<output>
				<port id="1" precision="FP32">
					<dim>1</dim>
				</port>
			</output>
		</layer>
		<layer id="362" name="13191323_const" type="Const" version="opset1">
			<data element_type="f32" offset="1201900" shape="512,1,1,1" size="2048"/>
			<output>
				<port id="1" precision="FP32">
					<dim>512</dim>
					<dim>1</dim>
					<dim>1</dim>
					<dim>1</dim>
				</port>
			</output>
		</layer>
		<layer id="363" name="13201324_const" type="Const" version="opset1">
			<data element_type="f32" offset="1203948" shape="512,1,1,1" size="2048"/>
			<output>
				<port id="1" precision="FP32">
					<dim>512</dim>
					<dim>1</dim>
					<dim>1</dim>
					<dim>1</dim>
				</port>
			</output>
		</layer>
		<layer id="364" name="resnet_v1_50/block2/unit_3/bottleneck_v1/conv3/Conv2D/fq_weights_1" type="FakeQuantize" version="opset1">
			<data levels="255"/>
			<input>
				<port id="0">
					<dim>512</dim>
					<dim>128</dim>
					<dim>1</dim>
					<dim>1</dim>
				</port>
				<port id="1">
					<dim>1</dim>
				</port>
				<port id="2">
					<dim>1</dim>
				</port>
				<port id="3">
					<dim>512</dim>
					<dim>1</dim>
					<dim>1</dim>
					<dim>1</dim>
				</port>
				<port id="4">
					<dim>512</dim>
					<dim>1</dim>
					<dim>1</dim>
					<dim>1</dim>
				</port>
			</input>
			<output>
				<port id="5" precision="FP32">
					<dim>512</dim>
					<dim>128</dim>
					<dim>1</dim>
					<dim>1</dim>
				</port>
			</output>
		</layer>
		<layer id="365" name="resnet_v1_50/block2/unit_3/bottleneck_v1/conv3/Conv2D" type="Convolution" version="opset1">
			<data auto_pad="same_upper" dilations="1,1" output_padding="0,0" pads_begin="0,0" pads_end="0,0" strides="1,1"/>
			<input>
				<port id="0">
					<dim>1</dim>
					<dim>128</dim>
					<dim>28</dim>
					<dim>28</dim>
				</port>
				<port id="1">
					<dim>512</dim>
					<dim>128</dim>
					<dim>1</dim>
					<dim>1</dim>
				</port>
			</input>
			<output>
				<port id="2" precision="FP32">
					<dim>1</dim>
					<dim>512</dim>
					<dim>28</dim>
					<dim>28</dim>
				</port>
			</output>
		</layer>
		<layer id="366" name="data_add_1047010475/copy_const406_const" type="Const" version="opset1">
			<data element_type="f32" offset="1205996" shape="1,512,1,1" size="2048"/>
			<output>
				<port id="1" precision="FP32">
					<dim>1</dim>
					<dim>512</dim>
					<dim>1</dim>
					<dim>1</dim>
				</port>
			</output>
		</layer>
		<layer id="367" name="resnet_v1_50/block2/unit_3/bottleneck_v1/conv3/BatchNorm/FusedBatchNormV3/variance/Fused_Add_" type="Add" version="opset1">
			<input>
				<port id="0">
					<dim>1</dim>
					<dim>512</dim>
					<dim>28</dim>
					<dim>28</dim>
				</port>
				<port id="1">
					<dim>1</dim>
					<dim>512</dim>
					<dim>1</dim>
					<dim>1</dim>
				</port>
			</input>
			<output>
				<port id="2" precision="FP32">
					<dim>1</dim>
					<dim>512</dim>
					<dim>28</dim>
					<dim>28</dim>
				</port>
			</output>
		</layer>
		<layer id="368" name="21872191_const" type="Const" version="opset1">
			<data element_type="f32" offset="1208044" shape="" size="4"/>
			<output>
				<port id="1" precision="FP32"/>
			</output>
		</layer>
		<layer id="369" name="21882192_const" type="Const" version="opset1">
			<data element_type="f32" offset="1208048" shape="" size="4"/>
			<output>
				<port id="1" precision="FP32"/>
			</output>
		</layer>
		<layer id="370" name="21892193_const" type="Const" version="opset1">
			<data element_type="f32" offset="1208044" shape="" size="4"/>
			<output>
				<port id="1" precision="FP32"/>
			</output>
		</layer>
		<layer id="371" name="21902194_const" type="Const" version="opset1">
			<data element_type="f32" offset="1208048" shape="" size="4"/>
			<output>
				<port id="1" precision="FP32"/>
			</output>
		</layer>
		<layer id="372" name="resnet_v1_50/block2/unit_3/bottleneck_v1/add/fq_input_1" type="FakeQuantize" version="opset1">
			<data levels="256"/>
			<input>
				<port id="0">
					<dim>1</dim>
					<dim>512</dim>
					<dim>28</dim>
					<dim>28</dim>
				</port>
				<port id="1"/>
				<port id="2"/>
				<port id="3"/>
				<port id="4"/>
			</input>
			<output>
				<port id="5" precision="FP32">
					<dim>1</dim>
					<dim>512</dim>
					<dim>28</dim>
					<dim>28</dim>
				</port>
			</output>
		</layer>
		<layer id="373" name="resnet_v1_50/block2/unit_3/bottleneck_v1/add" type="Add" version="opset1">
			<input>
				<port id="0">
					<dim>1</dim>
					<dim>512</dim>
					<dim>28</dim>
					<dim>28</dim>
				</port>
				<port id="1">
					<dim>1</dim>
					<dim>512</dim>
					<dim>28</dim>
					<dim>28</dim>
				</port>
			</input>
			<output>
				<port id="2" precision="FP32">
					<dim>1</dim>
					<dim>512</dim>
					<dim>28</dim>
					<dim>28</dim>
				</port>
			</output>
		</layer>
		<layer id="374" name="resnet_v1_50/block2/unit_3/bottleneck_v1/Relu" type="ReLU" version="opset1">
			<input>
				<port id="0">
					<dim>1</dim>
					<dim>512</dim>
					<dim>28</dim>
					<dim>28</dim>
				</port>
			</input>
			<output>
				<port id="1" precision="FP32">
					<dim>1</dim>
					<dim>512</dim>
					<dim>28</dim>
					<dim>28</dim>
				</port>
			</output>
		</layer>
		<layer id="375" name="16671671_const" type="Const" version="opset1">
			<data element_type="f32" offset="1208052" shape="" size="4"/>
			<output>
				<port id="1" precision="FP32"/>
			</output>
		</layer>
		<layer id="376" name="16681672_const" type="Const" version="opset1">
			<data element_type="f32" offset="1208056" shape="" size="4"/>
			<output>
				<port id="1" precision="FP32"/>
			</output>
		</layer>
		<layer id="377" name="16691673_const" type="Const" version="opset1">
			<data element_type="f32" offset="1208052" shape="" size="4"/>
			<output>
				<port id="1" precision="FP32"/>
			</output>
		</layer>
		<layer id="378" name="16701674_const" type="Const" version="opset1">
			<data element_type="f32" offset="1208056" shape="" size="4"/>
			<output>
				<port id="1" precision="FP32"/>
			</output>
		</layer>
		<layer id="379" name="resnet_v1_50/block2/unit_4/bottleneck_v1/conv1/Conv2D/fq_input_0" type="FakeQuantize" version="opset1">
			<data levels="256"/>
			<input>
				<port id="0">
					<dim>1</dim>
					<dim>512</dim>
					<dim>28</dim>
					<dim>28</dim>
				</port>
				<port id="1"/>
				<port id="2"/>
				<port id="3"/>
				<port id="4"/>
			</input>
			<output>
				<port id="5" precision="FP32">
					<dim>1</dim>
					<dim>512</dim>
					<dim>28</dim>
					<dim>28</dim>
				</port>
			</output>
		</layer>
		<layer id="380" name="resnet_v1_50/block2/unit_4/bottleneck_v1/shortcut/MaxPool" type="MaxPool" version="opset1">
			<data auto_pad="same_upper" kernel="1,1" pads_begin="0,0" pads_end="0,0" strides="2,2"/>
			<input>
				<port id="0">
					<dim>1</dim>
					<dim>512</dim>
					<dim>28</dim>
					<dim>28</dim>
				</port>
			</input>
			<output>
				<port id="1" precision="FP32">
					<dim>1</dim>
					<dim>512</dim>
					<dim>14</dim>
					<dim>14</dim>
				</port>
			</output>
		</layer>
		<layer id="381" name="resnet_v1_50/block2/unit_4/bottleneck_v1/conv1/Conv2D/fq_weights_1/Convert_to_float/Cast_05399_const" type="Const" version="opset1">
			<data element_type="u8" offset="1208060" shape="128,512,1,1" size="65536"/>
			<output>
				<port id="1" precision="U8">
					<dim>128</dim>
					<dim>512</dim>
					<dim>1</dim>
					<dim>1</dim>
				</port>
			</output>
		</layer>
		<layer id="382" name="resnet_v1_50/block2/unit_4/bottleneck_v1/conv1/Conv2D/fq_weights_1/Convert_to_float" type="Convert" version="opset1">
			<data destination_type="f32"/>
			<input>
				<port id="0">
					<dim>128</dim>
					<dim>512</dim>
					<dim>1</dim>
					<dim>1</dim>
				</port>
			</input>
			<output>
				<port id="1" precision="FP32">
					<dim>128</dim>
					<dim>512</dim>
					<dim>1</dim>
					<dim>1</dim>
				</port>
			</output>
		</layer>
		<layer id="383" name="resnet_v1_50/block2/unit_4/bottleneck_v1/conv1/Conv2D/fq_weights_1/Copy/out_low4661_const" type="Const" version="opset1">
			<data element_type="f32" offset="1273596" shape="1" size="4"/>
			<output>
				<port id="1" precision="FP32">
					<dim>1</dim>
				</port>
			</output>
		</layer>
		<layer id="384" name="resnet_v1_50/block2/unit_4/bottleneck_v1/conv1/Conv2D/fq_weights_1/Copy/out_high4662_const" type="Const" version="opset1">
			<data element_type="f32" offset="9432" shape="1" size="4"/>
			<output>
				<port id="1" precision="FP32">
					<dim>1</dim>
				</port>
			</output>
		</layer>
		<layer id="385" name="16791683_const" type="Const" version="opset1">
			<data element_type="f32" offset="1273600" shape="128,1,1,1" size="512"/>
			<output>
				<port id="1" precision="FP32">
					<dim>128</dim>
					<dim>1</dim>
					<dim>1</dim>
					<dim>1</dim>
				</port>
			</output>
		</layer>
		<layer id="386" name="16801684_const" type="Const" version="opset1">
			<data element_type="f32" offset="1274112" shape="128,1,1,1" size="512"/>
			<output>
				<port id="1" precision="FP32">
					<dim>128</dim>
					<dim>1</dim>
					<dim>1</dim>
					<dim>1</dim>
				</port>
			</output>
		</layer>
		<layer id="387" name="resnet_v1_50/block2/unit_4/bottleneck_v1/conv1/Conv2D/fq_weights_1" type="FakeQuantize" version="opset1">
			<data levels="255"/>
			<input>
				<port id="0">
					<dim>128</dim>
					<dim>512</dim>
					<dim>1</dim>
					<dim>1</dim>
				</port>
				<port id="1">
					<dim>1</dim>
				</port>
				<port id="2">
					<dim>1</dim>
				</port>
				<port id="3">
					<dim>128</dim>
					<dim>1</dim>
					<dim>1</dim>
					<dim>1</dim>
				</port>
				<port id="4">
					<dim>128</dim>
					<dim>1</dim>
					<dim>1</dim>
					<dim>1</dim>
				</port>
			</input>
			<output>
				<port id="5" precision="FP32">
					<dim>128</dim>
					<dim>512</dim>
					<dim>1</dim>
					<dim>1</dim>
				</port>
			</output>
		</layer>
		<layer id="388" name="resnet_v1_50/block2/unit_4/bottleneck_v1/conv1/Conv2D" type="Convolution" version="opset1">
			<data auto_pad="same_upper" dilations="1,1" output_padding="0,0" pads_begin="0,0" pads_end="0,0" strides="1,1"/>
			<input>
				<port id="0">
					<dim>1</dim>
					<dim>512</dim>
					<dim>28</dim>
					<dim>28</dim>
				</port>
				<port id="1">
					<dim>128</dim>
					<dim>512</dim>
					<dim>1</dim>
					<dim>1</dim>
				</port>
			</input>
			<output>
				<port id="2" precision="FP32">
					<dim>1</dim>
					<dim>128</dim>
					<dim>28</dim>
					<dim>28</dim>
				</port>
			</output>
		</layer>
		<layer id="389" name="data_add_1047810483/copy_const413_const" type="Const" version="opset1">
			<data element_type="f32" offset="1274624" shape="1,128,1,1" size="512"/>
			<output>
				<port id="1" precision="FP32">
					<dim>1</dim>
					<dim>128</dim>
					<dim>1</dim>
					<dim>1</dim>
				</port>
			</output>
		</layer>
		<layer id="390" name="resnet_v1_50/block2/unit_4/bottleneck_v1/conv1/BatchNorm/FusedBatchNormV3/variance/Fused_Add_" type="Add" version="opset1">
			<input>
				<port id="0">
					<dim>1</dim>
					<dim>128</dim>
					<dim>28</dim>
					<dim>28</dim>
				</port>
				<port id="1">
					<dim>1</dim>
					<dim>128</dim>
					<dim>1</dim>
					<dim>1</dim>
				</port>
			</input>
			<output>
				<port id="2" precision="FP32">
					<dim>1</dim>
					<dim>128</dim>
					<dim>28</dim>
					<dim>28</dim>
				</port>
			</output>
		</layer>
		<layer id="391" name="resnet_v1_50/block2/unit_4/bottleneck_v1/conv1/Relu" type="ReLU" version="opset1">
			<input>
				<port id="0">
					<dim>1</dim>
					<dim>128</dim>
					<dim>28</dim>
					<dim>28</dim>
				</port>
			</input>
			<output>
				<port id="1" precision="FP32">
					<dim>1</dim>
					<dim>128</dim>
					<dim>28</dim>
					<dim>28</dim>
				</port>
			</output>
		</layer>
		<layer id="392" name="11871191_const" type="Const" version="opset1">
			<data element_type="f32" offset="1275136" shape="" size="4"/>
			<output>
				<port id="1" precision="FP32"/>
			</output>
		</layer>
		<layer id="393" name="11881192_const" type="Const" version="opset1">
			<data element_type="f32" offset="1275140" shape="" size="4"/>
			<output>
				<port id="1" precision="FP32"/>
			</output>
		</layer>
		<layer id="394" name="11891193_const" type="Const" version="opset1">
			<data element_type="f32" offset="1275136" shape="" size="4"/>
			<output>
				<port id="1" precision="FP32"/>
			</output>
		</layer>
		<layer id="395" name="11901194_const" type="Const" version="opset1">
			<data element_type="f32" offset="1275140" shape="" size="4"/>
			<output>
				<port id="1" precision="FP32"/>
			</output>
		</layer>
		<layer id="396" name="resnet_v1_50/block2/unit_4/bottleneck_v1/conv2/Conv2D/fq_input_0" type="FakeQuantize" version="opset1">
			<data levels="256"/>
			<input>
				<port id="0">
					<dim>1</dim>
					<dim>128</dim>
					<dim>28</dim>
					<dim>28</dim>
				</port>
				<port id="1"/>
				<port id="2"/>
				<port id="3"/>
				<port id="4"/>
			</input>
			<output>
				<port id="5" precision="FP32">
					<dim>1</dim>
					<dim>128</dim>
					<dim>28</dim>
					<dim>28</dim>
				</port>
			</output>
		</layer>
		<layer id="397" name="resnet_v1_50/block2/unit_4/bottleneck_v1/conv2/Conv2D/fq_weights_1/Convert_to_float/Cast_05481_const" type="Const" version="opset1">
			<data element_type="u8" offset="1275144" shape="128,128,3,3" size="147456"/>
			<output>
				<port id="1" precision="U8">
					<dim>128</dim>
					<dim>128</dim>
					<dim>3</dim>
					<dim>3</dim>
				</port>
			</output>
		</layer>
		<layer id="398" name="resnet_v1_50/block2/unit_4/bottleneck_v1/conv2/Conv2D/fq_weights_1/Convert_to_float" type="Convert" version="opset1">
			<data destination_type="f32"/>
			<input>
				<port id="0">
					<dim>128</dim>
					<dim>128</dim>
					<dim>3</dim>
					<dim>3</dim>
				</port>
			</input>
			<output>
				<port id="1" precision="FP32">
					<dim>128</dim>
					<dim>128</dim>
					<dim>3</dim>
					<dim>3</dim>
				</port>
			</output>
		</layer>
		<layer id="399" name="resnet_v1_50/block2/unit_4/bottleneck_v1/conv2/Conv2D/fq_weights_1/Copy/out_low4485_const" type="Const" version="opset1">
			<data element_type="f32" offset="1422600" shape="1" size="4"/>
			<output>
				<port id="1" precision="FP32">
					<dim>1</dim>
				</port>
			</output>
		</layer>
		<layer id="400" name="resnet_v1_50/block2/unit_4/bottleneck_v1/conv2/Conv2D/fq_weights_1/Copy/out_high4486_const" type="Const" version="opset1">
			<data element_type="f32" offset="9432" shape="1" size="4"/>
			<output>
				<port id="1" precision="FP32">
					<dim>1</dim>
				</port>
			</output>
		</layer>
		<layer id="401" name="11991203_const" type="Const" version="opset1">
			<data element_type="f32" offset="1422604" shape="128,1,1,1" size="512"/>
			<output>
				<port id="1" precision="FP32">
					<dim>128</dim>
					<dim>1</dim>
					<dim>1</dim>
					<dim>1</dim>
				</port>
			</output>
		</layer>
		<layer id="402" name="12001204_const" type="Const" version="opset1">
			<data element_type="f32" offset="1423116" shape="128,1,1,1" size="512"/>
			<output>
				<port id="1" precision="FP32">
					<dim>128</dim>
					<dim>1</dim>
					<dim>1</dim>
					<dim>1</dim>
				</port>
			</output>
		</layer>
		<layer id="403" name="resnet_v1_50/block2/unit_4/bottleneck_v1/conv2/Conv2D/fq_weights_1" type="FakeQuantize" version="opset1">
			<data levels="255"/>
			<input>
				<port id="0">
					<dim>128</dim>
					<dim>128</dim>
					<dim>3</dim>
					<dim>3</dim>
				</port>
				<port id="1">
					<dim>1</dim>
				</port>
				<port id="2">
					<dim>1</dim>
				</port>
				<port id="3">
					<dim>128</dim>
					<dim>1</dim>
					<dim>1</dim>
					<dim>1</dim>
				</port>
				<port id="4">
					<dim>128</dim>
					<dim>1</dim>
					<dim>1</dim>
					<dim>1</dim>
				</port>
			</input>
			<output>
				<port id="5" precision="FP32">
					<dim>128</dim>
					<dim>128</dim>
					<dim>3</dim>
					<dim>3</dim>
				</port>
			</output>
		</layer>
		<layer id="404" name="resnet_v1_50/block2/unit_4/bottleneck_v1/conv2/Conv2D" type="Convolution" version="opset1">
			<data dilations="1,1" output_padding="0,0" pads_begin="1,1" pads_end="1,1" strides="2,2"/>
			<input>
				<port id="0">
					<dim>1</dim>
					<dim>128</dim>
					<dim>28</dim>
					<dim>28</dim>
				</port>
				<port id="1">
					<dim>128</dim>
…
		<edge from-layer="303" from-port="5" to-layer="311" to-port="0"/>
		<edge from-layer="310" from-port="5" to-layer="311" to-port="1"/>
		<edge from-layer="311" from-port="2" to-layer="313" to-port="0"/>
		<edge from-layer="312" from-port="1" to-layer="313" to-port="1"/>
		<edge from-layer="313" from-port="2" to-layer="318" to-port="0"/>
		<edge from-layer="314" from-port="1" to-layer="318" to-port="1"/>
		<edge from-layer="315" from-port="1" to-layer="318" to-port="2"/>
		<edge from-layer="316" from-port="1" to-layer="318" to-port="3"/>
		<edge from-layer="317" from-port="1" to-layer="318" to-port="4"/>
		<edge from-layer="271" from-port="5" to-layer="319" to-port="0"/>
		<edge from-layer="318" from-port="5" to-layer="319" to-port="1"/>
		<edge from-layer="319" from-port="2" to-layer="320" to-port="0"/>
		<edge from-layer="320" from-port="1" to-layer="325" to-port="0"/>
		<edge from-layer="321" from-port="1" to-layer="325" to-port="1"/>
		<edge from-layer="322" from-port="1" to-layer="325" to-port="2"/>
		<edge from-layer="323" from-port="1" to-layer="325" to-port="3"/>
		<edge from-layer="324" from-port="1" to-layer="325" to-port="4"/>
		<edge from-layer="326" from-port="1" to-layer="327" to-port="0"/>
		<edge from-layer="327" from-port="1" to-layer="332" to-port="0"/>
		<edge from-layer="328" from-port="1" to-layer="332" to-port="1"/>
		<edge from-layer="329" from-port="1" to-layer="332" to-port="2"/>
		<edge from-layer="330" from-port="1" to-layer="332" to-port="3"/>
		<edge from-layer="331" from-port="1" to-layer="332" to-port="4"/>
		<edge from-layer="325" from-port="5" to-layer="333" to-port="0"/>
		<edge from-layer="332" from-port="5" to-layer="333" to-port="1"/>
		<edge from-layer="333" from-port="2" to-layer="335" to-port="0"/>
		<edge from-layer="334" from-port="1" to-layer="335" to-port="1"/>
		<edge from-layer="335" from-port="2" to-layer="336" to-port="0"/>
		<edge from-layer="336" from-port="1" to-layer="341" to-port="0"/>
		<edge from-layer="337" from-port="1" to-layer="341" to-port="1"/>
		<edge from-layer="338" from-port="1" to-layer="341" to-port="2"/>
		<edge from-layer="339" from-port="1" to-layer="341" to-port="3"/>
		<edge from-layer="340" from-port="1" to-layer="341" to-port="4"/>
		<edge from-layer="342" from-port="1" to-layer="343" to-port="0"/>
		<edge from-layer="343" from-port="1" to-layer="348" to-port="0"/>
		<edge from-layer="344" from-port="1" to-layer="348" to-port="1"/>
		<edge from-layer="345" from-port="1" to-layer="348" to-port="2"/>
		<edge from-layer="346" from-port="1" to-layer="348" to-port="3"/>
		<edge from-layer="347" from-port="1" to-layer="348" to-port="4"/>
		<edge from-layer="341" from-port="5" to-layer="349" to-port="0"/>
		<edge from-layer="348" from-port="5" to-layer="349" to-port="1"/>
		<edge from-layer="349" from-port="2" to-layer="351" to-port="0"/>
		<edge from-layer="350" from-port="1" to-layer="351" to-port="1"/>
		<edge from-layer="351" from-port="2" to-layer="352" to-port="0"/>
		<edge from-layer="352" from-port="1" to-layer="357" to-port="0"/>
		<edge from-layer="353" from-port="1" to-layer="357" to-port="1"/>
		<edge from-layer="354" from-port="1" to-layer="357" to-port="2"/>
		<edge from-layer="355" from-port="1" to-layer="357" to-port="3"/>
		<edge from-layer="356" from-port="1" to-layer="357" to-port="4"/>
		<edge from-layer="358" from-port="1" to-layer="359" to-port="0"/>
		<edge from-layer="359" from-port="1" to-layer="364" to-port="0"/>
		<edge from-layer="360" from-port="1" to-layer="364" to-port="1"/>
		<edge from-layer="361" from-port="1" to-layer="364" to-port="2"/>
		<edge from-layer="362" from-port="1" to-layer="364" to-port="3"/>
		<edge from-layer="363" from-port="1" to-layer="364" to-port="4"/>
		<edge from-layer="357" from-port="5" to-layer="365" to-port="0"/>
		<edge from-layer="364" from-port="5" to-layer="365" to-port="1"/>
		<edge from-layer="365" from-port="2" to-layer="367" to-port="0"/>
		<edge from-layer="366" from-port="1" to-layer="367" to-port="1"/>
		<edge from-layer="367" from-port="2" to-layer="372" to-port="0"/>
		<edge from-layer="368" from-port="1" to-layer="372" to-port="1"/>
		<edge from-layer="369" from-port="1" to-layer="372" to-port="2"/>
		<edge from-layer="370" from-port="1" to-layer="372" to-port="3"/>
		<edge from-layer="371" from-port="1" to-layer="372" to-port="4"/>
		<edge from-layer="325" from-port="5" to-layer="373" to-port="0"/>
		<edge from-layer="372" from-port="5" to-layer="373" to-port="1"/>
		<edge from-layer="373" from-port="2" to-layer="374" to-port="0"/>
		<edge from-layer="374" from-port="1" to-layer="379" to-port="0"/>
		<edge from-layer="375" from-port="1" to-layer="379" to-port="1"/>
		<edge from-layer="376" from-port="1" to-layer="379" to-port="2"/>
		<edge from-layer="377" from-port="1" to-layer="379" to-port="3"/>
		<edge from-layer="378" from-port="1" to-layer="379" to-port="4"/>
		<edge from-layer="379" from-port="5" to-layer="380" to-port="0"/>
		<edge from-layer="381" from-port="1" to-layer="382" to-port="0"/>
		<edge from-layer="382" from-port="1" to-layer="387" to-port="0"/>
		<edge from-layer="383" from-port="1" to-layer="387" to-port="1"/>
		<edge from-layer="384" from-port="1" to-layer="387" to-port="2"/>
		<edge from-layer="385" from-port="1" to-layer="387" to-port="3"/>
		<edge from-layer="386" from-port="1" to-layer="387" to-port="4"/>
		<edge from-layer="379" from-port="5" to-layer="388" to-port="0"/>
		<edge from-layer="387" from-port="5" to-layer="388" to-port="1"/>
		<edge from-layer="388" from-port="2" to-layer="390" to-port="0"/>
		<edge from-layer="389" from-port="1" to-layer="390" to-port="1"/>
		<edge from-layer="390" from-port="2" to-layer="391" to-port="0"/>
		<edge from-layer="391" from-port="1" to-layer="396" to-port="0"/>
		<edge from-layer="392" from-port="1" to-layer="396" to-port="1"/>
		<edge from-layer="393" from-port="1" to-layer="396" to-port="2"/>
		<edge from-layer="394" from-port="1" to-layer="396" to-port="3"/>
		<edge from-layer="395" from-port="1" to-layer="396" to-port="4"/>
		<edge from-layer="397" from-port="1" to-layer="398" to-port="0"/>
		<edge from-layer="398" from-port="1" to-layer="403" to-port="0"/>
		<edge from-layer="399" from-port="1" to-layer="403" to-port="1"/>
		<edge from-layer="400" from-port="1" to-layer="403" to-port="2"/>
		<edge from-layer="401" from-port="1" to-layer="403" to-port="3"/>
		<edge from-layer="402" from-port="1" to-layer="403" to-port="4"/>
		<edge from-layer="396" from-port="5" to-layer="404" to-port="0"/>
		<edge from-layer="403" from-port="5" to-layer="404" to-port="1"/>
		<edge from-layer="404" from-port="2" to-layer="406" to-port="0"/>
		<edge from-layer="405" from-port="1" to-layer="406" to-port="1"/>
		<edge from-layer="406" from-port="2" to-layer="407" to-port="0"/>
		<edge from-layer="407" from-port="1" to-layer="412" to-port="0"/>
		<edge from-layer="408" from-port="1" to-layer="412" to-port="1"/>
		<edge from-layer="409" from-port="1" to-layer="412" to-port="2"/>
		<edge from-layer="410" from-port="1" to-layer="412" to-port="3"/>
		<edge from-layer="411" from-port="1" to-layer="412" to-port="4"/>
		<edge from-layer="413" from-port="1" to-layer="414" to-port="0"/>
		<edge from-layer="414" from-port="1" to-layer="419" to-port="0"/>
		<edge from-layer="415" from-port="1" to-layer="419" to-port="1"/>
		<edge from-layer="416" from-port="1" to-layer="419" to-port="2"/>
		<edge from-layer="417" from-port="1" to-layer="419" to-port="3"/>
		<edge from-layer="418" from-port="1" to-layer="419" to-port="4"/>
		<edge from-layer="412" from-port="5" to-layer="420" to-port="0"/>
		<edge from-layer="419" from-port="5" to-layer="420" to-port="1"/>
		<edge from-layer="420" from-port="2" to-layer="422" to-port="0"/>
		<edge from-layer="421" from-port="1" to-layer="422" to-port="1"/>
		<edge from-layer="422" from-port="2" to-layer="427" to-port="0"/>
		<edge from-layer="423" from-port="1" to-layer="427" to-port="1"/>
		<edge from-layer="424" from-port="1" to-layer="427" to-port="2"/>
		<edge from-layer="425" from-port="1" to-layer="427" to-port="3"/>
		<edge from-layer="426" from-port="1" to-layer="427" to-port="4"/>
		<edge from-layer="380" from-port="1" to-layer="428" to-port="0"/>
		<edge from-layer="427" from-port="5" to-layer="428" to-port="1"/>
		<edge from-layer="428" from-port="2" to-layer="429" to-port="0"/>
		<edge from-layer="429" from-port="1" to-layer="434" to-port="0"/>
		<edge from-layer="430" from-port="1" to-layer="434" to-port="1"/>
		<edge from-layer="431" from-port="1" to-layer="434" to-port="2"/>
		<edge from-layer="432" from-port="1" to-layer="434" to-port="3"/>
		<edge from-layer="433" from-port="1" to-layer="434" to-port="4"/>
		<edge from-layer="435" from-port="1" to-layer="436" to-port="0"/>
		<edge from-layer="436" from-port="1" to-layer="441" to-port="0"/>
		<edge from-layer="437" from-port="1" to-layer="441" to-port="1"/>
		<edge from-layer="438" from-port="1" to-layer="441" to-port="2"/>
		<edge from-layer="439" from-port="1" to-layer="441" to-port="3"/>
		<edge from-layer="440" from-port="1" to-layer="441" to-port="4"/>
		<edge from-layer="434" from-port="5" to-layer="442" to-port="0"/>
		<edge from-layer="441" from-port="5" to-layer="442" to-port="1"/>
		<edge from-layer="442" from-port="2" to-layer="444" to-port="0"/>
		<edge from-layer="443" from-port="1" to-layer="444" to-port="1"/>
		<edge from-layer="444" from-port="2" to-layer="449" to-port="0"/>
		<edge from-layer="445" from-port="1" to-layer="449" to-port="1"/>
		<edge from-layer="446" from-port="1" to-layer="449" to-port="2"/>
		<edge from-layer="447" from-port="1" to-layer="449" to-port="3"/>
		<edge from-layer="448" from-port="1" to-layer="449" to-port="4"/>
		<edge from-layer="450" from-port="1" to-layer="451" to-port="0"/>
		<edge from-layer="451" from-port="1" to-layer="456" to-port="0"/>
		<edge from-layer="452" from-port="1" to-layer="456" to-port="1"/>
		<edge from-layer="453" from-port="1" to-layer="456" to-port="2"/>
		<edge from-layer="454" from-port="1" to-layer="456" to-port="3"/>
		<edge from-layer="455" from-port="1" to-layer="456" to-port="4"/>
		<edge from-layer="434" from-port="5" to-layer="457" to-port="0"/>
		<edge from-layer="456" from-port="5" to-layer="457" to-port="1"/>
		<edge from-layer="457" from-port="2" to-layer="459" to-port="0"/>
		<edge from-layer="458" from-port="1" to-layer="459" to-port="1"/>
		<edge from-layer="459" from-port="2" to-layer="460" to-port="0"/>
		<edge from-layer="460" from-port="1" to-layer="465" to-port="0"/>
		<edge from-layer="461" from-port="1" to-layer="465" to-port="1"/>
		<edge from-layer="462" from-port="1" to-layer="465" to-port="2"/>
		<edge from-layer="463" from-port="1" to-layer="465" to-port="3"/>
		<edge from-layer="464" from-port="1" to-layer="465" to-port="4"/>
		<edge from-layer="466" from-port="1" to-layer="467" to-port="0"/>
		<edge from-layer="467" from-port="1" to-layer="472" to-port="0"/>
		<edge from-layer="468" from-port="1" to-layer="472" to-port="1"/>
		<edge from-layer="469" from-port="1" to-layer="472" to-port="2"/>
		<edge from-layer="470" from-port="1" to-layer="472" to-port="3"/>
		<edge from-layer="471" from-port="1" to-layer="472" to-port="4"/>
		<edge from-layer="465" from-port="5" to-layer="473" to-port="0"/>
		<edge from-layer="472" from-port="5" to-layer="473" to-port="1"/>
		<edge from-layer="473" from-port="2" to-layer="475" to-port="0"/>
		<edge from-layer="474" from-port="1" to-layer="475" to-port="1"/>
		<edge from-layer="475" from-port="2" to-layer="476" to-port="0"/>
		<edge from-layer="476" from-port="1" to-layer="481" to-port="0"/>
		<edge from-layer="477" from-port="1" to-layer="481" to-port="1"/>
		<edge from-layer="478" from-port="1" to-layer="481" to-port="2"/>
		<edge from-layer="479" from-port="1" to-layer="481" to-port="3"/>
		<edge from-layer="480" from-port="1" to-layer="481" to-port="4"/>
		<edge from-layer="482" from-port="1" to-layer="483" to-port="0"/>
		<edge from-layer="483" from-port="1" to-layer="488" to-port="0"/>
		<edge from-layer="484" from-port="1" to-layer="488" to-port="1"/>
		<edge from-layer="485" from-port="1" to-layer="488" to-port="2"/>
		<edge from-layer="486" from-port="1" to-layer="488" to-port="3"/>
		<edge from-layer="487" from-port="1" to-layer="488" to-port="4"/>
		<edge from-layer="481" from-port="5" to-layer="489" to-port="0"/>
		<edge from-layer="488" from-port="5" to-layer="489" to-port="1"/>
		<edge from-layer="489" from-port="2" to-layer="491" to-port="0"/>
		<edge from-layer="490" from-port="1" to-layer="491" to-port="1"/>
		<edge from-layer="491" from-port="2" to-layer="496" to-port="0"/>
		<edge from-layer="492" from-port="1" to-layer="496" to-port="1"/>
		<edge from-layer="493" from-port="1" to-layer="496" to-port="2"/>
		<edge from-layer="494" from-port="1" to-layer="496" to-port="3"/>
		<edge from-layer="495" from-port="1" to-layer="496" to-port="4"/>
		<edge from-layer="449" from-port="5" to-layer="497" to-port="0"/>
		<edge from-layer="496" from-port="5" to-layer="497" to-port="1"/>
		<edge from-layer="497" from-port="2" to-layer="498" to-port="0"/>
		<edge from-layer="498" from-port="1" to-layer="503" to-port="0"/>
		<edge from-layer="499" from-port="1" to-layer="503" to-port="1"/>
		<edge from-layer="500" from-port="1" to-layer="503" to-port="2"/>
		<edge from-layer="501" from-port="1" to-layer="503" to-port="3"/>
		<edge from-layer="502" from-port="1" to-layer="503" to-port="4"/>
		<edge from-layer="504" from-port="1" to-layer="505" to-port="0"/>
		<edge from-layer="505" from-port="1" to-layer="510" to-port="0"/>
		<edge from-layer="506" from-port="1" to-layer="510" to-port="1"/>
		<edge from-layer="507" from-port="1" to-layer="510" to-port="2"/>
		<edge from-layer="508" from-port="1" to-layer="510" to-port="3"/>
		<edge from-layer="509" from-port="1" to-layer="510" to-port="4"/>
		<edge from-layer="503" from-port="5" to-layer="511" to-port="0"/>
		<edge from-layer="510" from-port="5" to-layer="511" to-port="1"/>
		<edge from-layer="511" from-port="2" to-layer="513" to-port="0"/>
		<edge from-layer="512" from-port="1" to-layer="513" to-port="1"/>
		<edge from-layer="513" from-port="2" to-layer="514" to-port="0"/>
		<edge from-layer="514" from-port="1" to-layer="519" to-port="0"/>
		<edge from-layer="515" from-port="1" to-layer="519" to-port="1"/>
		<edge from-layer="516" from-port="1" to-layer="519" to-port="2"/>
		<edge from-layer="517" from-port="1" to-layer="519" to-port="3"/>
		<edge from-layer="518" from-port="1" to-layer="519" to-port="4"/>
		<edge from-layer="520" from-port="1" to-layer="521" to-port="0"/>
		<edge from-layer="521" from-port="1" to-layer="526" to-port="0"/>
		<edge from-layer="522" from-port="1" to-layer="526" to-port="1"/>
		<edge from-layer="523" from-port="1" to-layer="526" to-port="2"/>
		<edge from-layer="524" from-port="1" to-layer="526" to-port="3"/>
		<edge from-layer="525" from-port="1" to-layer="526" to-port="4"/>
		<edge from-layer="519" from-port="5" to-layer="527" to-port="0"/>
		<edge from-layer="526" from-port="5" to-layer="527" to-port="1"/>
		<edge from-layer="527" from-port="2" to-layer="529" to-port="0"/>
		<edge from-layer="528" from-port="1" to-layer="529" to-port="1"/>
		<edge from-layer="529" from-port="2" to-layer="530" to-port="0"/>
		<edge from-layer="530" from-port="1" to-layer="535" to-port="0"/>
		<edge from-layer="531" from-port="1" to-layer="535" to-port="1"/>
		<edge from-layer="532" from-port="1" to-layer="535" to-port="2"/>
		<edge from-layer="533" from-port="1" to-layer="535" to-port="3"/>
		<edge from-layer="534" from-port="1" to-layer="535" to-port="4"/>
		<edge from-layer="536" from-port="1" to-layer="537" to-port="0"/>
		<edge from-layer="537" from-port="1" to-layer="542" to-port="0"/>
		<edge from-layer="538" from-port="1" to-layer="542" to-port="1"/>
		<edge from-layer="539" from-port="1" to-layer="542" to-port="2"/>
		<edge from-layer="540" from-port="1" to-layer="542" to-port="3"/>
		<edge from-layer="541" from-port="1" to-layer="542" to-port="4"/>
		<edge from-layer="535" from-port="5" to-layer="543" to-port="0"/>
		<edge from-layer="542" from-port="5" to-layer="543" to-port="1"/>
		<edge from-layer="543" from-port="2" to-layer="545" to-port="0"/>
		<edge from-layer="544" from-port="1" to-layer="545" to-port="1"/>
		<edge from-layer="545" from-port="2" to-layer="550" to-port="0"/>
		<edge from-layer="546" from-port="1" to-layer="550" to-port="1"/>
		<edge from-layer="547" from-port="1" to-layer="550" to-port="2"/>
		<edge from-layer="548" from-port="1" to-layer="550" to-port="3"/>
		<edge from-layer="549" from-port="1" to-layer="550" to-port="4"/>
		<edge from-layer="503" from-port="5" to-layer="551" to-port="0"/>
		<edge from-layer="550" from-port="5" to-layer="551" to-port="1"/>
		<edge from-layer="551" from-port="2" to-layer="552" to-port="0"/>
		<edge from-layer="552" from-port="1" to-layer="557" to-port="0"/>
		<edge from-layer="553" from-port="1" to-layer="557" to-port="1"/>
		<edge from-layer="554" from-port="1" to-layer="557" to-port="2"/>
		<edge from-layer="555" from-port="1" to-layer="557" to-port="3"/>
		<edge from-layer="556" from-port="1" to-layer="557" to-port="4"/>
		<edge from-layer="558" from-port="1" to-layer="559" to-port="0"/>
		<edge from-layer="559" from-port="1" to-layer="564" to-port="0"/>
		<edge from-layer="560" from-port="1" to-layer="564" to-port="1"/>
		<edge from-layer="561" from-port="1" to-layer="564" to-port="2"/>
		<edge from-layer="562" from-port="1" to-layer="564" to-port="3"/>
		<edge from-layer="563" from-port="1" to-layer="564" to-port="4"/>
		<edge from-layer="557" from-port="5" to-layer="565" to-port="0"/>
		<edge from-layer="564" from-port="5" to-layer="565" to-port="1"/>
		<edge from-layer="565" from-port="2" to-layer="567" to-port="0"/>
		<edge from-layer="566" from-port="1" to-layer="567" to-port="1"/>
		<edge from-layer="567" from-port="2" to-layer="568" to-port="0"/>
		<edge from-layer="568" from-port="1" to-layer="573" to-port="0"/>
		<edge from-layer="569" from-port="1" to-layer="573" to-port="1"/>
		<edge from-layer="570" from-port="1" to-layer="573" to-port="2"/>
		<edge from-layer="571" from-port="1" to-layer="573" to-port="3"/>
		<edge from-layer="572" from-port="1" to-layer="573" to-port="4"/>
		<edge from-layer="574" from-port="1" to-layer="575" to-port="0"/>
		<edge from-layer="575" from-port="1" to-layer="580" to-port="0"/>
		<edge from-layer="576" from-port="1" to-layer="580" to-port="1"/>
		<edge from-layer="577" from-port="1" to-layer="580" to-port="2"/>
		<edge from-layer="578" from-port="1" to-layer="580" to-port="3"/>
		<edge from-layer="579" from-port="1" to-layer="580" to-port="4"/>
		<edge from-layer="573" from-port="5" to-layer="581" to-port="0"/>
		<edge from-layer="580" from-port="5" to-layer="581" to-port="1"/>
		<edge from-layer="581" from-port="2" to-layer="583" to-port="0"/>
		<edge from-layer="582" from-port="1" to-layer="583" to-port="1"/>
		<edge from-layer="583" from-port="2" to-layer="584" to-port="0"/>
		<edge from-layer="584" from-port="1" to-layer="589" to-port="0"/>
		<edge from-layer="585" from-port="1" to-layer="589" to-port="1"/>
		<edge from-layer="586" from-port="1" to-layer="589" to-port="2"/>
		<edge from-layer="587" from-port="1" to-layer="589" to-port="3"/>
		<edge from-layer="588" from-port="1" to-layer="589" to-port="4"/>
		<edge from-layer="590" from-port="1" to-layer="591" to-port="0"/>
		<edge from-layer="591" from-port="1" to-layer="596" to-port="0"/>
		<edge from-layer="592" from-port="1" to-layer="596" to-port="1"/>
		<edge from-layer="593" from-port="1" to-layer="596" to-port="2"/>
		<edge from-layer="594" from-port="1" to-layer="596" to-port="3"/>
		<edge from-layer="595" from-port="1" to-layer="596" to-port="4"/>
		<edge from-layer="589" from-port="5" to-layer="597" to-port="0"/>
		<edge from-layer="596" from-port="5" to-layer="597" to-port="1"/>
		<edge from-layer="597" from-port="2" to-layer="599" to-port="0"/>
		<edge from-layer="598" from-port="1" to-layer="599" to-port="1"/>
		<edge from-layer="599" from-port="2" to-layer="604" to-port="0"/>
		<edge from-layer="600" from-port="1" to-layer="604" to-port="1"/>
		<edge from-layer="601" from-port="1" to-layer="604" to-port="2"/>
		<edge from-layer="602" from-port="1" to-layer="604" to-port="3"/>
		<edge from-layer="603" from-port="1" to-layer="604" to-port="4"/>
		<edge from-layer="557" from-port="5" to-layer="605" to-port="0"/>
		<edge from-layer="604" from-port="5" to-layer="605" to-port="1"/>
		<edge from-layer="605" from-port="2" to-layer="606" to-port="0"/>
		<edge from-layer="606" from-port="1" to-layer="611" to-port="0"/>
		<edge from-layer="607" from-port="1" to-layer="611" to-port="1"/>
		<edge from-layer="608" from-port="1" to-layer="611" to-port="2"/>
		<edge from-layer="609" from-port="1" to-layer="611" to-port="3"/>
		<edge from-layer="610" from-port="1" to-layer="611" to-port="4"/>
		<edge from-layer="612" from-port="1" to-layer="613" to-port="0"/>
		<edge from-layer="613" from-port="1" to-layer="618" to-port="0"/>
		<edge from-layer="614" from-port="1" to-layer="618" to-port="1"/>
		<edge from-layer="615" from-port="1" to-layer="618" to-port="2"/>
		<edge from-layer="616" from-port="1" to-layer="618" to-port="3"/>
		<edge from-layer="617" from-port="1" to-layer="618" to-port="4"/>
		<edge from-layer="611" from-port="5" to-layer="619" to-port="0"/>
		<edge from-layer="618" from-port="5" to-layer="619" to-port="1"/>
		<edge from-layer="619" from-port="2" to-layer="621" to-port="0"/>
		<edge from-layer="620" from-port="1" to-layer="621" to-port="1"/>
		<edge from-layer="621" from-port="2" to-layer="622" to-port="0"/>
		<edge from-layer="622" from-port="1" to-layer="627" to-port="0"/>
		<edge from-layer="623" from-port="1" to-layer="627" to-port="1"/>
		<edge from-layer="624" from-port="1" to-layer="627" to-port="2"/>
		<edge from-layer="625" from-port="1" to-layer="627" to-port="3"/>
		<edge from-layer="626" from-port="1" to-layer="627" to-port="4"/>
		<edge from-layer="628" from-port="1" to-layer="629" to-port="0"/>
		<edge from-layer="629" from-port="1" to-layer="634" to-port="0"/>
		<edge from-layer="630" from-port="1" to-layer="634" to-port="1"/>
		<edge from-layer="631" from-port="1" to-layer="634" to-port="2"/>
		<edge from-layer="632" from-port="1" to-layer="634" to-port="3"/>
		<edge from-layer="633" from-port="1" to-layer="634" to-port="4"/>
		<edge from-layer="627" from-port="5" to-layer="635" to-port="0"/>
		<edge from-layer="634" from-port="5" to-layer="635" to-port="1"/>
		<edge from-layer="635" from-port="2" to-layer="637" to-port="0"/>
		<edge from-layer="636" from-port="1" to-layer="637" to-port="1"/>
		<edge from-layer="637" from-port="2" to-layer="638" to-port="0"/>
		<edge from-layer="638" from-port="1" to-layer="643" to-port="0"/>
		<edge from-layer="639" from-port="1" to-layer="643" to-port="1"/>
		<edge from-layer="640" from-port="1" to-layer="643" to-port="2"/>
		<edge from-layer="641" from-port="1" to-layer="643" to-port="3"/>
		<edge from-layer="642" from-port="1" to-layer="643" to-port="4"/>
		<edge from-layer="644" from-port="1" to-layer="645" to-port="0"/>
		<edge from-layer="645" from-port="1" to-layer="650" to-port="0"/>
		<edge from-layer="646" from-port="1" to-layer="650" to-port="1"/>
		<edge from-layer="647" from-port="1" to-layer="650" to-port="2"/>
		<edge from-layer="648" from-port="1" to-layer="650" to-port="3"/>
		<edge from-layer="649" from-port="1" to-layer="650" to-port="4"/>
		<edge from-layer="643" from-port="5" to-layer="651" to-port="0"/>
		<edge from-layer="650" from-port="5" to-layer="651" to-port="1"/>
		<edge from-layer="651" from-port="2" to-layer="653" to-port="0"/>
		<edge from-layer="652" from-port="1" to-layer="653" to-port="1"/>
		<edge from-layer="653" from-port="2" to-layer="658" to-port="0"/>
		<edge from-layer="654" from-port="1" to-layer="658" to-port="1"/>
		<edge from-layer="655" from-port="1" to-layer="658" to-port="2"/>
		<edge from-layer="656" from-port="1" to-layer="658" to-port="3"/>
		<edge from-layer="657" from-port="1" to-layer="658" to-port="4"/>
		<edge from-layer="611" from-port="5" to-layer="659" to-port="0"/>
		<edge from-layer="658" from-port="5" to-layer="659" to-port="1"/>
		<edge from-layer="659" from-port="2" to-layer="660" to-port="0"/>
		<edge from-layer="660" from-port="1" to-layer="665" to-port="0"/>
		<edge from-layer="661" from-port="1" to-layer="665" to-port="1"/>
		<edge from-layer="662" from-port="1" to-layer="665" to-port="2"/>
		<edge from-layer="663" from-port="1" to-layer="665" to-port="3"/>
		<edge from-layer="664" from-port="1" to-layer="665" to-port="4"/>
		<edge from-layer="666" from-port="1" to-layer="667" to-port="0"/>
		<edge from-layer="667" from-port="1" to-layer="672" to-port="0"/>
		<edge from-layer="668" from-port="1" to-layer="672" to-port="1"/>
		<edge from-layer="669" from-port="1" to-layer="672" to-port="2"/>
		<edge from-layer="670" from-port="1" to-layer="672" to-port="3"/>
		<edge from-layer="671" from-port="1" to-layer="672" to-port="4"/>
		<edge from-layer="665" from-port="5" to-layer="673" to-port="0"/>
		<edge from-layer="672" from-port="5" to-layer="673" to-port="1"/>
		<edge from-layer="673" from-port="2" to-layer="675" to-port="0"/>
		<edge from-layer="674" from-port="1" to-layer="675" to-port="1"/>
		<edge from-layer="675" from-port="2" to-layer="676" to-port="0"/>
		<edge from-layer="676" from-port="1" to-layer="681" to-port="0"/>
		<edge from-layer="677" from-port="1" to-layer="681" to-port="1"/>
		<edge from-layer="678" from-port="1" to-layer="681" to-port="2"/>
		<edge from-layer="679" from-port="1" to-layer="681" to-port="3"/>
		<edge from-layer="680" from-port="1" to-layer="681" to-port="4"/>
		<edge from-layer="682" from-port="1" to-layer="683" to-port="0"/>
		<edge from-layer="683" from-port="1" to-layer="688" to-port="0"/>
		<edge from-layer="684" from-port="1" to-layer="688" to-port="1"/>
		<edge from-layer="685" from-port="1" to-layer="688" to-port="2"/>
		<edge from-layer="686" from-port="1" to-layer="688" to-port="3"/>
		<edge from-layer="687" from-port="1" to-layer="688" to-port="4"/>
		<edge from-layer="681" from-port="5" to-layer="689" to-port="0"/>
		<edge from-layer="688" from-port="5" to-layer="689" to-port="1"/>
		<edge from-layer="689" from-port="2" to-layer="691" to-port="0"/>
		<edge from-layer="690" from-port="1" to-layer="691" to-port="1"/>
		<edge from-layer="691" from-port="2" to-layer="692" to-port="0"/>
		<edge from-layer="692" from-port="1" to-layer="697" to-port="0"/>
		<edge from-layer="693" from-port="1" to-layer="697" to-port="1"/>
		<edge from-layer="694" from-port="1" to-layer="697" to-port="2"/>
		<edge from-layer="695" from-port="1" to-layer="697" to-port="3"/>
		<edge from-layer="696" from-port="1" to-layer="697" to-port="4"/>
		<edge from-layer="698" from-port="1" to-layer="699" to-port="0"/>
		<edge from-layer="699" from-port="1" to-layer="704" to-port="0"/>
		<edge from-layer="700" from-port="1" to-layer="704" to-port="1"/>
		<edge from-layer="701" from-port="1" to-layer="704" to-port="2"/>
		<edge from-layer="702" from-port="1" to-layer="704" to-port="3"/>
		<edge from-layer="703" from-port="1" to-layer="704" to-port="4"/>
		<edge from-layer="697" from-port="5" to-layer="705" to-port="0"/>
		<edge from-layer="704" from-port="5" to-layer="705" to-port="1"/>
		<edge from-layer="705" from-port="2" to-layer="707" to-port="0"/>
		<edge from-layer="706" from-port="1" to-layer="707" to-port="1"/>
		<edge from-layer="707" from-port="2" to-layer="712" to-port="0"/>
		<edge from-layer="708" from-port="1" to-layer="712" to-port="1"/>
		<edge from-layer="709" from-port="1" to-layer="712" to-port="2"/>
		<edge from-layer="710" from-port="1" to-layer="712" to-port="3"/>
		<edge from-layer="711" from-port="1" to-layer="712" to-port="4"/>
		<edge from-layer="665" from-port="5" to-layer="713" to-port="0"/>
		<edge from-layer="712" from-port="5" to-layer="713" to-port="1"/>
		<edge from-layer="713" from-port="2" to-layer="714" to-port="0"/>
		<edge from-layer="714" from-port="1" to-layer="719" to-port="0"/>
		<edge from-layer="715" from-port="1" to-layer="719" to-port="1"/>
		<edge from-layer="716" from-port="1" to-layer="719" to-port="2"/>
		<edge from-layer="717" from-port="1" to-layer="719" to-port="3"/>
		<edge from-layer="718" from-port="1" to-layer="719" to-port="4"/>
		<edge from-layer="719" from-port="5" to-layer="720" to-port="0"/>
		<edge from-layer="721" from-port="1" to-layer="722" to-port="0"/>
		<edge from-layer="722" from-port="1" to-layer="727" to-port="0"/>
		<edge from-layer="723" from-port="1" to-layer="727" to-port="1"/>
		<edge from-layer="724" from-port="1" to-layer="727" to-port="2"/>
		<edge from-layer="725" from-port="1" to-layer="727" to-port="3"/>
		<edge from-layer="726" from-port="1" to-layer="727" to-port="4"/>
		<edge from-layer="719" from-port="5" to-layer="728" to-port="0"/>
		<edge from-layer="727" from-port="5" to-layer="728" to-port="1"/>
		<edge from-layer="728" from-port="2" to-layer="730" to-port="0"/>
		<edge from-layer="729" from-port="1" to-layer="730" to-port="1"/>
		<edge from-layer="730" from-port="2" to-layer="731" to-port="0"/>
		<edge from-layer="731" from-port="1" to-layer="736" to-port="0"/>
		<edge from-layer="732" from-port="1" to-layer="736" to-port="1"/>
		<edge from-layer="733" from-port="1" to-layer="736" to-port="2"/>
		<edge from-layer="734" from-port="1" to-layer="736" to-port="3"/>
		<edge from-layer="735" from-port="1" to-layer="736" to-port="4"/>
		<edge from-layer="737" from-port="1" to-layer="738" to-port="0"/>
		<edge from-layer="738" from-port="1" to-layer="743" to-port="0"/>
		<edge from-layer="739" from-port="1" to-layer="743" to-port="1"/>
		<edge from-layer="740" from-port="1" to-layer="743" to-port="2"/>
		<edge from-layer="741" from-port="1" to-layer="743" to-port="3"/>
		<edge from-layer="742" from-port="1" to-layer="743" to-port="4"/>
		<edge from-layer="736" from-port="5" to-layer="744" to-port="0"/>
		<edge from-layer="743" from-port="5" to-layer="744" to-port="1"/>
		<edge from-layer="744" from-port="2" to-layer="746" to-port="0"/>
		<edge from-layer="745" from-port="1" to-layer="746" to-port="1"/>
		<edge from-layer="746" from-port="2" to-layer="747" to-port="0"/>
		<edge from-layer="747" from-port="1" to-layer="752" to-port="0"/>
		<edge from-layer="748" from-port="1" to-layer="752" to-port="1"/>
		<edge from-layer="749" from-port="1" to-layer="752" to-port="2"/>
		<edge from-layer="750" from-port="1" to-layer="752" to-port="3"/>
		<edge from-layer="751" from-port="1" to-layer="752" to-port="4"/>
		<edge from-layer="753" from-port="1" to-layer="754" to-port="0"/>
		<edge from-layer="754" from-port="1" to-layer="759" to-port="0"/>
		<edge from-layer="755" from-port="1" to-layer="759" to-port="1"/>
		<edge from-layer="756" from-port="1" to-layer="759" to-port="2"/>
		<edge from-layer="757" from-port="1" to-layer="759" to-port="3"/>
		<edge from-layer="758" from-port="1" to-layer="759" to-port="4"/>
		<edge from-layer="752" from-port="5" to-layer="760" to-port="0"/>
		<edge from-layer="759" from-port="5" to-layer="760" to-port="1"/>
		<edge from-layer="760" from-port="2" to-layer="762" to-port="0"/>
		<edge from-layer="761" from-port="1" to-layer="762" to-port="1"/>
		<edge from-layer="762" from-port="2" to-layer="767" to-port="0"/>
		<edge from-layer="763" from-port="1" to-layer="767" to-port="1"/>
		<edge from-layer="764" from-port="1" to-layer="767" to-port="2"/>
		<edge from-layer="765" from-port="1" to-layer="767" to-port="3"/>
		<edge from-layer="766" from-port="1" to-layer="767" to-port="4"/>
		<edge from-layer="720" from-port="1" to-layer="768" to-port="0"/>
		<edge from-layer="767" from-port="5" to-layer="768" to-port="1"/>
		<edge from-layer="768" from-port="2" to-layer="769" to-port="0"/>
		<edge from-layer="769" from-port="1" to-layer="774" to-port="0"/>
		<edge from-layer="770" from-port="1" to-layer="774" to-port="1"/>
		<edge from-layer="771" from-port="1" to-layer="774" to-port="2"/>
		<edge from-layer="772" from-port="1" to-layer="774" to-port="3"/>
		<edge from-layer="773" from-port="1" to-layer="774" to-port="4"/>
		<edge from-layer="775" from-port="1" to-layer="776" to-port="0"/>
		<edge from-layer="776" from-port="1" to-layer="781" to-port="0"/>
		<edge from-layer="777" from-port="1" to-layer="781" to-port="1"/>
		<edge from-layer="778" from-port="1" to-layer="781" to-port="2"/>
		<edge from-layer="779" from-port="1" to-layer="781" to-port="3"/>
		<edge from-layer="780" from-port="1" to-layer="781" to-port="4"/>
		<edge from-layer="774" from-port="5" to-layer="782" to-port="0"/>
		<edge from-layer="781" from-port="5" to-layer="782" to-port="1"/>
		<edge from-layer="782" from-port="2" to-layer="784" to-port="0"/>
		<edge from-layer="783" from-port="1" to-layer="784" to-port="1"/>
		<edge from-layer="784" from-port="2" to-layer="789" to-port="0"/>
		<edge from-layer="785" from-port="1" to-layer="789" to-port="1"/>
		<edge from-layer="786" from-port="1" to-layer="789" to-port="2"/>
		<edge from-layer="787" from-port="1" to-layer="789" to-port="3"/>
		<edge from-layer="788" from-port="1" to-layer="789" to-port="4"/>
		<edge from-layer="790" from-port="1" to-layer="791" to-port="0"/>
		<edge from-layer="791" from-port="1" to-layer="796" to-port="0"/>
		<edge from-layer="792" from-port="1" to-layer="796" to-port="1"/>
		<edge from-layer="793" from-port="1" to-layer="796" to-port="2"/>
		<edge from-layer="794" from-port="1" to-layer="796" to-port="3"/>
		<edge from-layer="795" from-port="1" to-layer="796" to-port="4"/>
		<edge from-layer="774" from-port="5" to-layer="797" to-port="0"/>
		<edge from-layer="796" from-port="5" to-layer="797" to-port="1"/>
		<edge from-layer="797" from-port="2" to-layer="799" to-port="0"/>
		<edge from-layer="798" from-port="1" to-layer="799" to-port="1"/>
		<edge from-layer="799" from-port="2" to-layer="800" to-port="0"/>
		<edge from-layer="800" from-port="1" to-layer="805" to-port="0"/>
		<edge from-layer="801" from-port="1" to-layer="805" to-port="1"/>
		<edge from-layer="802" from-port="1" to-layer="805" to-port="2"/>
		<edge from-layer="803" from-port="1" to-layer="805" to-port="3"/>
		<edge from-layer="804" from-port="1" to-layer="805" to-port="4"/>
		<edge from-layer="806" from-port="1" to-layer="807" to-port="0"/>
		<edge from-layer="807" from-port="1" to-layer="812" to-port="0"/>
		<edge from-layer="808" from-port="1" to-layer="812" to-port="1"/>
		<edge from-layer="809" from-port="1" to-layer="812" to-port="2"/>
		<edge from-layer="810" from-port="1" to-layer="812" to-port="3"/>
		<edge from-layer="811" from-port="1" to-layer="812" to-port="4"/>
		<edge from-layer="805" from-port="5" to-layer="813" to-port="0"/>
		<edge from-layer="812" from-port="5" to-layer="813" to-port="1"/>
		<edge from-layer="813" from-port="2" to-layer="815" to-port="0"/>
		<edge from-layer="814" from-port="1" to-layer="815" to-port="1"/>
		<edge from-layer="815" from-port="2" to-layer="816" to-port="0"/>
		<edge from-layer="816" from-port="1" to-layer="821" to-port="0"/>
		<edge from-layer="817" from-port="1" to-layer="821" to-port="1"/>
		<edge from-layer="818" from-port="1" to-layer="821" to-port="2"/>
		<edge from-layer="819" from-port="1" to-layer="821" to-port="3"/>
		<edge from-layer="820" from-port="1" to-layer="821" to-port="4"/>
		<edge from-layer="822" from-port="1" to-layer="823" to-port="0"/>
		<edge from-layer="823" from-port="1" to-layer="828" to-port="0"/>
		<edge from-layer="824" from-port="1" to-layer="828" to-port="1"/>
		<edge from-layer="825" from-port="1" to-layer="828" to-port="2"/>
		<edge from-layer="826" from-port="1" to-layer="828" to-port="3"/>
		<edge from-layer="827" from-port="1" to-layer="828" to-port="4"/>
		<edge from-layer="821" from-port="5" to-layer="829" to-port="0"/>
		<edge from-layer="828" from-port="5" to-layer="829" to-port="1"/>
		<edge from-layer="829" from-port="2" to-layer="831" to-port="0"/>
		<edge from-layer="830" from-port="1" to-layer="831" to-port="1"/>
		<edge from-layer="831" from-port="2" to-layer="836" to-port="0"/>
		<edge from-layer="832" from-port="1" to-layer="836" to-port="1"/>
		<edge from-layer="833" from-port="1" to-layer="836" to-port="2"/>
		<edge from-layer="834" from-port="1" to-layer="836" to-port="3"/>
		<edge from-layer="835" from-port="1" to-layer="836" to-port="4"/>
		<edge from-layer="789" from-port="5" to-layer="837" to-port="0"/>
		<edge from-layer="836" from-port="5" to-layer="837" to-port="1"/>
		<edge from-layer="837" from-port="2" to-layer="838" to-port="0"/>
		<edge from-layer="838" from-port="1" to-layer="843" to-port="0"/>
		<edge from-layer="839" from-port="1" to-layer="843" to-port="1"/>
		<edge from-layer="840" from-port="1" to-layer="843" to-port="2"/>
		<edge from-layer="841" from-port="1" to-layer="843" to-port="3"/>
		<edge from-layer="842" from-port="1" to-layer="843" to-port="4"/>
		<edge from-layer="844" from-port="1" to-layer="845" to-port="0"/>
		<edge from-layer="845" from-port="1" to-layer="850" to-port="0"/>
		<edge from-layer="846" from-port="1" to-layer="850" to-port="1"/>
		<edge from-layer="847" from-port="1" to-layer="850" to-port="2"/>
		<edge from-layer="848" from-port="1" to-layer="850" to-port="3"/>
		<edge from-layer="849" from-port="1" to-layer="850" to-port="4"/>
		<edge from-layer="843" from-port="5" to-layer="851" to-port="0"/>
		<edge from-layer="850" from-port="5" to-layer="851" to-port="1"/>
		<edge from-layer="851" from-port="2" to-layer="853" to-port="0"/>
		<edge from-layer="852" from-port="1" to-layer="853" to-port="1"/>
		<edge from-layer="853" from-port="2" to-layer="854" to-port="0"/>
		<edge from-layer="854" from-port="1" to-layer="859" to-port="0"/>
		<edge from-layer="855" from-port="1" to-layer="859" to-port="1"/>
		<edge from-layer="856" from-port="1" to-layer="859" to-port="2"/>
		<edge from-layer="857" from-port="1" to-layer="859" to-port="3"/>
		<edge from-layer="858" from-port="1" to-layer="859" to-port="4"/>
		<edge from-layer="860" from-port="1" to-layer="861" to-port="0"/>
		<edge from-layer="861" from-port="1" to-layer="866" to-port="0"/>
		<edge from-layer="862" from-port="1" to-layer="866" to-port="1"/>
		<edge from-layer="863" from-port="1" to-layer="866" to-port="2"/>
		<edge from-layer="864" from-port="1" to-layer="866" to-port="3"/>
		<edge from-layer="865" from-port="1" to-layer="866" to-port="4"/>
		<edge from-layer="859" from-port="5" to-layer="867" to-port="0"/>
		<edge from-layer="866" from-port="5" to-layer="867" to-port="1"/>
		<edge from-layer="867" from-port="2" to-layer="869" to-port="0"/>
		<edge from-layer="868" from-port="1" to-layer="869" to-port="1"/>
		<edge from-layer="869" from-port="2" to-layer="870" to-port="0"/>
		<edge from-layer="870" from-port="1" to-layer="875" to-port="0"/>
		<edge from-layer="871" from-port="1" to-layer="875" to-port="1"/>
		<edge from-layer="872" from-port="1" to-layer="875" to-port="2"/>
		<edge from-layer="873" from-port="1" to-layer="875" to-port="3"/>
		<edge from-layer="874" from-port="1" to-layer="875" to-port="4"/>
		<edge from-layer="876" from-port="1" to-layer="877" to-port="0"/>
		<edge from-layer="877" from-port="1" to-layer="882" to-port="0"/>
		<edge from-layer="878" from-port="1" to-layer="882" to-port="1"/>
		<edge from-layer="879" from-port="1" to-layer="882" to-port="2"/>
		<edge from-layer="880" from-port="1" to-layer="882" to-port="3"/>
		<edge from-layer="881" from-port="1" to-layer="882" to-port="4"/>
		<edge from-layer="875" from-port="5" to-layer="883" to-port="0"/>
		<edge from-layer="882" from-port="5" to-layer="883" to-port="1"/>
		<edge from-layer="883" from-port="2" to-layer="885" to-port="0"/>
		<edge from-layer="884" from-port="1" to-layer="885" to-port="1"/>
		<edge from-layer="885" from-port="2" to-layer="890" to-port="0"/>
		<edge from-layer="886" from-port="1" to-layer="890" to-port="1"/>
		<edge from-layer="887" from-port="1" to-layer="890" to-port="2"/>
		<edge from-layer="888" from-port="1" to-layer="890" to-port="3"/>
		<edge from-layer="889" from-port="1" to-layer="890" to-port="4"/>
		<edge from-layer="843" from-port="5" to-layer="891" to-port="0"/>
		<edge from-layer="890" from-port="5" to-layer="891" to-port="1"/>
		<edge from-layer="891" from-port="2" to-layer="892" to-port="0"/>
		<edge from-layer="892" from-port="1" to-layer="897" to-port="0"/>
		<edge from-layer="893" from-port="1" to-layer="897" to-port="1"/>
		<edge from-layer="894" from-port="1" to-layer="897" to-port="2"/>
		<edge from-layer="895" from-port="1" to-layer="897" to-port="3"/>
		<edge from-layer="896" from-port="1" to-layer="897" to-port="4"/>
		<edge from-layer="898" from-port="1" to-layer="899" to-port="0"/>
		<edge from-layer="899" from-port="1" to-layer="904" to-port="0"/>
		<edge from-layer="900" from-port="1" to-layer="904" to-port="1"/>
		<edge from-layer="901" from-port="1" to-layer="904" to-port="2"/>
		<edge from-layer="902" from-port="1" to-layer="904" to-port="3"/>
		<edge from-layer="903" from-port="1" to-layer="904" to-port="4"/>
		<edge from-layer="897" from-port="5" to-layer="905" to-port="0"/>
		<edge from-layer="904" from-port="5" to-layer="905" to-port="1"/>
		<edge from-layer="905" from-port="2" to-layer="907" to-port="0"/>
		<edge from-layer="906" from-port="1" to-layer="907" to-port="1"/>
		<edge from-layer="907" from-port="2" to-layer="908" to-port="0"/>
		<edge from-layer="908" from-port="1" to-layer="913" to-port="0"/>
		<edge from-layer="909" from-port="1" to-layer="913" to-port="1"/>
		<edge from-layer="910" from-port="1" to-layer="913" to-port="2"/>
		<edge from-layer="911" from-port="1" to-layer="913" to-port="3"/>
		<edge from-layer="912" from-port="1" to-layer="913" to-port="4"/>
		<edge from-layer="914" from-port="1" to-layer="915" to-port="0"/>
		<edge from-layer="915" from-port="1" to-layer="920" to-port="0"/>
		<edge from-layer="916" from-port="1" to-layer="920" to-port="1"/>
		<edge from-layer="917" from-port="1" to-layer="920" to-port="2"/>
		<edge from-layer="918" from-port="1" to-layer="920" to-port="3"/>
		<edge from-layer="919" from-port="1" to-layer="920" to-port="4"/>
		<edge from-layer="913" from-port="5" to-layer="921" to-port="0"/>
		<edge from-layer="920" from-port="5" to-layer="921" to-port="1"/>
		<edge from-layer="921" from-port="2" to-layer="923" to-port="0"/>
		<edge from-layer="922" from-port="1" to-layer="923" to-port="1"/>
		<edge from-layer="923" from-port="2" to-layer="924" to-port="0"/>
		<edge from-layer="924" from-port="1" to-layer="929" to-port="0"/>
		<edge from-layer="925" from-port="1" to-layer="929" to-port="1"/>
		<edge from-layer="926" from-port="1" to-layer="929" to-port="2"/>
		<edge from-layer="927" from-port="1" to-layer="929" to-port="3"/>
		<edge from-layer="928" from-port="1" to-layer="929" to-port="4"/>
		<edge from-layer="930" from-port="1" to-layer="931" to-port="0"/>
		<edge from-layer="931" from-port="1" to-layer="936" to-port="0"/>
		<edge from-layer="932" from-port="1" to-layer="936" to-port="1"/>
		<edge from-layer="933" from-port="1" to-layer="936" to-port="2"/>
		<edge from-layer="934" from-port="1" to-layer="936" to-port="3"/>
		<edge from-layer="935" from-port="1" to-layer="936" to-port="4"/>
		<edge from-layer="929" from-port="5" to-layer="937" to-port="0"/>
		<edge from-layer="936" from-port="5" to-layer="937" to-port="1"/>
		<edge from-layer="937" from-port="2" to-layer="939" to-port="0"/>
		<edge from-layer="938" from-port="1" to-layer="939" to-port="1"/>
		<edge from-layer="939" from-port="2" to-layer="944" to-port="0"/>
		<edge from-layer="940" from-port="1" to-layer="944" to-port="1"/>
		<edge from-layer="941" from-port="1" to-layer="944" to-port="2"/>
		<edge from-layer="942" from-port="1" to-layer="944" to-port="3"/>
		<edge from-layer="943" from-port="1" to-layer="944" to-port="4"/>
		<edge from-layer="897" from-port="5" to-layer="945" to-port="0"/>
		<edge from-layer="944" from-port="5" to-layer="945" to-port="1"/>
		<edge from-layer="945" from-port="2" to-layer="946" to-port="0"/>
		<edge from-layer="946" from-port="1" to-layer="951" to-port="0"/>
		<edge from-layer="947" from-port="1" to-layer="951" to-port="1"/>
		<edge from-layer="948" from-port="1" to-layer="951" to-port="2"/>
		<edge from-layer="949" from-port="1" to-layer="951" to-port="3"/>
		<edge from-layer="950" from-port="1" to-layer="951" to-port="4"/>
		<edge from-layer="951" from-port="5" to-layer="953" to-port="0"/>
		<edge from-layer="952" from-port="1" to-layer="953" to-port="1"/>
		<edge from-layer="953" from-port="2" to-layer="958" to-port="0"/>
		<edge from-layer="954" from-port="1" to-layer="958" to-port="1"/>
		<edge from-layer="955" from-port="1" to-layer="958" to-port="2"/>
		<edge from-layer="956" from-port="1" to-layer="958" to-port="3"/>
		<edge from-layer="957" from-port="1" to-layer="958" to-port="4"/>
		<edge from-layer="959" from-port="1" to-layer="960" to-port="0"/>
		<edge from-layer="960" from-port="1" to-layer="965" to-port="0"/>
		<edge from-layer="961" from-port="1" to-layer="965" to-port="1"/>
		<edge from-layer="962" from-port="1" to-layer="965" to-port="2"/>
		<edge from-layer="963" from-port="1" to-layer="965" to-port="3"/>
		<edge from-layer="964" from-port="1" to-layer="965" to-port="4"/>
		<edge from-layer="958" from-port="5" to-layer="966" to-port="0"/>
		<edge from-layer="965" from-port="5" to-layer="966" to-port="1"/>
		<edge from-layer="966" from-port="2" to-layer="968" to-port="0"/>
		<edge from-layer="967" from-port="1" to-layer="968" to-port="1"/>
		<edge from-layer="968" from-port="2" to-layer="970" to-port="0"/>
		<edge from-layer="969" from-port="1" to-layer="970" to-port="1"/>
		<edge from-layer="970" from-port="2" to-layer="972" to-port="0"/>
		<edge from-layer="971" from-port="1" to-layer="972" to-port="1"/>
		<edge from-layer="972" from-port="2" to-layer="973" to-port="0"/>
	</edges>
	<meta_data>
		<MO_version value="unknown version"/>
		<cli_parameters>
			<blobs_as_inputs value="True"/>
			<caffe_parser_path value="DIR"/>
			<data_type value="FP32"/>
			<disable_nhwc_to_nchw value="False"/>
			<disable_omitting_optional value="False"/>
			<disable_resnet_optimization value="False"/>
			<disable_weights_compression value="False"/>
			<enable_concat_optimization value="False"/>
			<enable_flattening_nested_params value="False"/>
			<enable_ssd_gluoncv value="False"/>
			<extensions value="DIR"/>
			<framework value="tf"/>
			<freeze_placeholder_with_value value="{}"/>
			<generate_deprecated_IR_V2 value="False"/>
			<generate_deprecated_IR_V7 value="False"/>
			<generate_experimental_IR_V10 value="True"/>
			<input_model value="DIR/resnet_v1_50.pb"/>
			<input_model_is_text value="False"/>
			<input_shape value="(1, 224, 224, 3)"/>
			<k value="DIR/CustomLayersMapping.xml"/>
			<keep_quantize_ops_in_IR value="True"/>
			<keep_shape_ops value="False"/>
			<legacy_mxnet_model value="False"/>
			<log_level value="ERROR"/>
			<mean_scale_values value="[(array([123., 117., 104.]), None)]"/>
			<mean_values value="(123, 117, 104)"/>
			<model_name value="resnet_v1_50"/>
			<move_to_preprocess value="False"/>
			<output_dir value="DIR"/>
			<placeholder_data_types value="{}"/>
			<placeholder_shapes value="[  1 224 224   3]"/>
			<progress value="False"/>
			<remove_memory value="False"/>
			<remove_output_softmax value="False"/>
			<reverse_input_channels value="True"/>
			<save_params_from_nd value="False"/>
			<scale_values value="()"/>
			<silent value="False"/>
			<stream_output value="False"/>
			<unset unset_cli_parameters="batch, counts, disable_fusing, disable_gfusing, finegrain_fusing, input, input_checkpoint, input_meta_graph, input_proto, input_symbol, mean_file, mean_file_offsets, nd_prefix_name, output, pretrained_model_name, saved_model_dir, saved_model_tags, scale, tensorboard_logdir, tensorflow_custom_layer_libraries, tensorflow_custom_operations_config_update, tensorflow_object_detection_api_pipeline_config, tensorflow_use_custom_operations_config, transformations_config"/>
		</cli_parameters>
	</meta_data>
	<quantization_parameters>
		<config>{
		'compression': {
			'target_device': 'CPU',
			'algorithms': [
				{
					'name': 'AccuracyAwareQuantization',
					'params': {
						'preset': 'performance',
						'stat_subset_size': 300,
						'metric_subset_ratio': 0.2,
						'max_iter_num': 20,
						'maximal_drop': 0.01,
						'drop_type': 'relative',
						'metrics': [
							{
								'name': 'accuracy @ top1',
								'baseline_value': 0.7517
							},
							{
								'name': 'accuracy @ top5',
								'baseline_value': 0.922
							}
						]
					}
				}
			]
		},
		'engine': {
			'models': [
				{
					'name': 'resnet_v1_50',
					'launchers': [
						{
							'framework': 'dlsdk',
							'device': 'CPU',
							'adapter': 'classification'
						}
					],
					'datasets': [
						{
							'name': 'ImageNet2012',
							'data_source': 'PATH',
							'annotation': 'PATH',
							'dataset_meta': 'PATH',
							'annotation_conversion': {
								'converter': 'imagenet',
								'annotation_file': 'PATH',
								'labels_file': 'PATH',
								'has_background': false
							},
							'metrics': [
								{
									'name': 'accuracy @ top1',
									'type': 'accuracy',
									'top_k': 1
								},
								{
									'name': 'accuracy @ top5',
									'type': 'accuracy',
									'top_k': 5
								}
							],
							'preprocessing': [
								{
									'type': 'resize',
									'size': 256,
									'aspect_ratio_scale': 'greater'
								},
								{
									'type': 'crop',
									'size': 224
								}
							]
						}
					]
				}
			],
			'stat_requests_number': null,
			'eval_requests_number': null,
			'type': 'accuracy_checker'
		}
	}</config>
		<version value="1.0"/>
		<cli_params value="{'evaluate': False, 'output_dir': 'PATH', 'direct_dump': True, 'log_level': 'DEBUG', 'pbar': False, 'keep_uncompressed_weights': False}"/>
	</quantization_parameters>
</net>
