<?xml version="1.0" ?>
<net name="inception_v3" version="10">
	<layers>
		<layer id="0" name="input" type="Parameter" version="opset1">
			<data element_type="f32" shape="1,3,299,299"/>
			<output>
				<port id="0" precision="FP32">
					<dim>1</dim>
					<dim>3</dim>
					<dim>299</dim>
					<dim>299</dim>
				</port>
			</output>
		</layer>
		<layer id="1" name="input/reverse_input_channels25371/Concat25390_const515_const" type="Const" version="opset1">
			<data element_type="f32" offset="0" shape="1,3,1,1" size="12"/>
			<output>
				<port id="1" precision="FP32">
					<dim>1</dim>
					<dim>3</dim>
					<dim>1</dim>
					<dim>1</dim>
				</port>
			</output>
		</layer>
		<layer id="2" name="Mul_/Fused_Mul_" type="Multiply" version="opset1">
			<input>
				<port id="0">
					<dim>1</dim>
					<dim>3</dim>
					<dim>299</dim>
					<dim>299</dim>
				</port>
				<port id="1">
					<dim>1</dim>
					<dim>3</dim>
					<dim>1</dim>
					<dim>1</dim>
				</port>
			</input>
			<output>
				<port id="2" precision="FP32">
					<dim>1</dim>
					<dim>3</dim>
					<dim>299</dim>
					<dim>299</dim>
				</port>
			</output>
		</layer>
		<layer id="3" name="input/reverse_input_channels25373/Concat25398_const517_const" type="Const" version="opset1">
			<data element_type="f32" offset="12" shape="1,3,1,1" size="12"/>
			<output>
				<port id="1" precision="FP32">
					<dim>1</dim>
					<dim>3</dim>
					<dim>1</dim>
					<dim>1</dim>
				</port>
			</output>
		</layer>
		<layer id="4" name="Add_/Fused_Add_" type="Add" version="opset1">
			<input>
				<port id="0">
					<dim>1</dim>
					<dim>3</dim>
					<dim>299</dim>
					<dim>299</dim>
				</port>
				<port id="1">
					<dim>1</dim>
					<dim>3</dim>
					<dim>1</dim>
					<dim>1</dim>
				</port>
			</input>
			<output>
				<port id="2" precision="FP32">
					<dim>1</dim>
					<dim>3</dim>
					<dim>299</dim>
					<dim>299</dim>
				</port>
			</output>
		</layer>
		<layer id="5" name="19891993_const" type="Const" version="opset1">
			<data element_type="f32" offset="24" shape="" size="4"/>
			<output>
				<port id="1" precision="FP32"/>
			</output>
		</layer>
		<layer id="6" name="19901994_const" type="Const" version="opset1">
			<data element_type="f32" offset="28" shape="" size="4"/>
			<output>
				<port id="1" precision="FP32"/>
			</output>
		</layer>
		<layer id="7" name="19911995_const" type="Const" version="opset1">
			<data element_type="f32" offset="24" shape="" size="4"/>
			<output>
				<port id="1" precision="FP32"/>
			</output>
		</layer>
		<layer id="8" name="19921996_const" type="Const" version="opset1">
			<data element_type="f32" offset="28" shape="" size="4"/>
			<output>
				<port id="1" precision="FP32"/>
			</output>
		</layer>
		<layer id="9" name="InceptionV3/InceptionV3/Conv2d_1a_3x3/Conv2D/fq_input_0" type="FakeQuantize" version="opset1">
			<data levels="256"/>
			<input>
				<port id="0">
					<dim>1</dim>
					<dim>3</dim>
					<dim>299</dim>
					<dim>299</dim>
				</port>
				<port id="1"/>
				<port id="2"/>
				<port id="3"/>
				<port id="4"/>
			</input>
			<output>
				<port id="5" precision="FP32">
					<dim>1</dim>
					<dim>3</dim>
					<dim>299</dim>
					<dim>299</dim>
				</port>
			</output>
		</layer>
		<layer id="10" name="InceptionV3/InceptionV3/Conv2d_1a_3x3/Conv2D/fq_weights_1/Convert_to_float/Cast_010565_const" type="Const" version="opset1">
			<data element_type="u8" offset="32" shape="32,3,3,3" size="864"/>
			<output>
				<port id="1" precision="U8">
					<dim>32</dim>
					<dim>3</dim>
					<dim>3</dim>
					<dim>3</dim>
				</port>
			</output>
		</layer>
		<layer id="11" name="InceptionV3/InceptionV3/Conv2d_1a_3x3/Conv2D/fq_weights_1/Convert_to_float" type="Convert" version="opset1">
			<data destination_type="f32"/>
			<input>
				<port id="0">
					<dim>32</dim>
					<dim>3</dim>
					<dim>3</dim>
					<dim>3</dim>
				</port>
			</input>
			<output>
				<port id="1" precision="FP32">
					<dim>32</dim>
					<dim>3</dim>
					<dim>3</dim>
					<dim>3</dim>
				</port>
			</output>
		</layer>
		<layer id="12" name="InceptionV3/InceptionV3/Conv2d_1a_3x3/Conv2D/fq_weights_1/Copy/out_low8883_const" type="Const" version="opset1">
			<data element_type="f32" offset="896" shape="1" size="4"/>
			<output>
				<port id="1" precision="FP32">
					<dim>1</dim>
				</port>
			</output>
		</layer>
		<layer id="13" name="InceptionV3/InceptionV3/Conv2d_1a_3x3/Conv2D/fq_weights_1/Copy/out_high8884_const" type="Const" version="opset1">
			<data element_type="f32" offset="900" shape="1" size="4"/>
			<output>
				<port id="1" precision="FP32">
					<dim>1</dim>
				</port>
			</output>
		</layer>
		<layer id="14" name="20012005_const" type="Const" version="opset1">
			<data element_type="f32" offset="904" shape="32,1,1,1" size="128"/>
			<output>
				<port id="1" precision="FP32">
					<dim>32</dim>
					<dim>1</dim>
					<dim>1</dim>
					<dim>1</dim>
				</port>
			</output>
		</layer>
		<layer id="15" name="20022006_const" type="Const" version="opset1">
			<data element_type="f32" offset="1032" shape="32,1,1,1" size="128"/>
			<output>
				<port id="1" precision="FP32">
					<dim>32</dim>
					<dim>1</dim>
					<dim>1</dim>
					<dim>1</dim>
				</port>
			</output>
		</layer>
		<layer id="16" name="InceptionV3/InceptionV3/Conv2d_1a_3x3/Conv2D/fq_weights_1" type="FakeQuantize" version="opset1">
			<data levels="255"/>
			<input>
				<port id="0">
					<dim>32</dim>
					<dim>3</dim>
					<dim>3</dim>
					<dim>3</dim>
				</port>
				<port id="1">
					<dim>1</dim>
				</port>
				<port id="2">
					<dim>1</dim>
				</port>
				<port id="3">
					<dim>32</dim>
					<dim>1</dim>
					<dim>1</dim>
					<dim>1</dim>
				</port>
				<port id="4">
					<dim>32</dim>
					<dim>1</dim>
					<dim>1</dim>
					<dim>1</dim>
				</port>
			</input>
			<output>
				<port id="5" precision="FP32">
					<dim>32</dim>
					<dim>3</dim>
					<dim>3</dim>
					<dim>3</dim>
				</port>
			</output>
		</layer>
		<layer id="17" name="InceptionV3/InceptionV3/Conv2d_1a_3x3/Conv2D" type="Convolution" version="opset1">
			<data auto_pad="valid" dilations="1,1" output_padding="0,0" pads_begin="0,0" pads_end="0,0" strides="2,2"/>
			<input>
				<port id="0">
					<dim>1</dim>
					<dim>3</dim>
					<dim>299</dim>
					<dim>299</dim>
				</port>
				<port id="1">
					<dim>32</dim>
					<dim>3</dim>
					<dim>3</dim>
					<dim>3</dim>
				</port>
			</input>
			<output>
				<port id="2" precision="FP32">
					<dim>1</dim>
					<dim>32</dim>
					<dim>149</dim>
					<dim>149</dim>
				</port>
			</output>
		</layer>
		<layer id="18" name="data_add_1727817283/copy_const521_const" type="Const" version="opset1">
			<data element_type="f32" offset="1160" shape="1,32,1,1" size="128"/>
			<output>
				<port id="1" precision="FP32">
					<dim>1</dim>
					<dim>32</dim>
					<dim>1</dim>
					<dim>1</dim>
				</port>
			</output>
		</layer>
		<layer id="19" name="InceptionV3/InceptionV3/Conv2d_1a_3x3/BatchNorm/FusedBatchNormV3/variance/Fused_Add_" type="Add" version="opset1">
			<input>
				<port id="0">
					<dim>1</dim>
					<dim>32</dim>
					<dim>149</dim>
					<dim>149</dim>
				</port>
				<port id="1">
					<dim>1</dim>
					<dim>32</dim>
					<dim>1</dim>
					<dim>1</dim>
				</port>
			</input>
			<output>
				<port id="2" precision="FP32">
					<dim>1</dim>
					<dim>32</dim>
					<dim>149</dim>
					<dim>149</dim>
				</port>
			</output>
		</layer>
		<layer id="20" name="InceptionV3/InceptionV3/Conv2d_1a_3x3/Relu" type="ReLU" version="opset1">
			<input>
				<port id="0">
					<dim>1</dim>
					<dim>32</dim>
					<dim>149</dim>
					<dim>149</dim>
				</port>
			</input>
			<output>
				<port id="1" precision="FP32">
					<dim>1</dim>
					<dim>32</dim>
					<dim>149</dim>
					<dim>149</dim>
				</port>
			</output>
		</layer>
		<layer id="21" name="34293433_const" type="Const" version="opset1">
			<data element_type="f32" offset="1288" shape="" size="4"/>
			<output>
				<port id="1" precision="FP32"/>
			</output>
		</layer>
		<layer id="22" name="34303434_const" type="Const" version="opset1">
			<data element_type="f32" offset="1292" shape="" size="4"/>
			<output>
				<port id="1" precision="FP32"/>
			</output>
		</layer>
		<layer id="23" name="34313435_const" type="Const" version="opset1">
			<data element_type="f32" offset="1288" shape="" size="4"/>
			<output>
				<port id="1" precision="FP32"/>
			</output>
		</layer>
		<layer id="24" name="34323436_const" type="Const" version="opset1">
			<data element_type="f32" offset="1292" shape="" size="4"/>
			<output>
				<port id="1" precision="FP32"/>
			</output>
		</layer>
		<layer id="25" name="InceptionV3/InceptionV3/Conv2d_2a_3x3/Conv2D/fq_input_0" type="FakeQuantize" version="opset1">
			<data levels="256"/>
			<input>
				<port id="0">
					<dim>1</dim>
					<dim>32</dim>
					<dim>149</dim>
					<dim>149</dim>
				</port>
				<port id="1"/>
				<port id="2"/>
				<port id="3"/>
				<port id="4"/>
			</input>
			<output>
				<port id="5" precision="FP32">
					<dim>1</dim>
					<dim>32</dim>
					<dim>149</dim>
					<dim>149</dim>
				</port>
			</output>
		</layer>
		<layer id="26" name="InceptionV3/InceptionV3/Conv2d_2a_3x3/Conv2D/fq_weights_1/Convert_to_float/Cast_010559_const" type="Const" version="opset1">
			<data element_type="u8" offset="1296" shape="32,32,3,3" size="9216"/>
			<output>
				<port id="1" precision="U8">
					<dim>32</dim>
					<dim>32</dim>
					<dim>3</dim>
					<dim>3</dim>
				</port>
			</output>
		</layer>
		<layer id="27" name="InceptionV3/InceptionV3/Conv2d_2a_3x3/Conv2D/fq_weights_1/Convert_to_float" type="Convert" version="opset1">
			<data destination_type="f32"/>
			<input>
				<port id="0">
					<dim>32</dim>
					<dim>32</dim>
					<dim>3</dim>
					<dim>3</dim>
				</port>
			</input>
			<output>
				<port id="1" precision="FP32">
					<dim>32</dim>
					<dim>32</dim>
					<dim>3</dim>
					<dim>3</dim>
				</port>
			</output>
		</layer>
		<layer id="28" name="InceptionV3/InceptionV3/Conv2d_2a_3x3/Conv2D/fq_weights_1/Copy/out_low9339_const" type="Const" version="opset1">
			<data element_type="f32" offset="10512" shape="1" size="4"/>
			<output>
				<port id="1" precision="FP32">
					<dim>1</dim>
				</port>
			</output>
		</layer>
		<layer id="29" name="InceptionV3/InceptionV3/Conv2d_2a_3x3/Conv2D/fq_weights_1/Copy/out_high9340_const" type="Const" version="opset1">
			<data element_type="f32" offset="900" shape="1" size="4"/>
			<output>
				<port id="1" precision="FP32">
					<dim>1</dim>
				</port>
			</output>
		</layer>
		<layer id="30" name="34413445_const" type="Const" version="opset1">
			<data element_type="f32" offset="10516" shape="32,1,1,1" size="128"/>
			<output>
				<port id="1" precision="FP32">
					<dim>32</dim>
					<dim>1</dim>
					<dim>1</dim>
					<dim>1</dim>
				</port>
			</output>
		</layer>
		<layer id="31" name="34423446_const" type="Const" version="opset1">
			<data element_type="f32" offset="10644" shape="32,1,1,1" size="128"/>
			<output>
				<port id="1" precision="FP32">
					<dim>32</dim>
					<dim>1</dim>
					<dim>1</dim>
					<dim>1</dim>
				</port>
			</output>
		</layer>
		<layer id="32" name="InceptionV3/InceptionV3/Conv2d_2a_3x3/Conv2D/fq_weights_1" type="FakeQuantize" version="opset1">
			<data levels="255"/>
			<input>
				<port id="0">
					<dim>32</dim>
					<dim>32</dim>
					<dim>3</dim>
					<dim>3</dim>
				</port>
				<port id="1">
					<dim>1</dim>
				</port>
				<port id="2">
					<dim>1</dim>
				</port>
				<port id="3">
					<dim>32</dim>
					<dim>1</dim>
					<dim>1</dim>
					<dim>1</dim>
				</port>
				<port id="4">
					<dim>32</dim>
					<dim>1</dim>
					<dim>1</dim>
					<dim>1</dim>
				</port>
			</input>
			<output>
				<port id="5" precision="FP32">
					<dim>32</dim>
					<dim>32</dim>
					<dim>3</dim>
					<dim>3</dim>
				</port>
			</output>
		</layer>
		<layer id="33" name="InceptionV3/InceptionV3/Conv2d_2a_3x3/Conv2D" type="Convolution" version="opset1">
			<data auto_pad="valid" dilations="1,1" output_padding="0,0" pads_begin="0,0" pads_end="0,0" strides="1,1"/>
			<input>
				<port id="0">
					<dim>1</dim>
					<dim>32</dim>
					<dim>149</dim>
					<dim>149</dim>
				</port>
				<port id="1">
					<dim>32</dim>
					<dim>32</dim>
					<dim>3</dim>
					<dim>3</dim>
				</port>
			</input>
			<output>
				<port id="2" precision="FP32">
					<dim>1</dim>
					<dim>32</dim>
					<dim>147</dim>
					<dim>147</dim>
				</port>
			</output>
		</layer>
		<layer id="34" name="data_add_1728617291/copy_const526_const" type="Const" version="opset1">
			<data element_type="f32" offset="10772" shape="1,32,1,1" size="128"/>
			<output>
				<port id="1" precision="FP32">
					<dim>1</dim>
					<dim>32</dim>
					<dim>1</dim>
					<dim>1</dim>
				</port>
			</output>
		</layer>
		<layer id="35" name="InceptionV3/InceptionV3/Conv2d_2a_3x3/BatchNorm/FusedBatchNormV3/variance/Fused_Add_" type="Add" version="opset1">
			<input>
				<port id="0">
					<dim>1</dim>
					<dim>32</dim>
					<dim>147</dim>
					<dim>147</dim>
				</port>
				<port id="1">
					<dim>1</dim>
					<dim>32</dim>
					<dim>1</dim>
					<dim>1</dim>
				</port>
			</input>
			<output>
				<port id="2" precision="FP32">
					<dim>1</dim>
					<dim>32</dim>
					<dim>147</dim>
					<dim>147</dim>
				</port>
			</output>
		</layer>
		<layer id="36" name="InceptionV3/InceptionV3/Conv2d_2a_3x3/Relu" type="ReLU" version="opset1">
			<input>
				<port id="0">
					<dim>1</dim>
					<dim>32</dim>
					<dim>147</dim>
					<dim>147</dim>
				</port>
			</input>
			<output>
				<port id="1" precision="FP32">
					<dim>1</dim>
					<dim>32</dim>
					<dim>147</dim>
					<dim>147</dim>
				</port>
			</output>
		</layer>
		<layer id="37" name="26292633_const" type="Const" version="opset1">
			<data element_type="f32" offset="10900" shape="" size="4"/>
			<output>
				<port id="1" precision="FP32"/>
			</output>
		</layer>
		<layer id="38" name="26302634_const" type="Const" version="opset1">
			<data element_type="f32" offset="10904" shape="" size="4"/>
			<output>
				<port id="1" precision="FP32"/>
			</output>
		</layer>
		<layer id="39" name="26312635_const" type="Const" version="opset1">
			<data element_type="f32" offset="10900" shape="" size="4"/>
			<output>
				<port id="1" precision="FP32"/>
			</output>
		</layer>
		<layer id="40" name="26322636_const" type="Const" version="opset1">
			<data element_type="f32" offset="10904" shape="" size="4"/>
			<output>
				<port id="1" precision="FP32"/>
			</output>
		</layer>
		<layer id="41" name="InceptionV3/InceptionV3/Conv2d_2b_3x3/Conv2D/fq_input_0" type="FakeQuantize" version="opset1">
			<data levels="256"/>
			<input>
				<port id="0">
					<dim>1</dim>
					<dim>32</dim>
					<dim>147</dim>
					<dim>147</dim>
				</port>
				<port id="1"/>
				<port id="2"/>
				<port id="3"/>
				<port id="4"/>
			</input>
			<output>
				<port id="5" precision="FP32">
					<dim>1</dim>
					<dim>32</dim>
					<dim>147</dim>
					<dim>147</dim>
				</port>
			</output>
		</layer>
		<layer id="42" name="InceptionV3/InceptionV3/Conv2d_2b_3x3/Conv2D/fq_weights_1/Convert_to_float/Cast_010515_const" type="Const" version="opset1">
			<data element_type="u8" offset="10908" shape="64,32,3,3" size="18432"/>
			<output>
				<port id="1" precision="U8">
					<dim>64</dim>
					<dim>32</dim>
					<dim>3</dim>
					<dim>3</dim>
				</port>
			</output>
		</layer>
		<layer id="43" name="InceptionV3/InceptionV3/Conv2d_2b_3x3/Conv2D/fq_weights_1/Convert_to_float" type="Convert" version="opset1">
			<data destination_type="f32"/>
			<input>
				<port id="0">
					<dim>64</dim>
					<dim>32</dim>
					<dim>3</dim>
					<dim>3</dim>
				</port>
			</input>
			<output>
				<port id="1" precision="FP32">
					<dim>64</dim>
					<dim>32</dim>
					<dim>3</dim>
					<dim>3</dim>
				</port>
			</output>
		</layer>
		<layer id="44" name="InceptionV3/InceptionV3/Conv2d_2b_3x3/Conv2D/fq_weights_1/Copy/out_low8939_const" type="Const" version="opset1">
			<data element_type="f32" offset="29340" shape="1" size="4"/>
			<output>
				<port id="1" precision="FP32">
					<dim>1</dim>
				</port>
			</output>
		</layer>
		<layer id="45" name="InceptionV3/InceptionV3/Conv2d_2b_3x3/Conv2D/fq_weights_1/Copy/out_high8940_const" type="Const" version="opset1">
			<data element_type="f32" offset="900" shape="1" size="4"/>
			<output>
				<port id="1" precision="FP32">
					<dim>1</dim>
				</port>
			</output>
		</layer>
		<layer id="46" name="26412645_const" type="Const" version="opset1">
			<data element_type="f32" offset="29344" shape="64,1,1,1" size="256"/>
			<output>
				<port id="1" precision="FP32">
					<dim>64</dim>
					<dim>1</dim>
					<dim>1</dim>
					<dim>1</dim>
				</port>
			</output>
		</layer>
		<layer id="47" name="26422646_const" type="Const" version="opset1">
			<data element_type="f32" offset="29600" shape="64,1,1,1" size="256"/>
			<output>
				<port id="1" precision="FP32">
					<dim>64</dim>
					<dim>1</dim>
					<dim>1</dim>
					<dim>1</dim>
				</port>
			</output>
		</layer>
		<layer id="48" name="InceptionV3/InceptionV3/Conv2d_2b_3x3/Conv2D/fq_weights_1" type="FakeQuantize" version="opset1">
			<data levels="255"/>
			<input>
				<port id="0">
					<dim>64</dim>
					<dim>32</dim>
					<dim>3</dim>
					<dim>3</dim>
				</port>
				<port id="1">
					<dim>1</dim>
				</port>
				<port id="2">
					<dim>1</dim>
				</port>
				<port id="3">
					<dim>64</dim>
					<dim>1</dim>
					<dim>1</dim>
					<dim>1</dim>
				</port>
				<port id="4">
					<dim>64</dim>
					<dim>1</dim>
					<dim>1</dim>
					<dim>1</dim>
				</port>
			</input>
			<output>
				<port id="5" precision="FP32">
					<dim>64</dim>
					<dim>32</dim>
					<dim>3</dim>
					<dim>3</dim>
				</port>
			</output>
		</layer>
		<layer id="49" name="InceptionV3/InceptionV3/Conv2d_2b_3x3/Conv2D" type="Convolution" version="opset1">
			<data auto_pad="same_upper" dilations="1,1" output_padding="0,0" pads_begin="1,1" pads_end="1,1" strides="1,1"/>
			<input>
				<port id="0">
					<dim>1</dim>
					<dim>32</dim>
					<dim>147</dim>
					<dim>147</dim>
				</port>
				<port id="1">
					<dim>64</dim>
					<dim>32</dim>
					<dim>3</dim>
					<dim>3</dim>
				</port>
			</input>
			<output>
				<port id="2" precision="FP32">
					<dim>1</dim>
					<dim>64</dim>
					<dim>147</dim>
					<dim>147</dim>
				</port>
			</output>
		</layer>
		<layer id="50" name="data_add_1729417299/copy_const531_const" type="Const" version="opset1">
			<data element_type="f32" offset="29856" shape="1,64,1,1" size="256"/>
			<output>
				<port id="1" precision="FP32">
					<dim>1</dim>
					<dim>64</dim>
					<dim>1</dim>
					<dim>1</dim>
				</port>
			</output>
		</layer>
		<layer id="51" name="InceptionV3/InceptionV3/Conv2d_2b_3x3/BatchNorm/FusedBatchNormV3/variance/Fused_Add_" type="Add" version="opset1">
			<input>
				<port id="0">
					<dim>1</dim>
					<dim>64</dim>
					<dim>147</dim>
					<dim>147</dim>
				</port>
				<port id="1">
					<dim>1</dim>
					<dim>64</dim>
					<dim>1</dim>
					<dim>1</dim>
				</port>
			</input>
			<output>
				<port id="2" precision="FP32">
					<dim>1</dim>
					<dim>64</dim>
					<dim>147</dim>
					<dim>147</dim>
				</port>
			</output>
		</layer>
		<layer id="52" name="InceptionV3/InceptionV3/Conv2d_2b_3x3/Relu" type="ReLU" version="opset1">
			<input>
				<port id="0">
					<dim>1</dim>
					<dim>64</dim>
					<dim>147</dim>
					<dim>147</dim>
				</port>
			</input>
			<output>
				<port id="1" precision="FP32">
					<dim>1</dim>
					<dim>64</dim>
					<dim>147</dim>
					<dim>147</dim>
				</port>
			</output>
		</layer>
		<layer id="53" name="46034607_const" type="Const" version="opset1">
			<data element_type="f32" offset="30112" shape="" size="4"/>
			<output>
				<port id="1" precision="FP32"/>
			</output>
		</layer>
		<layer id="54" name="46044608_const" type="Const" version="opset1">
			<data element_type="f32" offset="30116" shape="" size="4"/>
			<output>
				<port id="1" precision="FP32"/>
			</output>
		</layer>
		<layer id="55" name="46054609_const" type="Const" version="opset1">
			<data element_type="f32" offset="30112" shape="" size="4"/>
			<output>
				<port id="1" precision="FP32"/>
			</output>
		</layer>
		<layer id="56" name="46064610_const" type="Const" version="opset1">
			<data element_type="f32" offset="30116" shape="" size="4"/>
			<output>
				<port id="1" precision="FP32"/>
			</output>
		</layer>
		<layer id="57" name="InceptionV3/InceptionV3/MaxPool_3a_3x3/MaxPool/fq_input_0" type="FakeQuantize" version="opset1">
			<data levels="256"/>
			<input>
				<port id="0">
					<dim>1</dim>
					<dim>64</dim>
					<dim>147</dim>
					<dim>147</dim>
				</port>
				<port id="1"/>
				<port id="2"/>
				<port id="3"/>
				<port id="4"/>
			</input>
			<output>
				<port id="5" precision="FP32">
					<dim>1</dim>
					<dim>64</dim>
					<dim>147</dim>
					<dim>147</dim>
				</port>
			</output>
		</layer>
		<layer id="58" name="InceptionV3/InceptionV3/MaxPool_3a_3x3/MaxPool" type="MaxPool" version="opset1">
			<data auto_pad="valid" kernel="3,3" pads_begin="0,0" pads_end="0,0" strides="2,2"/>
			<input>
				<port id="0">
					<dim>1</dim>
					<dim>64</dim>
					<dim>147</dim>
					<dim>147</dim>
				</port>
			</input>
			<output>
				<port id="1" precision="FP32">
					<dim>1</dim>
					<dim>64</dim>
					<dim>73</dim>
					<dim>73</dim>
				</port>
			</output>
		</layer>
		<layer id="59" name="InceptionV3/InceptionV3/Conv2d_3b_1x1/Conv2D/fq_weights_1/Convert_to_float/Cast_010473_const" type="Const" version="opset1">
			<data element_type="u8" offset="30120" shape="80,64,1,1" size="5120"/>
			<output>
				<port id="1" precision="U8">
					<dim>80</dim>
					<dim>64</dim>
					<dim>1</dim>
					<dim>1</dim>
				</port>
			</output>
		</layer>
		<layer id="60" name="InceptionV3/InceptionV3/Conv2d_3b_1x1/Conv2D/fq_weights_1/Convert_to_float" type="Convert" version="opset1">
			<data destination_type="f32"/>
			<input>
				<port id="0">
					<dim>80</dim>
					<dim>64</dim>
					<dim>1</dim>
					<dim>1</dim>
				</port>
			</input>
			<output>
				<port id="1" precision="FP32">
					<dim>80</dim>
					<dim>64</dim>
					<dim>1</dim>
					<dim>1</dim>
				</port>
			</output>
		</layer>
		<layer id="61" name="InceptionV3/InceptionV3/Conv2d_3b_1x1/Conv2D/fq_weights_1/Copy/out_low8987_const" type="Const" version="opset1">
			<data element_type="f32" offset="35240" shape="1" size="4"/>
			<output>
				<port id="1" precision="FP32">
					<dim>1</dim>
				</port>
			</output>
		</layer>
		<layer id="62" name="InceptionV3/InceptionV3/Conv2d_3b_1x1/Conv2D/fq_weights_1/Copy/out_high8988_const" type="Const" version="opset1">
			<data element_type="f32" offset="900" shape="1" size="4"/>
			<output>
				<port id="1" precision="FP32">
					<dim>1</dim>
				</port>
			</output>
		</layer>
		<layer id="63" name="27012705_const" type="Const" version="opset1">
			<data element_type="f32" offset="35244" shape="80,1,1,1" size="320"/>
			<output>
				<port id="1" precision="FP32">
					<dim>80</dim>
					<dim>1</dim>
					<dim>1</dim>
					<dim>1</dim>
				</port>
			</output>
		</layer>
		<layer id="64" name="27022706_const" type="Const" version="opset1">
			<data element_type="f32" offset="35564" shape="80,1,1,1" size="320"/>
			<output>
				<port id="1" precision="FP32">
					<dim>80</dim>
					<dim>1</dim>
					<dim>1</dim>
					<dim>1</dim>
				</port>
			</output>
		</layer>
		<layer id="65" name="InceptionV3/InceptionV3/Conv2d_3b_1x1/Conv2D/fq_weights_1" type="FakeQuantize" version="opset1">
			<data levels="255"/>
			<input>
				<port id="0">
					<dim>80</dim>
					<dim>64</dim>
					<dim>1</dim>
					<dim>1</dim>
				</port>
				<port id="1">
					<dim>1</dim>
				</port>
				<port id="2">
					<dim>1</dim>
				</port>
				<port id="3">
					<dim>80</dim>
					<dim>1</dim>
					<dim>1</dim>
					<dim>1</dim>
				</port>
				<port id="4">
					<dim>80</dim>
					<dim>1</dim>
					<dim>1</dim>
					<dim>1</dim>
				</port>
			</input>
			<output>
				<port id="5" precision="FP32">
					<dim>80</dim>
					<dim>64</dim>
					<dim>1</dim>
					<dim>1</dim>
				</port>
			</output>
		</layer>
		<layer id="66" name="InceptionV3/InceptionV3/Conv2d_3b_1x1/Conv2D" type="Convolution" version="opset1">
			<data auto_pad="valid" dilations="1,1" output_padding="0,0" pads_begin="0,0" pads_end="0,0" strides="1,1"/>
			<input>
				<port id="0">
					<dim>1</dim>
					<dim>64</dim>
					<dim>73</dim>
					<dim>73</dim>
				</port>
				<port id="1">
					<dim>80</dim>
					<dim>64</dim>
					<dim>1</dim>
					<dim>1</dim>
				</port>
			</input>
			<output>
				<port id="2" precision="FP32">
					<dim>1</dim>
					<dim>80</dim>
					<dim>73</dim>
					<dim>73</dim>
				</port>
			</output>
		</layer>
		<layer id="67" name="data_add_1730217307/copy_const537_const" type="Const" version="opset1">
			<data element_type="f32" offset="35884" shape="1,80,1,1" size="320"/>
			<output>
				<port id="1" precision="FP32">
					<dim>1</dim>
					<dim>80</dim>
					<dim>1</dim>
					<dim>1</dim>
				</port>
			</output>
		</layer>
		<layer id="68" name="InceptionV3/InceptionV3/Conv2d_3b_1x1/BatchNorm/FusedBatchNormV3/variance/Fused_Add_" type="Add" version="opset1">
			<input>
				<port id="0">
					<dim>1</dim>
					<dim>80</dim>
					<dim>73</dim>
					<dim>73</dim>
				</port>
				<port id="1">
					<dim>1</dim>
					<dim>80</dim>
					<dim>1</dim>
					<dim>1</dim>
				</port>
			</input>
			<output>
				<port id="2" precision="FP32">
					<dim>1</dim>
					<dim>80</dim>
					<dim>73</dim>
					<dim>73</dim>
				</port>
			</output>
		</layer>
		<layer id="69" name="InceptionV3/InceptionV3/Conv2d_3b_1x1/Relu" type="ReLU" version="opset1">
			<input>
				<port id="0">
					<dim>1</dim>
					<dim>80</dim>
					<dim>73</dim>
					<dim>73</dim>
				</port>
			</input>
			<output>
				<port id="1" precision="FP32">
					<dim>1</dim>
					<dim>80</dim>
					<dim>73</dim>
					<dim>73</dim>
				</port>
			</output>
		</layer>
		<layer id="70" name="25892593_const" type="Const" version="opset1">
			<data element_type="f32" offset="36204" shape="" size="4"/>
			<output>
				<port id="1" precision="FP32"/>
			</output>
		</layer>
		<layer id="71" name="25902594_const" type="Const" version="opset1">
			<data element_type="f32" offset="36208" shape="" size="4"/>
			<output>
				<port id="1" precision="FP32"/>
			</output>
		</layer>
		<layer id="72" name="25912595_const" type="Const" version="opset1">
			<data element_type="f32" offset="36204" shape="" size="4"/>
			<output>
				<port id="1" precision="FP32"/>
			</output>
		</layer>
		<layer id="73" name="25922596_const" type="Const" version="opset1">
			<data element_type="f32" offset="36208" shape="" size="4"/>
			<output>
				<port id="1" precision="FP32"/>
			</output>
		</layer>
		<layer id="74" name="InceptionV3/InceptionV3/Conv2d_4a_3x3/Conv2D/fq_input_0" type="FakeQuantize" version="opset1">
			<data levels="256"/>
			<input>
				<port id="0">
					<dim>1</dim>
					<dim>80</dim>
					<dim>73</dim>
					<dim>73</dim>
				</port>
				<port id="1"/>
				<port id="2"/>
				<port id="3"/>
				<port id="4"/>
			</input>
			<output>
				<port id="5" precision="FP32">
					<dim>1</dim>
					<dim>80</dim>
					<dim>73</dim>
					<dim>73</dim>
				</port>
			</output>
		</layer>
		<layer id="75" name="InceptionV3/InceptionV3/Conv2d_4a_3x3/Conv2D/fq_weights_1/Convert_to_float/Cast_010441_const" type="Const" version="opset1">
			<data element_type="u8" offset="36212" shape="192,80,3,3" size="138240"/>
			<output>
				<port id="1" precision="U8">
					<dim>192</dim>
					<dim>80</dim>
					<dim>3</dim>
					<dim>3</dim>
				</port>
			</output>
		</layer>
		<layer id="76" name="InceptionV3/InceptionV3/Conv2d_4a_3x3/Conv2D/fq_weights_1/Convert_to_float" type="Convert" version="opset1">
			<data destination_type="f32"/>
			<input>
				<port id="0">
					<dim>192</dim>
					<dim>80</dim>
					<dim>3</dim>
					<dim>3</dim>
				</port>
			</input>
			<output>
				<port id="1" precision="FP32">
					<dim>192</dim>
					<dim>80</dim>
					<dim>3</dim>
					<dim>3</dim>
				</port>
			</output>
		</layer>
		<layer id="77" name="InceptionV3/InceptionV3/Conv2d_4a_3x3/Conv2D/fq_weights_1/Copy/out_low9091_const" type="Const" version="opset1">
			<data element_type="f32" offset="174452" shape="1" size="4"/>
			<output>
				<port id="1" precision="FP32">
					<dim>1</dim>
				</port>
			</output>
		</layer>
		<layer id="78" name="InceptionV3/InceptionV3/Conv2d_4a_3x3/Conv2D/fq_weights_1/Copy/out_high9092_const" type="Const" version="opset1">
			<data element_type="f32" offset="900" shape="1" size="4"/>
			<output>
				<port id="1" precision="FP32">
					<dim>1</dim>
				</port>
			</output>
		</layer>
		<layer id="79" name="26012605_const" type="Const" version="opset1">
			<data element_type="f32" offset="174456" shape="192,1,1,1" size="768"/>
			<output>
				<port id="1" precision="FP32">
					<dim>192</dim>
					<dim>1</dim>
					<dim>1</dim>
					<dim>1</dim>
				</port>
			</output>
		</layer>
		<layer id="80" name="26022606_const" type="Const" version="opset1">
			<data element_type="f32" offset="175224" shape="192,1,1,1" size="768"/>
			<output>
				<port id="1" precision="FP32">
					<dim>192</dim>
					<dim>1</dim>
					<dim>1</dim>
					<dim>1</dim>
				</port>
			</output>
		</layer>
		<layer id="81" name="InceptionV3/InceptionV3/Conv2d_4a_3x3/Conv2D/fq_weights_1" type="FakeQuantize" version="opset1">
			<data levels="255"/>
			<input>
				<port id="0">
					<dim>192</dim>
					<dim>80</dim>
					<dim>3</dim>
					<dim>3</dim>
				</port>
				<port id="1">
					<dim>1</dim>
				</port>
				<port id="2">
					<dim>1</dim>
				</port>
				<port id="3">
					<dim>192</dim>
					<dim>1</dim>
					<dim>1</dim>
					<dim>1</dim>
				</port>
				<port id="4">
					<dim>192</dim>
					<dim>1</dim>
					<dim>1</dim>
					<dim>1</dim>
				</port>
			</input>
			<output>
				<port id="5" precision="FP32">
					<dim>192</dim>
					<dim>80</dim>
					<dim>3</dim>
					<dim>3</dim>
				</port>
			</output>
		</layer>
		<layer id="82" name="InceptionV3/InceptionV3/Conv2d_4a_3x3/Conv2D" type="Convolution" version="opset1">
			<data auto_pad="valid" dilations="1,1" output_padding="0,0" pads_begin="0,0" pads_end="0,0" strides="1,1"/>
			<input>
				<port id="0">
					<dim>1</dim>
					<dim>80</dim>
					<dim>73</dim>
					<dim>73</dim>
				</port>
				<port id="1">
					<dim>192</dim>
					<dim>80</dim>
					<dim>3</dim>
					<dim>3</dim>
				</port>
			</input>
			<output>
				<port id="2" precision="FP32">
					<dim>1</dim>
					<dim>192</dim>
					<dim>71</dim>
					<dim>71</dim>
				</port>
			</output>
		</layer>
		<layer id="83" name="data_add_1731017315/copy_const542_const" type="Const" version="opset1">
			<data element_type="f32" offset="175992" shape="1,192,1,1" size="768"/>
			<output>
				<port id="1" precision="FP32">
					<dim>1</dim>
					<dim>192</dim>
					<dim>1</dim>
					<dim>1</dim>
				</port>
			</output>
		</layer>
		<layer id="84" name="InceptionV3/InceptionV3/Conv2d_4a_3x3/BatchNorm/FusedBatchNormV3/variance/Fused_Add_" type="Add" version="opset1">
			<input>
				<port id="0">
					<dim>1</dim>
					<dim>192</dim>
					<dim>71</dim>
					<dim>71</dim>
				</port>
				<port id="1">
					<dim>1</dim>
					<dim>192</dim>
					<dim>1</dim>
					<dim>1</dim>
				</port>
			</input>
			<output>
				<port id="2" precision="FP32">
					<dim>1</dim>
					<dim>192</dim>
					<dim>71</dim>
					<dim>71</dim>
				</port>
			</output>
		</layer>
		<layer id="85" name="InceptionV3/InceptionV3/Conv2d_4a_3x3/Relu" type="ReLU" version="opset1">
			<input>
				<port id="0">
					<dim>1</dim>
					<dim>192</dim>
					<dim>71</dim>
					<dim>71</dim>
				</port>
			</input>
			<output>
				<port id="1" precision="FP32">
					<dim>1</dim>
					<dim>192</dim>
					<dim>71</dim>
					<dim>71</dim>
				</port>
			</output>
		</layer>
		<layer id="86" name="46134617_const" type="Const" version="opset1">
			<data element_type="f32" offset="176760" shape="" size="4"/>
			<output>
				<port id="1" precision="FP32"/>
			</output>
		</layer>
		<layer id="87" name="46144618_const" type="Const" version="opset1">
			<data element_type="f32" offset="176764" shape="" size="4"/>
			<output>
				<port id="1" precision="FP32"/>
			</output>
		</layer>
		<layer id="88" name="46154619_const" type="Const" version="opset1">
			<data element_type="f32" offset="176760" shape="" size="4"/>
			<output>
				<port id="1" precision="FP32"/>
			</output>
		</layer>
		<layer id="89" name="46164620_const" type="Const" version="opset1">
			<data element_type="f32" offset="176764" shape="" size="4"/>
			<output>
				<port id="1" precision="FP32"/>
			</output>
		</layer>
		<layer id="90" name="InceptionV3/InceptionV3/MaxPool_5a_3x3/MaxPool/fq_input_0" type="FakeQuantize" version="opset1">
			<data levels="256"/>
			<input>
				<port id="0">
					<dim>1</dim>
					<dim>192</dim>
					<dim>71</dim>
					<dim>71</dim>
				</port>
				<port id="1"/>
				<port id="2"/>
				<port id="3"/>
				<port id="4"/>
			</input>
			<output>
				<port id="5" precision="FP32">
					<dim>1</dim>
					<dim>192</dim>
					<dim>71</dim>
					<dim>71</dim>
				</port>
			</output>
		</layer>
		<layer id="91" name="InceptionV3/InceptionV3/MaxPool_5a_3x3/MaxPool" type="MaxPool" version="opset1">
			<data auto_pad="valid" kernel="3,3" pads_begin="0,0" pads_end="0,0" strides="2,2"/>
			<input>
				<port id="0">
					<dim>1</dim>
					<dim>192</dim>
					<dim>71</dim>
					<dim>71</dim>
				</port>
			</input>
			<output>
				<port id="1" precision="FP32">
					<dim>1</dim>
					<dim>192</dim>
					<dim>35</dim>
					<dim>35</dim>
				</port>
			</output>
		</layer>
		<layer id="92" name="InceptionV3/InceptionV3/Mixed_5b/Branch_0/Conv2d_0a_1x1/Conv2D/fq_weights_1/Convert_to_float/Cast_010453_const" type="Const" version="opset1">
			<data element_type="u8" offset="176768" shape="64,192,1,1" size="12288"/>
			<output>
				<port id="1" precision="U8">
					<dim>64</dim>
					<dim>192</dim>
					<dim>1</dim>
					<dim>1</dim>
				</port>
			</output>
		</layer>
		<layer id="93" name="InceptionV3/InceptionV3/Mixed_5b/Branch_0/Conv2d_0a_1x1/Conv2D/fq_weights_1/Convert_to_float" type="Convert" version="opset1">
			<data destination_type="f32"/>
			<input>
				<port id="0">
					<dim>64</dim>
					<dim>192</dim>
					<dim>1</dim>
					<dim>1</dim>
				</port>
			</input>
			<output>
				<port id="1" precision="FP32">
					<dim>64</dim>
					<dim>192</dim>
					<dim>1</dim>
					<dim>1</dim>
				</port>
			</output>
		</layer>
		<layer id="94" name="InceptionV3/InceptionV3/Mixed_5b/Branch_0/Conv2d_0a_1x1/Conv2D/fq_weights_1/Copy/out_low9379_const" type="Const" version="opset1">
			<data element_type="f32" offset="189056" shape="1" size="4"/>
			<output>
				<port id="1" precision="FP32">
					<dim>1</dim>
				</port>
			</output>
		</layer>
		<layer id="95" name="InceptionV3/InceptionV3/Mixed_5b/Branch_0/Conv2d_0a_1x1/Conv2D/fq_weights_1/Copy/out_high9380_const" type="Const" version="opset1">
			<data element_type="f32" offset="900" shape="1" size="4"/>
			<output>
				<port id="1" precision="FP32">
					<dim>1</dim>
				</port>
			</output>
		</layer>
		<layer id="96" name="23312335_const" type="Const" version="opset1">
			<data element_type="f32" offset="189060" shape="64,1,1,1" size="256"/>
			<output>
				<port id="1" precision="FP32">
					<dim>64</dim>
					<dim>1</dim>
					<dim>1</dim>
					<dim>1</dim>
				</port>
			</output>
		</layer>
		<layer id="97" name="23322336_const" type="Const" version="opset1">
			<data element_type="f32" offset="189316" shape="64,1,1,1" size="256"/>
			<output>
				<port id="1" precision="FP32">
					<dim>64</dim>
					<dim>1</dim>
					<dim>1</dim>
					<dim>1</dim>
				</port>
			</output>
		</layer>
		<layer id="98" name="InceptionV3/InceptionV3/Mixed_5b/Branch_0/Conv2d_0a_1x1/Conv2D/fq_weights_1" type="FakeQuantize" version="opset1">
			<data levels="255"/>
			<input>
				<port id="0">
					<dim>64</dim>
					<dim>192</dim>
					<dim>1</dim>
					<dim>1</dim>
				</port>
				<port id="1">
					<dim>1</dim>
				</port>
				<port id="2">
					<dim>1</dim>
				</port>
				<port id="3">
					<dim>64</dim>
					<dim>1</dim>
					<dim>1</dim>
					<dim>1</dim>
				</port>
				<port id="4">
					<dim>64</dim>
					<dim>1</dim>
					<dim>1</dim>
					<dim>1</dim>
				</port>
			</input>
			<output>
				<port id="5" precision="FP32">
					<dim>64</dim>
					<dim>192</dim>
					<dim>1</dim>
					<dim>1</dim>
				</port>
			</output>
		</layer>
		<layer id="99" name="InceptionV3/InceptionV3/Mixed_5b/Branch_0/Conv2d_0a_1x1/Conv2D" type="Convolution" version="opset1">
			<data auto_pad="same_upper" dilations="1,1" output_padding="0,0" pads_begin="0,0" pads_end="0,0" strides="1,1"/>
			<input>
				<port id="0">
					<dim>1</dim>
					<dim>192</dim>
					<dim>35</dim>
					<dim>35</dim>
				</port>
				<port id="1">
					<dim>64</dim>
					<dim>192</dim>
					<dim>1</dim>
					<dim>1</dim>
				</port>
			</input>
			<output>
				<port id="2" precision="FP32">
					<dim>1</dim>
					<dim>64</dim>
					<dim>35</dim>
					<dim>35</dim>
				</port>
			</output>
		</layer>
		<layer id="100" name="data_add_1736617371/copy_const548_const" type="Const" version="opset1">
			<data element_type="f32" offset="189572" shape="1,64,1,1" size="256"/>
			<output>
				<port id="1" precision="FP32">
					<dim>1</dim>
					<dim>64</dim>
					<dim>1</dim>
					<dim>1</dim>
				</port>
			</output>
		</layer>
		<layer id="101" name="InceptionV3/InceptionV3/Mixed_5b/Branch_0/Conv2d_0a_1x1/BatchNorm/FusedBatchNormV3/variance/Fused_Add_" type="Add" version="opset1">
			<input>
				<port id="0">
					<dim>1</dim>
					<dim>64</dim>
					<dim>35</dim>
					<dim>35</dim>
				</port>
				<port id="1">
					<dim>1</dim>
					<dim>64</dim>
					<dim>1</dim>
					<dim>1</dim>
				</port>
			</input>
			<output>
				<port id="2" precision="FP32">
					<dim>1</dim>
					<dim>64</dim>
					<dim>35</dim>
					<dim>35</dim>
				</port>
			</output>
		</layer>
		<layer id="102" name="InceptionV3/InceptionV3/Mixed_5b/Branch_0/Conv2d_0a_1x1/Relu" type="ReLU" version="opset1">
			<input>
				<port id="0">
					<dim>1</dim>
					<dim>64</dim>
					<dim>35</dim>
					<dim>35</dim>
				</port>
			</input>
			<output>
				<port id="1" precision="FP32">
					<dim>1</dim>
					<dim>64</dim>
					<dim>35</dim>
					<dim>35</dim>
				</port>
			</output>
		</layer>
		<layer id="103" name="46534657_const" type="Const" version="opset1">
			<data element_type="f32" offset="189828" shape="" size="4"/>
			<output>
				<port id="1" precision="FP32"/>
			</output>
		</layer>
		<layer id="104" name="46544658_const" type="Const" version="opset1">
			<data element_type="f32" offset="189832" shape="" size="4"/>
			<output>
				<port id="1" precision="FP32"/>
			</output>
		</layer>
		<layer id="105" name="46554659_const" type="Const" version="opset1">
			<data element_type="f32" offset="189828" shape="" size="4"/>
			<output>
				<port id="1" precision="FP32"/>
			</output>
		</layer>
		<layer id="106" name="46564660_const" type="Const" version="opset1">
			<data element_type="f32" offset="189832" shape="" size="4"/>
			<output>
				<port id="1" precision="FP32"/>
			</output>
		</layer>
		<layer id="107" name="InceptionV3/InceptionV3/Mixed_5b/concat/fq_input_0" type="FakeQuantize" version="opset1">
			<data levels="256"/>
			<input>
				<port id="0">
					<dim>1</dim>
					<dim>64</dim>
					<dim>35</dim>
					<dim>35</dim>
				</port>
				<port id="1"/>
				<port id="2"/>
				<port id="3"/>
				<port id="4"/>
			</input>
			<output>
				<port id="5" precision="FP32">
					<dim>1</dim>
					<dim>64</dim>
					<dim>35</dim>
					<dim>35</dim>
				</port>
			</output>
		</layer>
		<layer id="108" name="InceptionV3/InceptionV3/Mixed_5b/Branch_1/Conv2d_0a_1x1/Conv2D/fq_weights_1/Convert_to_float/Cast_010437_const" type="Const" version="opset1">
			<data element_type="u8" offset="189836" shape="48,192,1,1" size="9216"/>
			<output>
				<port id="1" precision="U8">
					<dim>48</dim>
					<dim>192</dim>
					<dim>1</dim>
					<dim>1</dim>
				</port>
			</output>
		</layer>
		<layer id="109" name="InceptionV3/InceptionV3/Mixed_5b/Branch_1/Conv2d_0a_1x1/Conv2D/fq_weights_1/Convert_to_float" type="Convert" version="opset1">
			<data destination_type="f32"/>
			<input>
				<port id="0">
					<dim>48</dim>
					<dim>192</dim>
					<dim>1</dim>
					<dim>1</dim>
				</port>
			</input>
			<output>
				<port id="1" precision="FP32">
					<dim>48</dim>
					<dim>192</dim>
					<dim>1</dim>
					<dim>1</dim>
				</port>
			</output>
		</layer>
		<layer id="110" name="InceptionV3/InceptionV3/Mixed_5b/Branch_1/Conv2d_0a_1x1/Conv2D/fq_weights_1/Copy/out_low9115_const" type="Const" version="opset1">
			<data element_type="f32" offset="199052" shape="1" size="4"/>
			<output>
				<port id="1" precision="FP32">
					<dim>1</dim>
				</port>
			</output>
		</layer>
		<layer id="111" name="InceptionV3/InceptionV3/Mixed_5b/Branch_1/Conv2d_0a_1x1/Conv2D/fq_weights_1/Copy/out_high9116_const" type="Const" version="opset1">
			<data element_type="f32" offset="900" shape="1" size="4"/>
			<output>
				<port id="1" precision="FP32">
					<dim>1</dim>
				</port>
			</output>
		</layer>
		<layer id="112" name="32413245_const" type="Const" version="opset1">
			<data element_type="f32" offset="199056" shape="48,1,1,1" size="192"/>
			<output>
				<port id="1" precision="FP32">
					<dim>48</dim>
					<dim>1</dim>
					<dim>1</dim>
					<dim>1</dim>
				</port>
			</output>
		</layer>
		<layer id="113" name="32423246_const" type="Const" version="opset1">
			<data element_type="f32" offset="199248" shape="48,1,1,1" size="192"/>
			<output>
				<port id="1" precision="FP32">
					<dim>48</dim>
					<dim>1</dim>
					<dim>1</dim>
					<dim>1</dim>
				</port>
			</output>
		</layer>
		<layer id="114" name="InceptionV3/InceptionV3/Mixed_5b/Branch_1/Conv2d_0a_1x1/Conv2D/fq_weights_1" type="FakeQuantize" version="opset1">
			<data levels="255"/>
			<input>
				<port id="0">
					<dim>48</dim>
					<dim>192</dim>
					<dim>1</dim>
					<dim>1</dim>
				</port>
				<port id="1">
					<dim>1</dim>
				</port>
				<port id="2">
					<dim>1</dim>
				</port>
				<port id="3">
					<dim>48</dim>
					<dim>1</dim>
					<dim>1</dim>
					<dim>1</dim>
				</port>
				<port id="4">
					<dim>48</dim>
					<dim>1</dim>
					<dim>1</dim>
					<dim>1</dim>
				</port>
			</input>
			<output>
				<port id="5" precision="FP32">
					<dim>48</dim>
					<dim>192</dim>
					<dim>1</dim>
					<dim>1</dim>
				</port>
			</output>
		</layer>
		<layer id="115" name="InceptionV3/InceptionV3/Mixed_5b/Branch_1/Conv2d_0a_1x1/Conv2D" type="Convolution" version="opset1">
			<data auto_pad="same_upper" dilations="1,1" output_padding="0,0" pads_begin="0,0" pads_end="0,0" strides="1,1"/>
			<input>
				<port id="0">
					<dim>1</dim>
					<dim>192</dim>
					<dim>35</dim>
					<dim>35</dim>
				</port>
				<port id="1">
					<dim>48</dim>
					<dim>192</dim>
					<dim>1</dim>
					<dim>1</dim>
				</port>
			</input>
			<output>
				<port id="2" precision="FP32">
					<dim>1</dim>
					<dim>48</dim>
					<dim>35</dim>
					<dim>35</dim>
				</port>
			</output>
		</layer>
		<layer id="116" name="data_add_1735017355/copy_const553_const" type="Const" version="opset1">
			<data element_type="f32" offset="199440" shape="1,48,1,1" size="192"/>
			<output>
				<port id="1" precision="FP32">
					<dim>1</dim>
					<dim>48</dim>
					<dim>1</dim>
					<dim>1</dim>
				</port>
			</output>
		</layer>
		<layer id="117" name="InceptionV3/InceptionV3/Mixed_5b/Branch_1/Conv2d_0a_1x1/BatchNorm/FusedBatchNormV3/variance/Fused_Add_" type="Add" version="opset1">
			<input>
				<port id="0">
					<dim>1</dim>
					<dim>48</dim>
					<dim>35</dim>
					<dim>35</dim>
				</port>
				<port id="1">
					<dim>1</dim>
					<dim>48</dim>
					<dim>1</dim>
					<dim>1</dim>
				</port>
			</input>
			<output>
				<port id="2" precision="FP32">
					<dim>1</dim>
					<dim>48</dim>
					<dim>35</dim>
					<dim>35</dim>
				</port>
			</output>
		</layer>
		<layer id="118" name="InceptionV3/InceptionV3/Mixed_5b/Branch_1/Conv2d_0a_1x1/Relu" type="ReLU" version="opset1">
			<input>
				<port id="0">
					<dim>1</dim>
					<dim>48</dim>
					<dim>35</dim>
					<dim>35</dim>
				</port>
			</input>
			<output>
				<port id="1" precision="FP32">
					<dim>1</dim>
					<dim>48</dim>
					<dim>35</dim>
					<dim>35</dim>
				</port>
			</output>
		</layer>
		<layer id="119" name="29292933_const" type="Const" version="opset1">
			<data element_type="f32" offset="199632" shape="" size="4"/>
			<output>
				<port id="1" precision="FP32"/>
			</output>
		</layer>
		<layer id="120" name="29302934_const" type="Const" version="opset1">
			<data element_type="f32" offset="199636" shape="" size="4"/>
			<output>
				<port id="1" precision="FP32"/>
			</output>
		</layer>
		<layer id="121" name="29312935_const" type="Const" version="opset1">
			<data element_type="f32" offset="199632" shape="" size="4"/>
			<output>
				<port id="1" precision="FP32"/>
			</output>
		</layer>
		<layer id="122" name="29322936_const" type="Const" version="opset1">
			<data element_type="f32" offset="199636" shape="" size="4"/>
			<output>
				<port id="1" precision="FP32"/>
			</output>
		</layer>
		<layer id="123" name="InceptionV3/InceptionV3/Mixed_5b/Branch_1/Conv2d_0b_5x5/Conv2D/fq_input_0" type="FakeQuantize" version="opset1">
			<data levels="256"/>
			<input>
				<port id="0">
					<dim>1</dim>
					<dim>48</dim>
					<dim>35</dim>
					<dim>35</dim>
				</port>
				<port id="1"/>
				<port id="2"/>
				<port id="3"/>
				<port id="4"/>
			</input>
			<output>
				<port id="5" precision="FP32">
					<dim>1</dim>
					<dim>48</dim>
					<dim>35</dim>
					<dim>35</dim>
				</port>
			</output>
		</layer>
		<layer id="124" name="InceptionV3/InceptionV3/Mixed_5b/Branch_1/Conv2d_0b_5x5/Conv2D/fq_weights_1/Convert_to_float/Cast_010469_const" type="Const" version="opset1">
			<data element_type="u8" offset="199640" shape="64,48,5,5" size="76800"/>
			<output>
				<port id="1" precision="U8">
					<dim>64</dim>
					<dim>48</dim>
					<dim>5</dim>
					<dim>5</dim>
				</port>
			</output>
		</layer>
		<layer id="125" name="InceptionV3/InceptionV3/Mixed_5b/Branch_1/Conv2d_0b_5x5/Conv2D/fq_weights_1/Convert_to_float" type="Convert" version="opset1">
			<data destination_type="f32"/>
			<input>
				<port id="0">
					<dim>64</dim>
					<dim>48</dim>
					<dim>5</dim>
					<dim>5</dim>
				</port>
			</input>
			<output>
				<port id="1" precision="FP32">
					<dim>64</dim>
					<dim>48</dim>
					<dim>5</dim>
					<dim>5</dim>
				</port>
			</output>
		</layer>
		<layer id="126" name="InceptionV3/InceptionV3/Mixed_5b/Branch_1/Conv2d_0b_5x5/Conv2D/fq_weights_1/Copy/out_low9283_const" type="Const" version="opset1">
			<data element_type="f32" offset="276440" shape="1" size="4"/>
			<output>
				<port id="1" precision="FP32">
					<dim>1</dim>
				</port>
			</output>
		</layer>
		<layer id="127" name="InceptionV3/InceptionV3/Mixed_5b/Branch_1/Conv2d_0b_5x5/Conv2D/fq_weights_1/Copy/out_high9284_const" type="Const" version="opset1">
			<data element_type="f32" offset="900" shape="1" size="4"/>
			<output>
				<port id="1" precision="FP32">
					<dim>1</dim>
				</port>
			</output>
		</layer>
		<layer id="128" name="29412945_const" type="Const" version="opset1">
			<data element_type="f32" offset="276444" shape="64,1,1,1" size="256"/>
			<output>
				<port id="1" precision="FP32">
					<dim>64</dim>
					<dim>1</dim>
					<dim>1</dim>
					<dim>1</dim>
				</port>
			</output>
		</layer>
		<layer id="129" name="29422946_const" type="Const" version="opset1">
			<data element_type="f32" offset="276700" shape="64,1,1,1" size="256"/>
			<output>
				<port id="1" precision="FP32">
					<dim>64</dim>
					<dim>1</dim>
					<dim>1</dim>
					<dim>1</dim>
				</port>
			</output>
		</layer>
		<layer id="130" name="InceptionV3/InceptionV3/Mixed_5b/Branch_1/Conv2d_0b_5x5/Conv2D/fq_weights_1" type="FakeQuantize" version="opset1">
			<data levels="255"/>
			<input>
				<port id="0">
					<dim>64</dim>
					<dim>48</dim>
					<dim>5</dim>
					<dim>5</dim>
				</port>
				<port id="1">
					<dim>1</dim>
				</port>
				<port id="2">
					<dim>1</dim>
				</port>
				<port id="3">
					<dim>64</dim>
					<dim>1</dim>
					<dim>1</dim>
					<dim>1</dim>
				</port>
				<port id="4">
					<dim>64</dim>
					<dim>1</dim>
					<dim>1</dim>
					<dim>1</dim>
				</port>
			</input>
			<output>
				<port id="5" precision="FP32">
					<dim>64</dim>
					<dim>48</dim>
					<dim>5</dim>
					<dim>5</dim>
				</port>
			</output>
		</layer>
		<layer id="131" name="InceptionV3/InceptionV3/Mixed_5b/Branch_1/Conv2d_0b_5x5/Conv2D" type="Convolution" version="opset1">
			<data auto_pad="same_upper" dilations="1,1" output_padding="0,0" pads_begin="2,2" pads_end="2,2" strides="1,1"/>
			<input>
				<port id="0">
					<dim>1</dim>
					<dim>48</dim>
					<dim>35</dim>
					<dim>35</dim>
				</port>
				<port id="1">
					<dim>64</dim>
					<dim>48</dim>
					<dim>5</dim>
					<dim>5</dim>
				</port>
			</input>
			<output>
				<port id="2" precision="FP32">
					<dim>1</dim>
					<dim>64</dim>
					<dim>35</dim>
					<dim>35</dim>
				</port>
			</output>
		</layer>
		<layer id="132" name="data_add_1735817363/copy_const558_const" type="Const" version="opset1">
			<data element_type="f32" offset="276956" shape="1,64,1,1" size="256"/>
			<output>
				<port id="1" precision="FP32">
					<dim>1</dim>
					<dim>64</dim>
					<dim>1</dim>
					<dim>1</dim>
				</port>
			</output>
		</layer>
		<layer id="133" name="InceptionV3/InceptionV3/Mixed_5b/Branch_1/Conv2d_0b_5x5/BatchNorm/FusedBatchNormV3/variance/Fused_Add_" type="Add" version="opset1">
			<input>
				<port id="0">
					<dim>1</dim>
					<dim>64</dim>
					<dim>35</dim>
					<dim>35</dim>
				</port>
				<port id="1">
					<dim>1</dim>
					<dim>64</dim>
					<dim>1</dim>
					<dim>1</dim>
				</port>
			</input>
			<output>
				<port id="2" precision="FP32">
					<dim>1</dim>
					<dim>64</dim>
					<dim>35</dim>
					<dim>35</dim>
				</port>
			</output>
		</layer>
		<layer id="134" name="InceptionV3/InceptionV3/Mixed_5b/Branch_1/Conv2d_0b_5x5/Relu" type="ReLU" version="opset1">
			<input>
				<port id="0">
					<dim>1</dim>
					<dim>64</dim>
					<dim>35</dim>
					<dim>35</dim>
				</port>
			</input>
			<output>
				<port id="1" precision="FP32">
					<dim>1</dim>
					<dim>64</dim>
					<dim>35</dim>
					<dim>35</dim>
				</port>
			</output>
		</layer>
		<layer id="135" name="46634667_const" type="Const" version="opset1">
			<data element_type="f32" offset="277212" shape="" size="4"/>
			<output>
				<port id="1" precision="FP32"/>
			</output>
		</layer>
		<layer id="136" name="46644668_const" type="Const" version="opset1">
			<data element_type="f32" offset="277216" shape="" size="4"/>
			<output>
				<port id="1" precision="FP32"/>
			</output>
		</layer>
		<layer id="137" name="46654669_const" type="Const" version="opset1">
			<data element_type="f32" offset="277212" shape="" size="4"/>
			<output>
				<port id="1" precision="FP32"/>
			</output>
		</layer>
		<layer id="138" name="46664670_const" type="Const" version="opset1">
			<data element_type="f32" offset="277216" shape="" size="4"/>
			<output>
				<port id="1" precision="FP32"/>
			</output>
		</layer>
		<layer id="139" name="InceptionV3/InceptionV3/Mixed_5b/concat/fq_input_1" type="FakeQuantize" version="opset1">
			<data levels="256"/>
			<input>
				<port id="0">
					<dim>1</dim>
					<dim>64</dim>
					<dim>35</dim>
					<dim>35</dim>
				</port>
				<port id="1"/>
				<port id="2"/>
				<port id="3"/>
				<port id="4"/>
			</input>
			<output>
				<port id="5" precision="FP32">
					<dim>1</dim>
					<dim>64</dim>
					<dim>35</dim>
					<dim>35</dim>
				</port>
			</output>
		</layer>
		<layer id="140" name="InceptionV3/InceptionV3/Mixed_5b/Branch_2/Conv2d_0a_1x1/Conv2D/fq_weights_1/Convert_to_float/Cast_010459_const" type="Const" version="opset1">
			<data element_type="u8" offset="277220" shape="64,192,1,1" size="12288"/>
			<output>
				<port id="1" precision="U8">
					<dim>64</dim>
					<dim>192</dim>
					<dim>1</dim>
					<dim>1</dim>
				</port>
			</output>
		</layer>
		<layer id="141" name="InceptionV3/InceptionV3/Mixed_5b/Branch_2/Conv2d_0a_1x1/Conv2D/fq_weights_1/Convert_to_float" type="Convert" version="opset1">
			<data destination_type="f32"/>
			<input>
				<port id="0">
					<dim>64</dim>
					<dim>192</dim>
					<dim>1</dim>
					<dim>1</dim>
				</port>
			</input>
			<output>
				<port id="1" precision="FP32">
					<dim>64</dim>
					<dim>192</dim>
					<dim>1</dim>
					<dim>1</dim>
				</port>
			</output>
		</layer>
		<layer id="142" name="InceptionV3/InceptionV3/Mixed_5b/Branch_2/Conv2d_0a_1x1/Conv2D/fq_weights_1/Copy/out_low8811_const" type="Const" version="opset1">
			<data element_type="f32" offset="289508" shape="1" size="4"/>
			<output>
				<port id="1" precision="FP32">
					<dim>1</dim>
				</port>
			</output>
		</layer>
		<layer id="143" name="InceptionV3/InceptionV3/Mixed_5b/Branch_2/Conv2d_0a_1x1/Conv2D/fq_weights_1/Copy/out_high8812_const" type="Const" version="opset1">
			<data element_type="f32" offset="900" shape="1" size="4"/>
			<output>
				<port id="1" precision="FP32">
					<dim>1</dim>
				</port>
			</output>
		</layer>
		<layer id="144" name="35213525_const" type="Const" version="opset1">
			<data element_type="f32" offset="289512" shape="64,1,1,1" size="256"/>
			<output>
				<port id="1" precision="FP32">
					<dim>64</dim>
					<dim>1</dim>
					<dim>1</dim>
					<dim>1</dim>
				</port>
			</output>
		</layer>
		<layer id="145" name="35223526_const" type="Const" version="opset1">
			<data element_type="f32" offset="289768" shape="64,1,1,1" size="256"/>
			<output>
				<port id="1" precision="FP32">
					<dim>64</dim>
					<dim>1</dim>
					<dim>1</dim>
					<dim>1</dim>
				</port>
			</output>
		</layer>
		<layer id="146" name="InceptionV3/InceptionV3/Mixed_5b/Branch_2/Conv2d_0a_1x1/Conv2D/fq_weights_1" type="FakeQuantize" version="opset1">
			<data levels="255"/>
			<input>
				<port id="0">
					<dim>64</dim>
					<dim>192</dim>
					<dim>1</dim>
					<dim>1</dim>
				</port>
				<port id="1">
					<dim>1</dim>
				</port>
				<port id="2">
					<dim>1</dim>
				</port>
				<port id="3">
					<dim>64</dim>
					<dim>1</dim>
					<dim>1</dim>
					<dim>1</dim>
				</port>
				<port id="4">
					<dim>64</dim>
					<dim>1</dim>
					<dim>1</dim>
					<dim>1</dim>
				</port>
			</input>
			<output>
				<port id="5" precision="FP32">
					<dim>64</dim>
					<dim>192</dim>
					<dim>1</dim>
					<dim>1</dim>
				</port>
			</output>
		</layer>
		<layer id="147" name="InceptionV3/InceptionV3/Mixed_5b/Branch_2/Conv2d_0a_1x1/Conv2D" type="Convolution" version="opset1">
			<data auto_pad="same_upper" dilations="1,1" output_padding="0,0" pads_begin="0,0" pads_end="0,0" strides="1,1"/>
			<input>
				<port id="0">
					<dim>1</dim>
					<dim>192</dim>
					<dim>35</dim>
					<dim>35</dim>
				</port>
				<port id="1">
					<dim>64</dim>
					<dim>192</dim>
					<dim>1</dim>
					<dim>1</dim>
				</port>
			</input>
			<output>
				<port id="2" precision="FP32">
					<dim>1</dim>
					<dim>64</dim>
					<dim>35</dim>
					<dim>35</dim>
				</port>
			</output>
		</layer>
		<layer id="148" name="data_add_1732617331/copy_const563_const" type="Const" version="opset1">
			<data element_type="f32" offset="290024" shape="1,64,1,1" size="256"/>
			<output>
				<port id="1" precision="FP32">
					<dim>1</dim>
					<dim>64</dim>
					<dim>1</dim>
					<dim>1</dim>
				</port>
			</output>
		</layer>
		<layer id="149" name="InceptionV3/InceptionV3/Mixed_5b/Branch_2/Conv2d_0a_1x1/BatchNorm/FusedBatchNormV3/variance/Fused_Add_" type="Add" version="opset1">
			<input>
				<port id="0">
					<dim>1</dim>
					<dim>64</dim>
					<dim>35</dim>
					<dim>35</dim>
				</port>
				<port id="1">
					<dim>1</dim>
					<dim>64</dim>
					<dim>1</dim>
					<dim>1</dim>
				</port>
			</input>
			<output>
				<port id="2" precision="FP32">
					<dim>1</dim>
					<dim>64</dim>
					<dim>35</dim>
					<dim>35</dim>
				</port>
			</output>
		</layer>
		<layer id="150" name="InceptionV3/InceptionV3/Mixed_5b/Branch_2/Conv2d_0a_1x1/Relu" type="ReLU" version="opset1">
			<input>
				<port id="0">
					<dim>1</dim>
					<dim>64</dim>
					<dim>35</dim>
					<dim>35</dim>
				</port>
			</input>
			<output>
				<port id="1" precision="FP32">
					<dim>1</dim>
					<dim>64</dim>
					<dim>35</dim>
					<dim>35</dim>
				</port>
			</output>
		</layer>
		<layer id="151" name="24892493_const" type="Const" version="opset1">
			<data element_type="f32" offset="290280" shape="" size="4"/>
			<output>
				<port id="1" precision="FP32"/>
			</output>
		</layer>
		<layer id="152" name="24902494_const" type="Const" version="opset1">
			<data element_type="f32" offset="290284" shape="" size="4"/>
			<output>
				<port id="1" precision="FP32"/>
			</output>
		</layer>
		<layer id="153" name="24912495_const" type="Const" version="opset1">
			<data element_type="f32" offset="290280" shape="" size="4"/>
			<output>
				<port id="1" precision="FP32"/>
			</output>
		</layer>
		<layer id="154" name="24922496_const" type="Const" version="opset1">
			<data element_type="f32" offset="290284" shape="" size="4"/>
			<output>
				<port id="1" precision="FP32"/>
			</output>
		</layer>
		<layer id="155" name="InceptionV3/InceptionV3/Mixed_5b/Branch_2/Conv2d_0b_3x3/Conv2D/fq_input_0" type="FakeQuantize" version="opset1">
			<data levels="256"/>
			<input>
				<port id="0">
					<dim>1</dim>
					<dim>64</dim>
					<dim>35</dim>
					<dim>35</dim>
				</port>
				<port id="1"/>
				<port id="2"/>
				<port id="3"/>
				<port id="4"/>
			</input>
			<output>
				<port id="5" precision="FP32">
					<dim>1</dim>
					<dim>64</dim>
					<dim>35</dim>
					<dim>35</dim>
				</port>
			</output>
		</layer>
		<layer id="156" name="InceptionV3/InceptionV3/Mixed_5b/Branch_2/Conv2d_0b_3x3/Conv2D/fq_weights_1/Convert_to_float/Cast_010501_const" type="Const" version="opset1">
			<data element_type="u8" offset="290288" shape="96,64,3,3" size="55296"/>
			<output>
				<port id="1" precision="U8">
					<dim>96</dim>
					<dim>64</dim>
					<dim>3</dim>
					<dim>3</dim>
				</port>
			</output>
		</layer>
		<layer id="157" name="InceptionV3/InceptionV3/Mixed_5b/Branch_2/Conv2d_0b_3x3/Conv2D/fq_weights_1/Convert_to_float" type="Convert" version="opset1">
			<data destination_type="f32"/>
			<input>
				<port id="0">
					<dim>96</dim>
					<dim>64</dim>
					<dim>3</dim>
					<dim>3</dim>
				</port>
			</input>
			<output>
				<port id="1" precision="FP32">
					<dim>96</dim>
					<dim>64</dim>
					<dim>3</dim>
					<dim>3</dim>
				</port>
			</output>
		</layer>
		<layer id="158" name="InceptionV3/InceptionV3/Mixed_5b/Branch_2/Conv2d_0b_3x3/Conv2D/fq_weights_1/Copy/out_low9011_const" type="Const" version="opset1">
			<data element_type="f32" offset="345584" shape="1" size="4"/>
			<output>
				<port id="1" precision="FP32">
					<dim>1</dim>
				</port>
			</output>
		</layer>
		<layer id="159" name="InceptionV3/InceptionV3/Mixed_5b/Branch_2/Conv2d_0b_3x3/Conv2D/fq_weights_1/Copy/out_high9012_const" type="Const" version="opset1">
			<data element_type="f32" offset="900" shape="1" size="4"/>
			<output>
				<port id="1" precision="FP32">
					<dim>1</dim>
				</port>
			</output>
		</layer>
		<layer id="160" name="25012505_const" type="Const" version="opset1">
			<data element_type="f32" offset="345588" shape="96,1,1,1" size="384"/>
			<output>
				<port id="1" precision="FP32">
					<dim>96</dim>
					<dim>1</dim>
					<dim>1</dim>
					<dim>1</dim>
				</port>
			</output>
		</layer>
		<layer id="161" name="25022506_const" type="Const" version="opset1">
			<data element_type="f32" offset="345972" shape="96,1,1,1" size="384"/>
			<output>
				<port id="1" precision="FP32">
					<dim>96</dim>
					<dim>1</dim>
					<dim>1</dim>
					<dim>1</dim>
				</port>
			</output>
		</layer>
		<layer id="162" name="InceptionV3/InceptionV3/Mixed_5b/Branch_2/Conv2d_0b_3x3/Conv2D/fq_weights_1" type="FakeQuantize" version="opset1">
			<data levels="255"/>
			<input>
				<port id="0">
					<dim>96</dim>
					<dim>64</dim>
					<dim>3</dim>
					<dim>3</dim>
				</port>
				<port id="1">
					<dim>1</dim>
				</port>
				<port id="2">
					<dim>1</dim>
				</port>
				<port id="3">
					<dim>96</dim>
					<dim>1</dim>
					<dim>1</dim>
					<dim>1</dim>
				</port>
				<port id="4">
					<dim>96</dim>
					<dim>1</dim>
					<dim>1</dim>
					<dim>1</dim>
				</port>
			</input>
			<output>
				<port id="5" precision="FP32">
					<dim>96</dim>
					<dim>64</dim>
					<dim>3</dim>
					<dim>3</dim>
				</port>
			</output>
		</layer>
		<layer id="163" name="InceptionV3/InceptionV3/Mixed_5b/Branch_2/Conv2d_0b_3x3/Conv2D" type="Convolution" version="opset1">
			<data auto_pad="same_upper" dilations="1,1" output_padding="0,0" pads_begin="1,1" pads_end="1,1" strides="1,1"/>
			<input>
				<port id="0">
					<dim>1</dim>
					<dim>64</dim>
					<dim>35</dim>
					<dim>35</dim>
				</port>
				<port id="1">
					<dim>96</dim>
					<dim>64</dim>
					<dim>3</dim>
					<dim>3</dim>
				</port>
			</input>
			<output>
				<port id="2" precision="FP32">
					<dim>1</dim>
					<dim>96</dim>
					<dim>35</dim>
					<dim>35</dim>
				</port>
			</output>
		</layer>
		<layer id="164" name="data_add_1733417339/copy_const568_const" type="Const" version="opset1">
			<data element_type="f32" offset="346356" shape="1,96,1,1" size="384"/>
			<output>
				<port id="1" precision="FP32">
					<dim>1</dim>
					<dim>96</dim>
					<dim>1</dim>
					<dim>1</dim>
				</port>
			</output>
		</layer>
		<layer id="165" name="InceptionV3/InceptionV3/Mixed_5b/Branch_2/Conv2d_0b_3x3/BatchNorm/FusedBatchNormV3/variance/Fused_Add_" type="Add" version="opset1">
			<input>
				<port id="0">
					<dim>1</dim>
					<dim>96</dim>
					<dim>35</dim>
					<dim>35</dim>
				</port>
				<port id="1">
					<dim>1</dim>
					<dim>96</dim>
					<dim>1</dim>
					<dim>1</dim>
				</port>
			</input>
			<output>
				<port id="2" precision="FP32">
					<dim>1</dim>
					<dim>96</dim>
					<dim>35</dim>
					<dim>35</dim>
				</port>
			</output>
		</layer>
		<layer id="166" name="InceptionV3/InceptionV3/Mixed_5b/Branch_2/Conv2d_0b_3x3/Relu" type="ReLU" version="opset1">
			<input>
				<port id="0">
					<dim>1</dim>
					<dim>96</dim>
					<dim>35</dim>
					<dim>35</dim>
				</port>
			</input>
			<output>
				<port id="1" precision="FP32">
					<dim>1</dim>
					<dim>96</dim>
					<dim>35</dim>
					<dim>35</dim>
				</port>
			</output>
		</layer>
		<layer id="167" name="29092913_const" type="Const" version="opset1">
			<data element_type="f32" offset="346740" shape="" size="4"/>
			<output>
				<port id="1" precision="FP32"/>
			</output>
		</layer>
		<layer id="168" name="29102914_const" type="Const" version="opset1">
			<data element_type="f32" offset="346744" shape="" size="4"/>
			<output>
				<port id="1" precision="FP32"/>
			</output>
		</layer>
		<layer id="169" name="29112915_const" type="Const" version="opset1">
			<data element_type="f32" offset="346740" shape="" size="4"/>
			<output>
				<port id="1" precision="FP32"/>
			</output>
		</layer>
		<layer id="170" name="29122916_const" type="Const" version="opset1">
			<data element_type="f32" offset="346744" shape="" size="4"/>
			<output>
				<port id="1" precision="FP32"/>
			</output>
		</layer>
		<layer id="171" name="InceptionV3/InceptionV3/Mixed_5b/Branch_2/Conv2d_0c_3x3/Conv2D/fq_input_0" type="FakeQuantize" version="opset1">
			<data levels="256"/>
			<input>
				<port id="0">
					<dim>1</dim>
					<dim>96</dim>
					<dim>35</dim>
					<dim>35</dim>
				</port>
				<port id="1"/>
				<port id="2"/>
				<port id="3"/>
				<port id="4"/>
			</input>
			<output>
				<port id="5" precision="FP32">
					<dim>1</dim>
					<dim>96</dim>
					<dim>35</dim>
					<dim>35</dim>
				</port>
			</output>
		</layer>
		<layer id="172" name="InceptionV3/InceptionV3/Mixed_5b/Branch_2/Conv2d_0c_3x3/Conv2D/fq_weights_1/Convert_to_float/Cast_010547_const" type="Const" version="opset1">
			<data element_type="u8" offset="346748" shape="96,96,3,3" size="82944"/>
			<output>
				<port id="1" precision="U8">
					<dim>96</dim>
					<dim>96</dim>
					<dim>3</dim>
					<dim>3</dim>
				</port>
			</output>
		</layer>
		<layer id="173" name="InceptionV3/InceptionV3/Mixed_5b/Branch_2/Conv2d_0c_3x3/Conv2D/fq_weights_1/Convert_to_float" type="Convert" version="opset1">
			<data destination_type="f32"/>
			<input>
				<port id="0">
					<dim>96</dim>
					<dim>96</dim>
					<dim>3</dim>
					<dim>3</dim>
				</port>
			</input>
			<output>
				<port id="1" precision="FP32">
					<dim>96</dim>
					<dim>96</dim>
					<dim>3</dim>
					<dim>3</dim>
				</port>
			</output>
		</layer>
		<layer id="174" name="InceptionV3/InceptionV3/Mixed_5b/Branch_2/Conv2d_0c_3x3/Conv2D/fq_weights_1/Copy/out_low8715_const" type="Const" version="opset1">
			<data element_type="f32" offset="429692" shape="1" size="4"/>
			<output>
				<port id="1" precision="FP32">
					<dim>1</dim>
				</port>
			</output>
		</layer>
		<layer id="175" name="InceptionV3/InceptionV3/Mixed_5b/Branch_2/Conv2d_0c_3x3/Conv2D/fq_weights_1/Copy/out_high8716_const" type="Const" version="opset1">
			<data element_type="f32" offset="900" shape="1" size="4"/>
			<output>
				<port id="1" precision="FP32">
					<dim>1</dim>
				</port>
			</output>
		</layer>
		<layer id="176" name="29212925_const" type="Const" version="opset1">
			<data element_type="f32" offset="429696" shape="96,1,1,1" size="384"/>
			<output>
				<port id="1" precision="FP32">
					<dim>96</dim>
					<dim>1</dim>
					<dim>1</dim>
					<dim>1</dim>
				</port>
			</output>
		</layer>
		<layer id="177" name="29222926_const" type="Const" version="opset1">
			<data element_type="f32" offset="430080" shape="96,1,1,1" size="384"/>
			<output>
				<port id="1" precision="FP32">
					<dim>96</dim>
					<dim>1</dim>
					<dim>1</dim>
					<dim>1</dim>
				</port>
			</output>
		</layer>
		<layer id="178" name="InceptionV3/InceptionV3/Mixed_5b/Branch_2/Conv2d_0c_3x3/Conv2D/fq_weights_1" type="FakeQuantize" version="opset1">
			<data levels="255"/>
			<input>
				<port id="0">
					<dim>96</dim>
					<dim>96</dim>
					<dim>3</dim>
					<dim>3</dim>
				</port>
				<port id="1">
					<dim>1</dim>
				</port>
				<port id="2">
					<dim>1</dim>
				</port>
				<port id="3">
					<dim>96</dim>
					<dim>1</dim>
					<dim>1</dim>
					<dim>1</dim>
				</port>
				<port id="4">
					<dim>96</dim>
					<dim>1</dim>
					<dim>1</dim>
					<dim>1</dim>
				</port>
			</input>
			<output>
				<port id="5" precision="FP32">
					<dim>96</dim>
					<dim>96</dim>
					<dim>3</dim>
					<dim>3</dim>
				</port>
			</output>
		</layer>
		<layer id="179" name="InceptionV3/InceptionV3/Mixed_5b/Branch_2/Conv2d_0c_3x3/Conv2D" type="Convolution" version="opset1">
			<data auto_pad="same_upper" dilations="1,1" output_padding="0,0" pads_begin="1,1" pads_end="1,1" strides="1,1"/>
			<input>
				<port id="0">
					<dim>1</dim>
					<dim>96</dim>
					<dim>35</dim>
					<dim>35</dim>
				</port>
				<port id="1">
					<dim>96</dim>
					<dim>96</dim>
					<dim>3</dim>
					<dim>3</dim>
				</port>
			</input>
			<output>
				<port id="2" precision="FP32">
					<dim>1</dim>
					<dim>96</dim>
					<dim>35</dim>
					<dim>35</dim>
				</port>
			</output>
		</layer>
		<layer id="180" name="data_add_1734217347/copy_const573_const" type="Const" version="opset1">
			<data element_type="f32" offset="430464" shape="1,96,1,1" size="384"/>
			<output>
				<port id="1" precision="FP32">
					<dim>1</dim>
					<dim>96</dim>
					<dim>1</dim>
					<dim>1</dim>
				</port>
			</output>
		</layer>
		<layer id="181" name="InceptionV3/InceptionV3/Mixed_5b/Branch_2/Conv2d_0c_3x3/BatchNorm/FusedBatchNormV3/variance/Fused_Add_" type="Add" version="opset1">
			<input>
				<port id="0">
					<dim>1</dim>
					<dim>96</dim>
					<dim>35</dim>
					<dim>35</dim>
				</port>
				<port id="1">
					<dim>1</dim>
					<dim>96</dim>
					<dim>1</dim>
					<dim>1</dim>
				</port>
			</input>
			<output>
				<port id="2" precision="FP32">
					<dim>1</dim>
					<dim>96</dim>
					<dim>35</dim>
					<dim>35</dim>
				</port>
			</output>
		</layer>
		<layer id="182" name="InceptionV3/InceptionV3/Mixed_5b/Branch_2/Conv2d_0c_3x3/Relu" type="ReLU" version="opset1">
			<input>
				<port id="0">
					<dim>1</dim>
					<dim>96</dim>
					<dim>35</dim>
					<dim>35</dim>
				</port>
			</input>
			<output>
				<port id="1" precision="FP32">
					<dim>1</dim>
					<dim>96</dim>
					<dim>35</dim>
					<dim>35</dim>
				</port>
			</output>
		</layer>
		<layer id="183" name="46734677_const" type="Const" version="opset1">
			<data element_type="f32" offset="430848" shape="" size="4"/>
			<output>
				<port id="1" precision="FP32"/>
			</output>
		</layer>
		<layer id="184" name="46744678_const" type="Const" version="opset1">
			<data element_type="f32" offset="430852" shape="" size="4"/>
			<output>
				<port id="1" precision="FP32"/>
			</output>
		</layer>
		<layer id="185" name="46754679_const" type="Const" version="opset1">
			<data element_type="f32" offset="430848" shape="" size="4"/>
			<output>
				<port id="1" precision="FP32"/>
			</output>
		</layer>
		<layer id="186" name="46764680_const" type="Const" version="opset1">
			<data element_type="f32" offset="430852" shape="" size="4"/>
			<output>
				<port id="1" precision="FP32"/>
			</output>
		</layer>
		<layer id="187" name="InceptionV3/InceptionV3/Mixed_5b/concat/fq_input_2" type="FakeQuantize" version="opset1">
			<data levels="256"/>
			<input>
				<port id="0">
					<dim>1</dim>
					<dim>96</dim>
					<dim>35</dim>
					<dim>35</dim>
				</port>
				<port id="1"/>
				<port id="2"/>
				<port id="3"/>
				<port id="4"/>
			</input>
			<output>
				<port id="5" precision="FP32">
					<dim>1</dim>
					<dim>96</dim>
					<dim>35</dim>
					<dim>35</dim>
				</port>
			</output>
		</layer>
		<layer id="188" name="InceptionV3/InceptionV3/Mixed_5b/Branch_3/AvgPool_0a_3x3/AvgPool" type="AvgPool" version="opset1">
			<data auto_pad="same_upper" exclude-pad="true" kernel="3,3" pads_begin="1,1" pads_end="1,1" strides="1,1"/>
			<input>
				<port id="0">
					<dim>1</dim>
					<dim>192</dim>
					<dim>35</dim>
					<dim>35</dim>
				</port>
			</input>
			<output>
				<port id="1" precision="FP32">
					<dim>1</dim>
					<dim>192</dim>
					<dim>35</dim>
					<dim>35</dim>
				</port>
			</output>
		</layer>
		<layer id="189" name="34893493_const" type="Const" version="opset1">
			<data element_type="f32" offset="430848" shape="" size="4"/>
			<output>
				<port id="1" precision="FP32"/>
			</output>
		</layer>
		<layer id="190" name="34903494_const" type="Const" version="opset1">
			<data element_type="f32" offset="430856" shape="" size="4"/>
			<output>
				<port id="1" precision="FP32"/>
			</output>
		</layer>
		<layer id="191" name="34913495_const" type="Const" version="opset1">
			<data element_type="f32" offset="430848" shape="" size="4"/>
			<output>
				<port id="1" precision="FP32"/>
			</output>
		</layer>
		<layer id="192" name="34923496_const" type="Const" version="opset1">
			<data element_type="f32" offset="430856" shape="" size="4"/>
			<output>
				<port id="1" precision="FP32"/>
			</output>
		</layer>
		<layer id="193" name="InceptionV3/InceptionV3/Mixed_5b/Branch_3/Conv2d_0b_1x1/Conv2D/fq_input_0" type="FakeQuantize" version="opset1">
			<data levels="256"/>
			<input>
				<port id="0">
					<dim>1</dim>
					<dim>192</dim>
					<dim>35</dim>
					<dim>35</dim>
				</port>
				<port id="1"/>
				<port id="2"/>
				<port id="3"/>
				<port id="4"/>
			</input>
			<output>
				<port id="5" precision="FP32">
					<dim>1</dim>
					<dim>192</dim>
					<dim>35</dim>
					<dim>35</dim>
				</port>
			</output>
		</layer>
		<layer id="194" name="InceptionV3/InceptionV3/Mixed_5b/Branch_3/Conv2d_0b_1x1/Conv2D/fq_weights_1/Convert_to_float/Cast_010531_const" type="Const" version="opset1">
			<data element_type="u8" offset="430860" shape="32,192,1,1" size="6144"/>
			<output>
				<port id="1" precision="U8">
					<dim>32</dim>
					<dim>192</dim>
					<dim>1</dim>
					<dim>1</dim>
				</port>
			</output>
		</layer>
		<layer id="195" name="InceptionV3/InceptionV3/Mixed_5b/Branch_3/Conv2d_0b_1x1/Conv2D/fq_weights_1/Convert_to_float" type="Convert" version="opset1">
			<data destination_type="f32"/>
			<input>
				<port id="0">
					<dim>32</dim>
					<dim>192</dim>
					<dim>1</dim>
					<dim>1</dim>
				</port>
			</input>
			<output>
				<port id="1" precision="FP32">
					<dim>32</dim>
					<dim>192</dim>
					<dim>1</dim>
					<dim>1</dim>
				</port>
			</output>
		</layer>
		<layer id="196" name="InceptionV3/InceptionV3/Mixed_5b/Branch_3/Conv2d_0b_1x1/Conv2D/fq_weights_1/Copy/out_low8763_const" type="Const" version="opset1">
			<data element_type="f32" offset="437004" shape="1" size="4"/>
			<output>
				<port id="1" precision="FP32">
					<dim>1</dim>
				</port>
			</output>
		</layer>
		<layer id="197" name="InceptionV3/InceptionV3/Mixed_5b/Branch_3/Conv2d_0b_1x1/Conv2D/fq_weights_1/Copy/out_high8764_const" type="Const" version="opset1">
			<data element_type="f32" offset="900" shape="1" size="4"/>
			<output>
				<port id="1" precision="FP32">
					<dim>1</dim>
				</port>
			</output>
		</layer>
		<layer id="198" name="35013505_const" type="Const" version="opset1">
			<data element_type="f32" offset="437008" shape="32,1,1,1" size="128"/>
			<output>
				<port id="1" precision="FP32">
					<dim>32</dim>
					<dim>1</dim>
					<dim>1</dim>
					<dim>1</dim>
				</port>
			</output>
		</layer>
		<layer id="199" name="35023506_const" type="Const" version="opset1">
			<data element_type="f32" offset="437136" shape="32,1,1,1" size="128"/>
			<output>
				<port id="1" precision="FP32">
					<dim>32</dim>
					<dim>1</dim>
					<dim>1</dim>
					<dim>1</dim>
				</port>
			</output>
		</layer>
		<layer id="200" name="InceptionV3/InceptionV3/Mixed_5b/Branch_3/Conv2d_0b_1x1/Conv2D/fq_weights_1" type="FakeQuantize" version="opset1">
			<data levels="255"/>
			<input>
				<port id="0">
					<dim>32</dim>
					<dim>192</dim>
					<dim>1</dim>
					<dim>1</dim>
				</port>
				<port id="1">
					<dim>1</dim>
				</port>
				<port id="2">
					<dim>1</dim>
				</port>
				<port id="3">
					<dim>32</dim>
					<dim>1</dim>
					<dim>1</dim>
					<dim>1</dim>
				</port>
				<port id="4">
					<dim>32</dim>
					<dim>1</dim>
					<dim>1</dim>
					<dim>1</dim>
				</port>
			</input>
			<output>
				<port id="5" precision="FP32">
					<dim>32</dim>
					<dim>192</dim>
					<dim>1</dim>
					<dim>1</dim>
				</port>
			</output>
		</layer>
		<layer id="201" name="InceptionV3/InceptionV3/Mixed_5b/Branch_3/Conv2d_0b_1x1/Conv2D" type="Convolution" version="opset1">
			<data auto_pad="same_upper" dilations="1,1" output_padding="0,0" pads_begin="0,0" pads_end="0,0" strides="1,1"/>
			<input>
				<port id="0">
					<dim>1</dim>
					<dim>192</dim>
					<dim>35</dim>
					<dim>35</dim>
				</port>
				<port id="1">
					<dim>32</dim>
					<dim>192</dim>
					<dim>1</dim>
					<dim>1</dim>
				</port>
			</input>
			<output>
				<port id="2" precision="FP32">
					<dim>1</dim>
					<dim>32</dim>
					<dim>35</dim>
					<dim>35</dim>
				</port>
			</output>
		</layer>
		<layer id="202" name="data_add_1731817323/copy_const579_const" type="Const" version="opset1">
			<data element_type="f32" offset="437264" shape="1,32,1,1" size="128"/>
			<output>
				<port id="1" precision="FP32">
					<dim>1</dim>
					<dim>32</dim>
					<dim>1</dim>
					<dim>1</dim>
				</port>
			</output>
		</layer>
		<layer id="203" name="InceptionV3/InceptionV3/Mixed_5b/Branch_3/Conv2d_0b_1x1/BatchNorm/FusedBatchNormV3/variance/Fused_Add_" type="Add" version="opset1">
			<input>
				<port id="0">
					<dim>1</dim>
					<dim>32</dim>
					<dim>35</dim>
					<dim>35</dim>
				</port>
				<port id="1">
					<dim>1</dim>
					<dim>32</dim>
					<dim>1</dim>
					<dim>1</dim>
				</port>
			</input>
			<output>
				<port id="2" precision="FP32">
					<dim>1</dim>
					<dim>32</dim>
					<dim>35</dim>
					<dim>35</dim>
				</port>
			</output>
		</layer>
		<layer id="204" name="InceptionV3/InceptionV3/Mixed_5b/Branch_3/Conv2d_0b_1x1/Relu" type="ReLU" version="opset1">
			<input>
				<port id="0">
					<dim>1</dim>
					<dim>32</dim>
					<dim>35</dim>
					<dim>35</dim>
				</port>
			</input>
			<output>
				<port id="1" precision="FP32">
					<dim>1</dim>
					<dim>32</dim>
					<dim>35</dim>
					<dim>35</dim>
				</port>
			</output>
		</layer>
		<layer id="205" name="46834687_const" type="Const" version="opset1">
			<data element_type="f32" offset="437392" shape="" size="4"/>
			<output>
				<port id="1" precision="FP32"/>
			</output>
		</layer>
		<layer id="206" name="46844688_const" type="Const" version="opset1">
			<data element_type="f32" offset="437396" shape="" size="4"/>
			<output>
				<port id="1" precision="FP32"/>
			</output>
		</layer>
		<layer id="207" name="46854689_const" type="Const" version="opset1">
			<data element_type="f32" offset="437392" shape="" size="4"/>
			<output>
				<port id="1" precision="FP32"/>
			</output>
		</layer>
		<layer id="208" name="46864690_const" type="Const" version="opset1">
			<data element_type="f32" offset="437396" shape="" size="4"/>
			<output>
				<port id="1" precision="FP32"/>
			</output>
		</layer>
		<layer id="209" name="InceptionV3/InceptionV3/Mixed_5b/concat/fq_input_3" type="FakeQuantize" version="opset1">
			<data levels="256"/>
			<input>
				<port id="0">
					<dim>1</dim>
					<dim>32</dim>
					<dim>35</dim>
					<dim>35</dim>
				</port>
				<port id="1"/>
				<port id="2"/>
				<port id="3"/>
				<port id="4"/>
			</input>
			<output>
				<port id="5" precision="FP32">
					<dim>1</dim>
					<dim>32</dim>
					<dim>35</dim>
					<dim>35</dim>
				</port>
			</output>
		</layer>
		<layer id="210" name="InceptionV3/InceptionV3/Mixed_5b/concat" type="Concat" version="opset1">
			<data axis="1"/>
			<input>
				<port id="0">
					<dim>1</dim>
					<dim>64</dim>
					<dim>35</dim>
					<dim>35</dim>
				</port>
				<port id="1">
					<dim>1</dim>
					<dim>64</dim>
					<dim>35</dim>
					<dim>35</dim>
				</port>
				<port id="2">
					<dim>1</dim>
					<dim>96</dim>
					<dim>35</dim>
					<dim>35</dim>
				</port>
				<port id="3">
					<dim>1</dim>
					<dim>32</dim>
					<dim>35</dim>
					<dim>35</dim>
				</port>
			</input>
			<output>
				<port id="4" precision="FP32">
					<dim>1</dim>
					<dim>256</dim>
					<dim>35</dim>
					<dim>35</dim>
				</port>
			</output>
		</layer>
		<layer id="211" name="InceptionV3/InceptionV3/Mixed_5c/Branch_0/Conv2d_0a_1x1/Conv2D/fq_weights_1/Convert_to_float/Cast_010475_const" type="Const" version="opset1">
			<data element_type="u8" offset="437400" shape="64,256,1,1" size="16384"/>
			<output>
				<port id="1" precision="U8">
					<dim>64</dim>
					<dim>256</dim>
					<dim>1</dim>
					<dim>1</dim>
				</port>
			</output>
		</layer>
		<layer id="212" name="InceptionV3/InceptionV3/Mixed_5c/Branch_0/Conv2d_0a_1x1/Conv2D/fq_weights_1/Convert_to_float" type="Convert" version="opset1">
			<data destination_type="f32"/>
			<input>
				<port id="0">
					<dim>64</dim>
					<dim>256</dim>
					<dim>1</dim>
					<dim>1</dim>
				</port>
			</input>
			<output>
				<port id="1" precision="FP32">
					<dim>64</dim>
					<dim>256</dim>
					<dim>1</dim>
					<dim>1</dim>
				</port>
			</output>
		</layer>
		<layer id="213" name="InceptionV3/InceptionV3/Mixed_5c/Branch_0/Conv2d_0a_1x1/Conv2D/fq_weights_1/Copy/out_low8755_const" type="Const" version="opset1">
			<data element_type="f32" offset="453784" shape="1" size="4"/>
			<output>
				<port id="1" precision="FP32">
					<dim>1</dim>
				</port>
			</output>
		</layer>
		<layer id="214" name="InceptionV3/InceptionV3/Mixed_5c/Branch_0/Conv2d_0a_1x1/Conv2D/fq_weights_1/Copy/out_high8756_const" type="Const" version="opset1">
			<data element_type="f32" offset="900" shape="1" size="4"/>
			<output>
				<port id="1" precision="FP32">
					<dim>1</dim>
				</port>
			</output>
		</layer>
		<layer id="215" name="19611965_const" type="Const" version="opset1">
			<data element_type="f32" offset="453788" shape="64,1,1,1" size="256"/>
			<output>
				<port id="1" precision="FP32">
					<dim>64</dim>
					<dim>1</dim>
					<dim>1</dim>
					<dim>1</dim>
				</port>
			</output>
		</layer>
		<layer id="216" name="19621966_const" type="Const" version="opset1">
			<data element_type="f32" offset="454044" shape="64,1,1,1" size="256"/>
			<output>
				<port id="1" precision="FP32">
					<dim>64</dim>
					<dim>1</dim>
					<dim>1</dim>
					<dim>1</dim>
				</port>
			</output>
		</layer>
		<layer id="217" name="InceptionV3/InceptionV3/Mixed_5c/Branch_0/Conv2d_0a_1x1/Conv2D/fq_weights_1" type="FakeQuantize" version="opset1">
			<data levels="255"/>
			<input>
				<port id="0">
					<dim>64</dim>
					<dim>256</dim>
					<dim>1</dim>
					<dim>1</dim>
				</port>
				<port id="1">
					<dim>1</dim>
				</port>
				<port id="2">
					<dim>1</dim>
				</port>
				<port id="3">
					<dim>64</dim>
					<dim>1</dim>
					<dim>1</dim>
					<dim>1</dim>
				</port>
				<port id="4">
					<dim>64</dim>
					<dim>1</dim>
					<dim>1</dim>
					<dim>1</dim>
				</port>
			</input>
			<output>
				<port id="5" precision="FP32">
					<dim>64</dim>
					<dim>256</dim>
					<dim>1</dim>
					<dim>1</dim>
				</port>
			</output>
		</layer>
		<layer id="218" name="InceptionV3/InceptionV3/Mixed_5c/Branch_0/Conv2d_0a_1x1/Conv2D" type="Convolution" version="opset1">
			<data auto_pad="same_upper" dilations="1,1" output_padding="0,0" pads_begin="0,0" pads_end="0,0" strides="1,1"/>
			<input>
				<port id="0">
					<dim>1</dim>
					<dim>256</dim>
					<dim>35</dim>
					<dim>35</dim>
				</port>
				<port id="1">
					<dim>64</dim>
					<dim>256</dim>
					<dim>1</dim>
					<dim>1</dim>
				</port>
			</input>
			<output>
				<port id="2" precision="FP32">
					<dim>1</dim>
					<dim>64</dim>
					<dim>35</dim>
					<dim>35</dim>
				</port>
			</output>
		</layer>
		<layer id="219" name="data_add_1742217427/copy_const585_const" type="Const" version="opset1">
			<data element_type="f32" offset="454300" shape="1,64,1,1" size="256"/>
			<output>
				<port id="1" precision="FP32">
					<dim>1</dim>
					<dim>64</dim>
					<dim>1</dim>
					<dim>1</dim>
				</port>
			</output>
		</layer>
		<layer id="220" name="InceptionV3/InceptionV3/Mixed_5c/Branch_0/Conv2d_0a_1x1/BatchNorm/FusedBatchNormV3/variance/Fused_Add_" type="Add" version="opset1">
			<input>
				<port id="0">
					<dim>1</dim>
					<dim>64</dim>
					<dim>35</dim>
					<dim>35</dim>
				</port>
				<port id="1">
					<dim>1</dim>
					<dim>64</dim>
					<dim>1</dim>
					<dim>1</dim>
				</port>
			</input>
			<output>
				<port id="2" precision="FP32">
					<dim>1</dim>
					<dim>64</dim>
					<dim>35</dim>
					<dim>35</dim>
				</port>
			</output>
		</layer>
		<layer id="221" name="InceptionV3/InceptionV3/Mixed_5c/Branch_0/Conv2d_0a_1x1/Relu" type="ReLU" version="opset1">
			<input>
				<port id="0">
					<dim>1</dim>
					<dim>64</dim>
					<dim>35</dim>
					<dim>35</dim>
				</port>
			</input>
			<output>
				<port id="1" precision="FP32">
					<dim>1</dim>
					<dim>64</dim>
					<dim>35</dim>
					<dim>35</dim>
				</port>
			</output>
		</layer>
		<layer id="222" name="48134817_const" type="Const" version="opset1">
			<data element_type="f32" offset="454556" shape="" size="4"/>
			<output>
				<port id="1" precision="FP32"/>
			</output>
		</layer>
		<layer id="223" name="48144818_const" type="Const" version="opset1">
			<data element_type="f32" offset="454560" shape="" size="4"/>
			<output>
				<port id="1" precision="FP32"/>
			</output>
		</layer>
		<layer id="224" name="48154819_const" type="Const" version="opset1">
			<data element_type="f32" offset="454556" shape="" size="4"/>
			<output>
				<port id="1" precision="FP32"/>
			</output>
		</layer>
		<layer id="225" name="48164820_const" type="Const" version="opset1">
			<data element_type="f32" offset="454560" shape="" size="4"/>
			<output>
				<port id="1" precision="FP32"/>
			</output>
		</layer>
		<layer id="226" name="InceptionV3/InceptionV3/Mixed_5c/concat/fq_input_0" type="FakeQuantize" version="opset1">
			<data levels="256"/>
			<input>
				<port id="0">
					<dim>1</dim>
					<dim>64</dim>
					<dim>35</dim>
					<dim>35</dim>
				</port>
				<port id="1"/>
				<port id="2"/>
				<port id="3"/>
				<port id="4"/>
			</input>
			<output>
				<port id="5" precision="FP32">
					<dim>1</dim>
					<dim>64</dim>
					<dim>35</dim>
					<dim>35</dim>
				</port>
			</output>
		</layer>
		<layer id="227" name="InceptionV3/InceptionV3/Mixed_5c/Branch_1/Conv2d_0b_1x1/Conv2D/fq_weights_1/Convert_to_float/Cast_010511_const" type="Const" version="opset1">
			<data element_type="u8" offset="454564" shape="48,256,1,1" size="12288"/>
			<output>
				<port id="1" precision="U8">
					<dim>48</dim>
					<dim>256</dim>
					<dim>1</dim>
					<dim>1</dim>
				</port>
			</output>
		</layer>
		<layer id="228" name="InceptionV3/InceptionV3/Mixed_5c/Branch_1/Conv2d_0b_1x1/Conv2D/fq_weights_1/Convert_to_float" type="Convert" version="opset1">
			<data destination_type="f32"/>
			<input>
				<port id="0">
					<dim>48</dim>
					<dim>256</dim>
					<dim>1</dim>
					<dim>1</dim>
				</port>
			</input>
			<output>
				<port id="1" precision="FP32">
					<dim>48</dim>
					<dim>256</dim>
					<dim>1</dim>
					<dim>1</dim>
				</port>
			</output>
		</layer>
		<layer id="229" name="InceptionV3/InceptionV3/Mixed_5c/Branch_1/Conv2d_0b_1x1/Conv2D/fq_weights_1/Copy/out_low9051_const" type="Const" version="opset1">
			<data element_type="f32" offset="466852" shape="1" size="4"/>
			<output>
				<port id="1" precision="FP32">
					<dim>1</dim>
				</port>
			</output>
		</layer>
		<layer id="230" name="InceptionV3/InceptionV3/Mixed_5c/Branch_1/Conv2d_0b_1x1/Conv2D/fq_weights_1/Copy/out_high9052_const" type="Const" version="opset1">
			<data element_type="f32" offset="900" shape="1" size="4"/>
			<output>
				<port id="1" precision="FP32">
					<dim>1</dim>
				</port>
			</output>
		</layer>
		<layer id="231" name="30213025_const" type="Const" version="opset1">
			<data element_type="f32" offset="466856" shape="48,1,1,1" size="192"/>
			<output>
				<port id="1" precision="FP32">
					<dim>48</dim>
					<dim>1</dim>
					<dim>1</dim>
					<dim>1</dim>
				</port>
			</output>
		</layer>
		<layer id="232" name="30223026_const" type="Const" version="opset1">
			<data element_type="f32" offset="467048" shape="48,1,1,1" size="192"/>
			<output>
				<port id="1" precision="FP32">
					<dim>48</dim>
					<dim>1</dim>
					<dim>1</dim>
					<dim>1</dim>
				</port>
			</output>
		</layer>
		<layer id="233" name="InceptionV3/InceptionV3/Mixed_5c/Branch_1/Conv2d_0b_1x1/Conv2D/fq_weights_1" type="FakeQuantize" version="opset1">
			<data levels="255"/>
			<input>
				<port id="0">
					<dim>48</dim>
					<dim>256</dim>
					<dim>1</dim>
					<dim>1</dim>
				</port>
				<port id="1">
					<dim>1</dim>
				</port>
				<port id="2">
					<dim>1</dim>
				</port>
				<port id="3">
					<dim>48</dim>
					<dim>1</dim>
					<dim>1</dim>
					<dim>1</dim>
				</port>
				<port id="4">
					<dim>48</dim>
					<dim>1</dim>
					<dim>1</dim>
					<dim>1</dim>
				</port>
			</input>
			<output>
				<port id="5" precision="FP32">
					<dim>48</dim>
					<dim>256</dim>
					<dim>1</dim>
					<dim>1</dim>
				</port>
			</output>
		</layer>
		<layer id="234" name="InceptionV3/InceptionV3/Mixed_5c/Branch_1/Conv2d_0b_1x1/Conv2D" type="Convolution" version="opset1">
			<data auto_pad="same_upper" dilations="1,1" output_padding="0,0" pads_begin="0,0" pads_end="0,0" strides="1,1"/>
			<input>
				<port id="0">
					<dim>1</dim>
					<dim>256</dim>
					<dim>35</dim>
					<dim>35</dim>
				</port>
				<port id="1">
					<dim>48</dim>
					<dim>256</dim>
					<dim>1</dim>
					<dim>1</dim>
				</port>
			</input>
			<output>
				<port id="2" precision="FP32">
					<dim>1</dim>
					<dim>48</dim>
					<dim>35</dim>
					<dim>35</dim>
				</port>
			</output>
		</layer>
		<layer id="235" name="data_add_1740617411/copy_const590_const" type="Const" version="opset1">
			<data element_type="f32" offset="467240" shape="1,48,1,1" size="192"/>
			<output>
				<port id="1" precision="FP32">
					<dim>1</dim>
					<dim>48</dim>
					<dim>1</dim>
					<dim>1</dim>
				</port>
			</output>
		</layer>
		<layer id="236" name="InceptionV3/InceptionV3/Mixed_5c/Branch_1/Conv2d_0b_1x1/BatchNorm/FusedBatchNormV3/variance/Fused_Add_" type="Add" version="opset1">
			<input>
				<port id="0">
					<dim>1</dim>
					<dim>48</dim>
					<dim>35</dim>
					<dim>35</dim>
				</port>
				<port id="1">
					<dim>1</dim>
					<dim>48</dim>
					<dim>1</dim>
					<dim>1</dim>
				</port>
			</input>
			<output>
				<port id="2" precision="FP32">
					<dim>1</dim>
					<dim>48</dim>
					<dim>35</dim>
					<dim>35</dim>
				</port>
			</output>
		</layer>
		<layer id="237" name="InceptionV3/InceptionV3/Mixed_5c/Branch_1/Conv2d_0b_1x1/Relu" type="ReLU" version="opset1">
			<input>
				<port id="0">
					<dim>1</dim>
					<dim>48</dim>
					<dim>35</dim>
					<dim>35</dim>
				</port>
			</input>
			<output>
				<port id="1" precision="FP32">
					<dim>1</dim>
					<dim>48</dim>
					<dim>35</dim>
					<dim>35</dim>
				</port>
			</output>
		</layer>
		<layer id="238" name="33893393_const" type="Const" version="opset1">
			<data element_type="f32" offset="467432" shape="" size="4"/>
			<output>
				<port id="1" precision="FP32"/>
			</output>
		</layer>
		<layer id="239" name="33903394_const" type="Const" version="opset1">
			<data element_type="f32" offset="467436" shape="" size="4"/>
			<output>
				<port id="1" precision="FP32"/>
			</output>
		</layer>
		<layer id="240" name="33913395_const" type="Const" version="opset1">
			<data element_type="f32" offset="467432" shape="" size="4"/>
			<output>
				<port id="1" precision="FP32"/>
			</output>
		</layer>
		<layer id="241" name="33923396_const" type="Const" version="opset1">
			<data element_type="f32" offset="467436" shape="" size="4"/>
			<output>
				<port id="1" precision="FP32"/>
			</output>
		</layer>
		<layer id="242" name="InceptionV3/InceptionV3/Mixed_5c/Branch_1/Conv_1_0c_5x5/Conv2D/fq_input_0" type="FakeQuantize" version="opset1">
			<data levels="256"/>
			<input>
				<port id="0">
					<dim>1</dim>
					<dim>48</dim>
					<dim>35</dim>
					<dim>35</dim>
				</port>
				<port id="1"/>
				<port id="2"/>
				<port id="3"/>
				<port id="4"/>
			</input>
			<output>
				<port id="5" precision="FP32">
					<dim>1</dim>
					<dim>48</dim>
					<dim>35</dim>
					<dim>35</dim>
				</port>
			</output>
		</layer>
		<layer id="243" name="InceptionV3/InceptionV3/Mixed_5c/Branch_1/Conv_1_0c_5x5/Conv2D/fq_weights_1/Convert_to_float/Cast_010497_const" type="Const" version="opset1">
			<data element_type="u8" offset="467440" shape="64,48,5,5" size="76800"/>
			<output>
				<port id="1" precision="U8">
					<dim>64</dim>
					<dim>48</dim>
					<dim>5</dim>
					<dim>5</dim>
				</port>
			</output>
		</layer>
		<layer id="244" name="InceptionV3/InceptionV3/Mixed_5c/Branch_1/Conv_1_0c_5x5/Conv2D/fq_weights_1/Convert_to_float" type="Convert" version="opset1">
			<data destination_type="f32"/>
			<input>
				<port id="0">
					<dim>64</dim>
					<dim>48</dim>
					<dim>5</dim>
					<dim>5</dim>
				</port>
			</input>
			<output>
				<port id="1" precision="FP32">
					<dim>64</dim>
					<dim>48</dim>
					<dim>5</dim>
					<dim>5</dim>
				</port>
			</output>
		</layer>
		<layer id="245" name="InceptionV3/InceptionV3/Mixed_5c/Branch_1/Conv_1_0c_5x5/Conv2D/fq_weights_1/Copy/out_low9163_const" type="Const" version="opset1">
			<data element_type="f32" offset="544240" shape="1" size="4"/>
			<output>
				<port id="1" precision="FP32">
					<dim>1</dim>
				</port>
			</output>
		</layer>
		<layer id="246" name="InceptionV3/InceptionV3/Mixed_5c/Branch_1/Conv_1_0c_5x5/Conv2D/fq_weights_1/Copy/out_high9164_const" type="Const" version="opset1">
			<data element_type="f32" offset="900" shape="1" size="4"/>
			<output>
				<port id="1" precision="FP32">
					<dim>1</dim>
				</port>
			</output>
		</layer>
		<layer id="247" name="34013405_const" type="Const" version="opset1">
			<data element_type="f32" offset="544244" shape="64,1,1,1" size="256"/>
			<output>
				<port id="1" precision="FP32">
					<dim>64</dim>
					<dim>1</dim>
					<dim>1</dim>
					<dim>1</dim>
				</port>
			</output>
		</layer>
		<layer id="248" name="34023406_const" type="Const" version="opset1">
			<data element_type="f32" offset="544500" shape="64,1,1,1" size="256"/>
			<output>
				<port id="1" precision="FP32">
					<dim>64</dim>
					<dim>1</dim>
					<dim>1</dim>
					<dim>1</dim>
				</port>
			</output>
		</layer>
		<layer id="249" name="InceptionV3/InceptionV3/Mixed_5c/Branch_1/Conv_1_0c_5x5/Conv2D/fq_weights_1" type="FakeQuantize" version="opset1">
			<data levels="255"/>
			<input>
				<port id="0">
					<dim>64</dim>
					<dim>48</dim>
					<dim>5</dim>
					<dim>5</dim>
				</port>
				<port id="1">
					<dim>1</dim>
				</port>
				<port id="2">
					<dim>1</dim>
				</port>
				<port id="3">
					<dim>64</dim>
					<dim>1</dim>
					<dim>1</dim>
					<dim>1</dim>
				</port>
				<port id="4">
					<dim>64</dim>
					<dim>1</dim>
					<dim>1</dim>
					<dim>1</dim>
				</port>
			</input>
			<output>
				<port id="5" precision="FP32">
					<dim>64</dim>
					<dim>48</dim>
					<dim>5</dim>
					<dim>5</dim>
				</port>
			</output>
		</layer>
		<layer id="250" name="InceptionV3/InceptionV3/Mixed_5c/Branch_1/Conv_1_0c_5x5/Conv2D" type="Convolution" version="opset1">
			<data auto_pad="same_upper" dilations="1,1" output_padding="0,0" pads_begin="2,2" pads_end="2,2" strides="1,1"/>
			<input>
				<port id="0">
					<dim>1</dim>
					<dim>48</dim>
					<dim>35</dim>
					<dim>35</dim>
				</port>
				<port id="1">
					<dim>64</dim>
					<dim>48</dim>
					<dim>5</dim>
					<dim>5</dim>
				</port>
			</input>
			<output>
				<port id="2" precision="FP32">
					<dim>1</dim>
					<dim>64</dim>
					<dim>35</dim>
					<dim>35</dim>
				</port>
			</output>
		</layer>
		<layer id="251" name="data_add_1741417419/copy_const595_const" type="Const" version="opset1">
			<data element_type="f32" offset="544756" shape="1,64,1,1" size="256"/>
			<output>
				<port id="1" precision="FP32">
					<dim>1</dim>
					<dim>64</dim>
					<dim>1</dim>
					<dim>1</dim>
				</port>
			</output>
		</layer>
		<layer id="252" name="InceptionV3/InceptionV3/Mixed_5c/Branch_1/Conv_1_0c_5x5/BatchNorm/FusedBatchNormV3/variance/Fused_Add_" type="Add" version="opset1">
			<input>
				<port id="0">
					<dim>1</dim>
					<dim>64</dim>
					<dim>35</dim>
					<dim>35</dim>
				</port>
				<port id="1">
					<dim>1</dim>
					<dim>64</dim>
					<dim>1</dim>
					<dim>1</dim>
				</port>
			</input>
			<output>
				<port id="2" precision="FP32">
					<dim>1</dim>
					<dim>64</dim>
					<dim>35</dim>
					<dim>35</dim>
				</port>
			</output>
		</layer>
		<layer id="253" name="InceptionV3/InceptionV3/Mixed_5c/Branch_1/Conv_1_0c_5x5/Relu" type="ReLU" version="opset1">
			<input>
				<port id="0">
					<dim>1</dim>
					<dim>64</dim>
					<dim>35</dim>
					<dim>35</dim>
				</port>
			</input>
			<output>
				<port id="1" precision="FP32">
					<dim>1</dim>
					<dim>64</dim>
					<dim>35</dim>
					<dim>35</dim>
				</port>
			</output>
		</layer>
		<layer id="254" name="48234827_const" type="Const" version="opset1">
			<data element_type="f32" offset="545012" shape="" size="4"/>
			<output>
				<port id="1" precision="FP32"/>
			</output>
		</layer>
		<layer id="255" name="48244828_const" type="Const" version="opset1">
			<data element_type="f32" offset="545016" shape="" size="4"/>
			<output>
				<port id="1" precision="FP32"/>
			</output>
		</layer>
		<layer id="256" name="48254829_const" type="Const" version="opset1">
			<data element_type="f32" offset="545012" shape="" size="4"/>
			<output>
				<port id="1" precision="FP32"/>
			</output>
		</layer>
		<layer id="257" name="48264830_const" type="Const" version="opset1">
			<data element_type="f32" offset="545016" shape="" size="4"/>
			<output>
				<port id="1" precision="FP32"/>
			</output>
		</layer>
		<layer id="258" name="InceptionV3/InceptionV3/Mixed_5c/concat/fq_input_1" type="FakeQuantize" version="opset1">
			<data levels="256"/>
			<input>
				<port id="0">
					<dim>1</dim>
					<dim>64</dim>
					<dim>35</dim>
					<dim>35</dim>
				</port>
				<port id="1"/>
				<port id="2"/>
				<port id="3"/>
				<port id="4"/>
			</input>
			<output>
				<port id="5" precision="FP32">
					<dim>1</dim>
					<dim>64</dim>
					<dim>35</dim>
					<dim>35</dim>
				</port>
			</output>
		</layer>
		<layer id="259" name="InceptionV3/InceptionV3/Mixed_5c/Branch_2/Conv2d_0a_1x1/Conv2D/fq_weights_1/Convert_to_float/Cast_010417_const" type="Const" version="opset1">
			<data element_type="u8" offset="545020" shape="64,256,1,1" size="16384"/>
			<output>
				<port id="1" precision="U8">
					<dim>64</dim>
					<dim>256</dim>
					<dim>1</dim>
					<dim>1</dim>
				</port>
			</output>
		</layer>
		<layer id="260" name="InceptionV3/InceptionV3/Mixed_5c/Branch_2/Conv2d_0a_1x1/Conv2D/fq_weights_1/Convert_to_float" type="Convert" version="opset1">
			<data destination_type="f32"/>
			<input>
				<port id="0">
					<dim>64</dim>
					<dim>256</dim>
					<dim>1</dim>
					<dim>1</dim>
				</port>
			</input>
			<output>
				<port id="1" precision="FP32">
					<dim>64</dim>
					<dim>256</dim>
					<dim>1</dim>
					<dim>1</dim>
				</port>
			</output>
		</layer>
		<layer id="261" name="InceptionV3/InceptionV3/Mixed_5c/Branch_2/Conv2d_0a_1x1/Conv2D/fq_weights_1/Copy/out_low8667_const" type="Const" version="opset1">
			<data element_type="f32" offset="561404" shape="1" size="4"/>
			<output>
				<port id="1" precision="FP32">
					<dim>1</dim>
				</port>
			</output>
		</layer>
		<layer id="262" name="InceptionV3/InceptionV3/Mixed_5c/Branch_2/Conv2d_0a_1x1/Conv2D/fq_weights_1/Copy/out_high8668_const" type="Const" version="opset1">
			<data element_type="f32" offset="900" shape="1" size="4"/>
			<output>
				<port id="1" precision="FP32">
					<dim>1</dim>
				</port>
			</output>
		</layer>
		<layer id="263" name="30613065_const" type="Const" version="opset1">
			<data element_type="f32" offset="561408" shape="64,1,1,1" size="256"/>
			<output>
				<port id="1" precision="FP32">
					<dim>64</dim>
					<dim>1</dim>
					<dim>1</dim>
					<dim>1</dim>
				</port>
			</output>
		</layer>
		<layer id="264" name="30623066_const" type="Const" version="opset1">
			<data element_type="f32" offset="561664" shape="64,1,1,1" size="256"/>
			<output>
				<port id="1" precision="FP32">
					<dim>64</dim>
					<dim>1</dim>
					<dim>1</dim>
					<dim>1</dim>
				</port>
			</output>
		</layer>
		<layer id="265" name="InceptionV3/InceptionV3/Mixed_5c/Branch_2/Conv2d_0a_1x1/Conv2D/fq_weights_1" type="FakeQuantize" version="opset1">
			<data levels="255"/>
			<input>
				<port id="0">
					<dim>64</dim>
					<dim>256</dim>
					<dim>1</dim>
					<dim>1</dim>
				</port>
				<port id="1">
					<dim>1</dim>
				</port>
				<port id="2">
					<dim>1</dim>
				</port>
				<port id="3">
					<dim>64</dim>
					<dim>1</dim>
					<dim>1</dim>
					<dim>1</dim>
				</port>
				<port id="4">
					<dim>64</dim>
					<dim>1</dim>
					<dim>1</dim>
					<dim>1</dim>
				</port>
			</input>
			<output>
				<port id="5" precision="FP32">
					<dim>64</dim>
					<dim>256</dim>
					<dim>1</dim>
					<dim>1</dim>
				</port>
			</output>
		</layer>
		<layer id="266" name="InceptionV3/InceptionV3/Mixed_5c/Branch_2/Conv2d_0a_1x1/Conv2D" type="Convolution" version="opset1">
			<data auto_pad="same_upper" dilations="1,1" output_padding="0,0" pads_begin="0,0" pads_end="0,0" strides="1,1"/>
			<input>
				<port id="0">
					<dim>1</dim>
					<dim>256</dim>
					<dim>35</dim>
					<dim>35</dim>
				</port>
				<port id="1">
					<dim>64</dim>
					<dim>256</dim>
					<dim>1</dim>
					<dim>1</dim>
				</port>
			</input>
			<output>
				<port id="2" precision="FP32">
					<dim>1</dim>
					<dim>64</dim>
					<dim>35</dim>
					<dim>35</dim>
				</port>
			</output>
		</layer>
		<layer id="267" name="data_add_1738217387/copy_const600_const" type="Const" version="opset1">
			<data element_type="f32" offset="561920" shape="1,64,1,1" size="256"/>
			<output>
				<port id="1" precision="FP32">
					<dim>1</dim>
					<dim>64</dim>
					<dim>1</dim>
					<dim>1</dim>
				</port>
			</output>
		</layer>
		<layer id="268" name="InceptionV3/InceptionV3/Mixed_5c/Branch_2/Conv2d_0a_1x1/BatchNorm/FusedBatchNormV3/variance/Fused_Add_" type="Add" version="opset1">
			<input>
				<port id="0">
					<dim>1</dim>
					<dim>64</dim>
					<dim>35</dim>
					<dim>35</dim>
				</port>
				<port id="1">
					<dim>1</dim>
					<dim>64</dim>
					<dim>1</dim>
					<dim>1</dim>
				</port>
			</input>
			<output>
				<port id="2" precision="FP32">
					<dim>1</dim>
					<dim>64</dim>
					<dim>35</dim>
					<dim>35</dim>
				</port>
			</output>
		</layer>
		<layer id="269" name="InceptionV3/InceptionV3/Mixed_5c/Branch_2/Conv2d_0a_1x1/Relu" type="ReLU" version="opset1">
			<input>
				<port id="0">
					<dim>1</dim>
					<dim>64</dim>
					<dim>35</dim>
					<dim>35</dim>
				</port>
			</input>
			<output>
				<port id="1" precision="FP32">
					<dim>1</dim>
					<dim>64</dim>
					<dim>35</dim>
					<dim>35</dim>
				</port>
			</output>
		</layer>
		<layer id="270" name="34493453_const" type="Const" version="opset1">
			<data element_type="f32" offset="562176" shape="" size="4"/>
			<output>
				<port id="1" precision="FP32"/>
			</output>
		</layer>
		<layer id="271" name="34503454_const" type="Const" version="opset1">
			<data element_type="f32" offset="562180" shape="" size="4"/>
			<output>
				<port id="1" precision="FP32"/>
			</output>
		</layer>
		<layer id="272" name="34513455_const" type="Const" version="opset1">
			<data element_type="f32" offset="562176" shape="" size="4"/>
			<output>
				<port id="1" precision="FP32"/>
			</output>
		</layer>
		<layer id="273" name="34523456_const" type="Const" version="opset1">
			<data element_type="f32" offset="562180" shape="" size="4"/>
			<output>
				<port id="1" precision="FP32"/>
			</output>
		</layer>
		<layer id="274" name="InceptionV3/InceptionV3/Mixed_5c/Branch_2/Conv2d_0b_3x3/Conv2D/fq_input_0" type="FakeQuantize" version="opset1">
			<data levels="256"/>
			<input>
				<port id="0">
					<dim>1</dim>
					<dim>64</dim>
					<dim>35</dim>
					<dim>35</dim>
				</port>
				<port id="1"/>
				<port id="2"/>
				<port id="3"/>
				<port id="4"/>
			</input>
			<output>
				<port id="5" precision="FP32">
					<dim>1</dim>
					<dim>64</dim>
					<dim>35</dim>
					<dim>35</dim>
				</port>
			</output>
		</layer>
		<layer id="275" name="InceptionV3/InceptionV3/Mixed_5c/Branch_2/Conv2d_0b_3x3/Conv2D/fq_weights_1/Convert_to_float/Cast_010527_const" type="Const" version="opset1">
			<data element_type="u8" offset="562184" shape="96,64,3,3" size="55296"/>
			<output>
				<port id="1" precision="U8">
					<dim>96</dim>
					<dim>64</dim>
					<dim>3</dim>
					<dim>3</dim>
				</port>
			</output>
		</layer>
		<layer id="276" name="InceptionV3/InceptionV3/Mixed_5c/Branch_2/Conv2d_0b_3x3/Conv2D/fq_weights_1/Convert_to_float" type="Convert" version="opset1">
			<data destination_type="f32"/>
			<input>
				<port id="0">
					<dim>96</dim>
					<dim>64</dim>
					<dim>3</dim>
					<dim>3</dim>
				</port>
			</input>
			<output>
				<port id="1" precision="FP32">
					<dim>96</dim>
					<dim>64</dim>
					<dim>3</dim>
					<dim>3</dim>
				</port>
			</output>
		</layer>
		<layer id="277" name="InceptionV3/InceptionV3/Mixed_5c/Branch_2/Conv2d_0b_3x3/Conv2D/fq_weights_1/Copy/out_low9003_const" type="Const" version="opset1">
			<data element_type="f32" offset="617480" shape="1" size="4"/>
			<output>
				<port id="1" precision="FP32">
					<dim>1</dim>
				</port>
			</output>
		</layer>
		<layer id="278" name="InceptionV3/InceptionV3/Mixed_5c/Branch_2/Conv2d_0b_3x3/Conv2D/fq_weights_1/Copy/out_high9004_const" type="Const" version="opset1">
			<data element_type="f32" offset="900" shape="1" size="4"/>
			<output>
				<port id="1" precision="FP32">
					<dim>1</dim>
				</port>
			</output>
		</layer>
		<layer id="279" name="34613465_const" type="Const" version="opset1">
			<data element_type="f32" offset="617484" shape="96,1,1,1" size="384"/>
			<output>
				<port id="1" precision="FP32">
					<dim>96</dim>
					<dim>1</dim>
					<dim>1</dim>
					<dim>1</dim>
				</port>
			</output>
		</layer>
		<layer id="280" name="34623466_const" type="Const" version="opset1">
			<data element_type="f32" offset="617868" shape="96,1,1,1" size="384"/>
			<output>
				<port id="1" precision="FP32">
					<dim>96</dim>
					<dim>1</dim>
					<dim>1</dim>
					<dim>1</dim>
				</port>
			</output>
		</layer>
		<layer id="281" name="InceptionV3/InceptionV3/Mixed_5c/Branch_2/Conv2d_0b_3x3/Conv2D/fq_weights_1" type="FakeQuantize" version="opset1">
			<data levels="255"/>
			<input>
				<port id="0">
					<dim>96</dim>
					<dim>64</dim>
					<dim>3</dim>
					<dim>3</dim>
				</port>
				<port id="1">
					<dim>1</dim>
				</port>
				<port id="2">
					<dim>1</dim>
				</port>
				<port id="3">
					<dim>96</dim>
					<dim>1</dim>
					<dim>1</dim>
					<dim>1</dim>
				</port>
				<port id="4">
					<dim>96</dim>
					<dim>1</dim>
					<dim>1</dim>
					<dim>1</dim>
				</port>
			</input>
			<output>
				<port id="5" precision="FP32">
					<dim>96</dim>
					<dim>64</dim>
					<dim>3</dim>
					<dim>3</dim>
				</port>
			</output>
		</layer>
		<layer id="282" name="InceptionV3/InceptionV3/Mixed_5c/Branch_2/Conv2d_0b_3x3/Conv2D" type="Convolution" version="opset1">
			<data auto_pad="same_upper" dilations="1,1" output_padding="0,0" pads_begin="1,1" pads_end="1,1" strides="1,1"/>
			<input>
				<port id="0">
					<dim>1</dim>
					<dim>64</dim>
					<dim>35</dim>
					<dim>35</dim>
				</port>
				<port id="1">
					<dim>96</dim>
					<dim>64</dim>
					<dim>3</dim>
					<dim>3</dim>
				</port>
			</input>
			<output>
				<port id="2" precision="FP32">
					<dim>1</dim>
					<dim>96</dim>
					<dim>35</dim>
					<dim>35</dim>
				</port>
			</output>
		</layer>
		<layer id="283" name="data_add_1739017395/copy_const605_const" type="Const" version="opset1">
			<data element_type="f32" offset="618252" shape="1,96,1,1" size="384"/>
			<output>
				<port id="1" precision="FP32">
					<dim>1</dim>
					<dim>96</dim>
					<dim>1</dim>
					<dim>1</dim>
				</port>
			</output>
		</layer>
		<layer id="284" name="InceptionV3/InceptionV3/Mixed_5c/Branch_2/Conv2d_0b_3x3/BatchNorm/FusedBatchNormV3/variance/Fused_Add_" type="Add" version="opset1">
			<input>
				<port id="0">
					<dim>1</dim>
					<dim>96</dim>
					<dim>35</dim>
					<dim>35</dim>
				</port>
				<port id="1">
					<dim>1</dim>
					<dim>96</dim>
					<dim>1</dim>
					<dim>1</dim>
				</port>
			</input>
			<output>
				<port id="2" precision="FP32">
					<dim>1</dim>
					<dim>96</dim>
					<dim>35</dim>
					<dim>35</dim>
				</port>
			</output>
		</layer>
		<layer id="285" name="InceptionV3/InceptionV3/Mixed_5c/Branch_2/Conv2d_0b_3x3/Relu" type="ReLU" version="opset1">
			<input>
				<port id="0">
					<dim>1</dim>
					<dim>96</dim>
					<dim>35</dim>
					<dim>35</dim>
				</port>
			</input>
			<output>
				<port id="1" precision="FP32">
					<dim>1</dim>
					<dim>96</dim>
					<dim>35</dim>
					<dim>35</dim>
				</port>
			</output>
		</layer>
		<layer id="286" name="31393143_const" type="Const" version="opset1">
			<data element_type="f32" offset="618636" shape="" size="4"/>
			<output>
				<port id="1" precision="FP32"/>
			</output>
		</layer>
		<layer id="287" name="31403144_const" type="Const" version="opset1">
			<data element_type="f32" offset="618640" shape="" size="4"/>
			<output>
				<port id="1" precision="FP32"/>
			</output>
		</layer>
		<layer id="288" name="31413145_const" type="Const" version="opset1">
			<data element_type="f32" offset="618636" shape="" size="4"/>
			<output>
				<port id="1" precision="FP32"/>
			</output>
		</layer>
		<layer id="289" name="31423146_const" type="Const" version="opset1">
			<data element_type="f32" offset="618640" shape="" size="4"/>
			<output>
				<port id="1" precision="FP32"/>
			</output>
		</layer>
		<layer id="290" name="InceptionV3/InceptionV3/Mixed_5c/Branch_2/Conv2d_0c_3x3/Conv2D/fq_input_0" type="FakeQuantize" version="opset1">
			<data levels="256"/>
			<input>
				<port id="0">
					<dim>1</dim>
					<dim>96</dim>
					<dim>35</dim>
					<dim>35</dim>
				</port>
				<port id="1"/>
				<port id="2"/>
				<port id="3"/>
				<port id="4"/>
			</input>
			<output>
				<port id="5" precision="FP32">
					<dim>1</dim>
					<dim>96</dim>
					<dim>35</dim>
					<dim>35</dim>
				</port>
			</output>
		</layer>
		<layer id="291" name="InceptionV3/InceptionV3/Mixed_5c/Branch_2/Conv2d_0c_3x3/Conv2D/fq_weights_1/Convert_to_float/Cast_010575_const" type="Const" version="opset1">
			<data element_type="u8" offset="618644" shape="96,96,3,3" size="82944"/>
			<output>
				<port id="1" precision="U8">
					<dim>96</dim>
					<dim>96</dim>
					<dim>3</dim>
					<dim>3</dim>
				</port>
			</output>
		</layer>
		<layer id="292" name="InceptionV3/InceptionV3/Mixed_5c/Branch_2/Conv2d_0c_3x3/Conv2D/fq_weights_1/Convert_to_float" type="Convert" version="opset1">
			<data destination_type="f32"/>
			<input>
				<port id="0">
					<dim>96</dim>
					<dim>96</dim>
					<dim>3</dim>
					<dim>3</dim>
				</port>
			</input>
			<output>
				<port id="1" precision="FP32">
					<dim>96</dim>
					<dim>96</dim>
					<dim>3</dim>
					<dim>3</dim>
				</port>
			</output>
		</layer>
		<layer id="293" name="InceptionV3/InceptionV3/Mixed_5c/Branch_2/Conv2d_0c_3x3/Conv2D/fq_weights_1/Copy/out_low9371_const" type="Const" version="opset1">
			<data element_type="f32" offset="701588" shape="1" size="4"/>
			<output>
				<port id="1" precision="FP32">
					<dim>1</dim>
				</port>
			</output>
		</layer>
		<layer id="294" name="InceptionV3/InceptionV3/Mixed_5c/Branch_2/Conv2d_0c_3x3/Conv2D/fq_weights_1/Copy/out_high9372_const" type="Const" version="opset1">
			<data element_type="f32" offset="900" shape="1" size="4"/>
			<output>
				<port id="1" precision="FP32">
					<dim>1</dim>
				</port>
			</output>
		</layer>
		<layer id="295" name="31513155_const" type="Const" version="opset1">
			<data element_type="f32" offset="701592" shape="96,1,1,1" size="384"/>
			<output>
				<port id="1" precision="FP32">
					<dim>96</dim>
					<dim>1</dim>
					<dim>1</dim>
					<dim>1</dim>
				</port>
			</output>
		</layer>
		<layer id="296" name="31523156_const" type="Const" version="opset1">
			<data element_type="f32" offset="701976" shape="96,1,1,1" size="384"/>
			<output>
				<port id="1" precision="FP32">
					<dim>96</dim>
					<dim>1</dim>
					<dim>1</dim>
					<dim>1</dim>
				</port>
			</output>
		</layer>
		<layer id="297" name="InceptionV3/InceptionV3/Mixed_5c/Branch_2/Conv2d_0c_3x3/Conv2D/fq_weights_1" type="FakeQuantize" version="opset1">
			<data levels="255"/>
			<input>
				<port id="0">
					<dim>96</dim>
					<dim>96</dim>
					<dim>3</dim>
					<dim>3</dim>
				</port>
				<port id="1">
					<dim>1</dim>
				</port>
				<port id="2">
					<dim>1</dim>
				</port>
				<port id="3">
					<dim>96</dim>
					<dim>1</dim>
					<dim>1</dim>
					<dim>1</dim>
				</port>
				<port id="4">
					<dim>96</dim>
					<dim>1</dim>
					<dim>1</dim>
					<dim>1</dim>
				</port>
			</input>
			<output>
				<port id="5" precision="FP32">
					<dim>96</dim>
					<dim>96</dim>
					<dim>3</dim>
					<dim>3</dim>
				</port>
			</output>
		</layer>
		<layer id="298" name="InceptionV3/InceptionV3/Mixed_5c/Branch_2/Conv2d_0c_3x3/Conv2D" type="Convolution" version="opset1">
			<data auto_pad="same_upper" dilations="1,1" output_padding="0,0" pads_begin="1,1" pads_end="1,1" strides="1,1"/>
			<input>
				<port id="0">
					<dim>1</dim>
					<dim>96</dim>
					<dim>35</dim>
					<dim>35</dim>
				</port>
				<port id="1">
					<dim>96</dim>
					<dim>96</dim>
					<dim>3</dim>
					<dim>3</dim>
				</port>
			</input>
			<output>
				<port id="2" precision="FP32">
					<dim>1</dim>
					<dim>96</dim>
					<dim>35</dim>
					<dim>35</dim>
				</port>
			</output>
		</layer>
		<layer id="299" name="data_add_1739817403/copy_const610_const" type="Const" version="opset1">
			<data element_type="f32" offset="702360" shape="1,96,1,1" size="384"/>
			<output>
				<port id="1" precision="FP32">
					<dim>1</dim>
					<dim>96</dim>
					<dim>1</dim>
					<dim>1</dim>
				</port>
			</output>
		</layer>
		<layer id="300" name="InceptionV3/InceptionV3/Mixed_5c/Branch_2/Conv2d_0c_3x3/BatchNorm/FusedBatchNormV3/variance/Fused_Add_" type="Add" version="opset1">
			<input>
				<port id="0">
					<dim>1</dim>
					<dim>96</dim>
					<dim>35</dim>
					<dim>35</dim>
				</port>
				<port id="1">
					<dim>1</dim>
					<dim>96</dim>
					<dim>1</dim>
					<dim>1</dim>
				</port>
			</input>
			<output>
				<port id="2" precision="FP32">
					<dim>1</dim>
					<dim>96</dim>
					<dim>35</dim>
					<dim>35</dim>
				</port>
			</output>
		</layer>
		<layer id="301" name="InceptionV3/InceptionV3/Mixed_5c/Branch_2/Conv2d_0c_3x3/Relu" type="ReLU" version="opset1">
			<input>
				<port id="0">
					<dim>1</dim>
					<dim>96</dim>
					<dim>35</dim>
					<dim>35</dim>
				</port>
			</input>
			<output>
				<port id="1" precision="FP32">
					<dim>1</dim>
					<dim>96</dim>
					<dim>35</dim>
					<dim>35</dim>
				</port>
			</output>
		</layer>
		<layer id="302" name="48334837_const" type="Const" version="opset1">
			<data element_type="f32" offset="702744" shape="" size="4"/>
			<output>
				<port id="1" precision="FP32"/>
			</output>
		</layer>
		<layer id="303" name="48344838_const" type="Const" version="opset1">
			<data element_type="f32" offset="702748" shape="" size="4"/>
			<output>
				<port id="1" precision="FP32"/>
			</output>
		</layer>
		<layer id="304" name="48354839_const" type="Const" version="opset1">
			<data element_type="f32" offset="702744" shape="" size="4"/>
			<output>
				<port id="1" precision="FP32"/>
			</output>
		</layer>
		<layer id="305" name="48364840_const" type="Const" version="opset1">
			<data element_type="f32" offset="702748" shape="" size="4"/>
			<output>
				<port id="1" precision="FP32"/>
			</output>
		</layer>
		<layer id="306" name="InceptionV3/InceptionV3/Mixed_5c/concat/fq_input_2" type="FakeQuantize" version="opset1">
			<data levels="256"/>
			<input>
				<port id="0">
					<dim>1</dim>
					<dim>96</dim>
					<dim>35</dim>
					<dim>35</dim>
				</port>
				<port id="1"/>
				<port id="2"/>
				<port id="3"/>
				<port id="4"/>
			</input>
			<output>
				<port id="5" precision="FP32">
					<dim>1</dim>
					<dim>96</dim>
					<dim>35</dim>
					<dim>35</dim>
				</port>
			</output>
		</layer>
		<layer id="307" name="InceptionV3/InceptionV3/Mixed_5c/Branch_3/AvgPool_0a_3x3/AvgPool" type="AvgPool" version="opset1">
			<data auto_pad="same_upper" exclude-pad="true" kernel="3,3" pads_begin="1,1" pads_end="1,1" strides="1,1"/>
			<input>
				<port id="0">
					<dim>1</dim>
					<dim>256</dim>
					<dim>35</dim>
					<dim>35</dim>
				</port>
			</input>
			<output>
				<port id="1" precision="FP32">
					<dim>1</dim>
					<dim>256</dim>
					<dim>35</dim>
					<dim>35</dim>
				</port>
			</output>
		</layer>
		<layer id="308" name="35493553_const" type="Const" version="opset1">
			<data element_type="f32" offset="702744" shape="" size="4"/>
			<output>
				<port id="1" precision="FP32"/>
			</output>
		</layer>
		<layer id="309" name="35503554_const" type="Const" version="opset1">
			<data element_type="f32" offset="702752" shape="" size="4"/>
			<output>
				<port id="1" precision="FP32"/>
			</output>
		</layer>
		<layer id="310" name="35513555_const" type="Const" version="opset1">
			<data element_type="f32" offset="702744" shape="" size="4"/>
			<output>
				<port id="1" precision="FP32"/>
			</output>
		</layer>
		<layer id="311" name="35523556_const" type="Const" version="opset1">
			<data element_type="f32" offset="702752" shape="" size="4"/>
			<output>
				<port id="1" precision="FP32"/>
			</output>
		</layer>
		<layer id="312" name="InceptionV3/InceptionV3/Mixed_5c/Branch_3/Conv2d_0b_1x1/Conv2D/fq_input_0" type="FakeQuantize" version="opset1">
			<data levels="256"/>
			<input>
				<port id="0">
					<dim>1</dim>
					<dim>256</dim>
					<dim>35</dim>
					<dim>35</dim>
				</port>
				<port id="1"/>
				<port id="2"/>
				<port id="3"/>
				<port id="4"/>
			</input>
			<output>
				<port id="5" precision="FP32">
					<dim>1</dim>
					<dim>256</dim>
					<dim>35</dim>
					<dim>35</dim>
				</port>
			</output>
		</layer>
		<layer id="313" name="InceptionV3/InceptionV3/Mixed_5c/Branch_3/Conv2d_0b_1x1/Conv2D/fq_weights_1/Convert_to_float/Cast_010583_const" type="Const" version="opset1">
			<data element_type="u8" offset="702756" shape="64,256,1,1" size="16384"/>
			<output>
				<port id="1" precision="U8">
					<dim>64</dim>
					<dim>256</dim>
					<dim>1</dim>
					<dim>1</dim>
				</port>
			</output>
		</layer>
		<layer id="314" name="InceptionV3/InceptionV3/Mixed_5c/Branch_3/Conv2d_0b_1x1/Conv2D/fq_weights_1/Convert_to_float" type="Convert" version="opset1">
			<data destination_type="f32"/>
			<input>
				<port id="0">
					<dim>64</dim>
					<dim>256</dim>
					<dim>1</dim>
					<dim>1</dim>
				</port>
			</input>
			<output>
				<port id="1" precision="FP32">
					<dim>64</dim>
					<dim>256</dim>
					<dim>1</dim>
					<dim>1</dim>
				</port>
			</output>
		</layer>
		<layer id="315" name="InceptionV3/InceptionV3/Mixed_5c/Branch_3/Conv2d_0b_1x1/Conv2D/fq_weights_1/Copy/out_low9059_const" type="Const" version="opset1">
			<data element_type="f32" offset="719140" shape="1" size="4"/>
			<output>
				<port id="1" precision="FP32">
					<dim>1</dim>
				</port>
			</output>
		</layer>
		<layer id="316" name="InceptionV3/InceptionV3/Mixed_5c/Branch_3/Conv2d_0b_1x1/Conv2D/fq_weights_1/Copy/out_high9060_const" type="Const" version="opset1">
			<data element_type="f32" offset="900" shape="1" size="4"/>
			<output>
				<port id="1" precision="FP32">
					<dim>1</dim>
				</port>
			</output>
		</layer>
		<layer id="317" name="35613565_const" type="Const" version="opset1">
			<data element_type="f32" offset="719144" shape="64,1,1,1" size="256"/>
			<output>
				<port id="1" precision="FP32">
					<dim>64</dim>
					<dim>1</dim>
					<dim>1</dim>
					<dim>1</dim>
				</port>
			</output>
		</layer>
		<layer id="318" name="35623566_const" type="Const" version="opset1">
			<data element_type="f32" offset="719400" shape="64,1,1,1" size="256"/>
			<output>
				<port id="1" precision="FP32">
					<dim>64</dim>
					<dim>1</dim>
					<dim>1</dim>
					<dim>1</dim>
				</port>
			</output>
		</layer>
		<layer id="319" name="InceptionV3/InceptionV3/Mixed_5c/Branch_3/Conv2d_0b_1x1/Conv2D/fq_weights_1" type="FakeQuantize" version="opset1">
			<data levels="255"/>
			<input>
				<port id="0">
					<dim>64</dim>
					<dim>256</dim>
					<dim>1</dim>
					<dim>1</dim>
				</port>
				<port id="1">
					<dim>1</dim>
				</port>
				<port id="2">
					<dim>1</dim>
				</port>
				<port id="3">
					<dim>64</dim>
					<dim>1</dim>
					<dim>1</dim>
					<dim>1</dim>
				</port>
				<port id="4">
					<dim>64</dim>
					<dim>1</dim>
					<dim>1</dim>
					<dim>1</dim>
				</port>
			</input>
			<output>
				<port id="5" precision="FP32">
					<dim>64</dim>
					<dim>256</dim>
					<dim>1</dim>
					<dim>1</dim>
				</port>
			</output>
		</layer>
		<layer id="320" name="InceptionV3/InceptionV3/Mixed_5c/Branch_3/Conv2d_0b_1x1/Conv2D" type="Convolution" version="opset1">
			<data auto_pad="same_upper" dilations="1,1" output_padding="0,0" pads_begin="0,0" pads_end="0,0" strides="1,1"/>
			<input>
				<port id="0">
					<dim>1</dim>
					<dim>256</dim>
					<dim>35</dim>
					<dim>35</dim>
				</port>
				<port id="1">
					<dim>64</dim>
					<dim>256</dim>
					<dim>1</dim>
					<dim>1</dim>
				</port>
			</input>
			<output>
				<port id="2" precision="FP32">
					<dim>1</dim>
					<dim>64</dim>
					<dim>35</dim>
					<dim>35</dim>
				</port>
			</output>
		</layer>
		<layer id="321" name="data_add_1737417379/copy_const616_const" type="Const" version="opset1">
			<data element_type="f32" offset="719656" shape="1,64,1,1" size="256"/>
			<output>
				<port id="1" precision="FP32">
					<dim>1</dim>
					<dim>64</dim>
					<dim>1</dim>
					<dim>1</dim>
				</port>
			</output>
		</layer>
		<layer id="322" name="InceptionV3/InceptionV3/Mixed_5c/Branch_3/Conv2d_0b_1x1/BatchNorm/FusedBatchNormV3/variance/Fused_Add_" type="Add" version="opset1">
			<input>
				<port id="0">
					<dim>1</dim>
					<dim>64</dim>
					<dim>35</dim>
					<dim>35</dim>
				</port>
				<port id="1">
					<dim>1</dim>
					<dim>64</dim>
					<dim>1</dim>
					<dim>1</dim>
				</port>
			</input>
			<output>
				<port id="2" precision="FP32">
					<dim>1</dim>
					<dim>64</dim>
					<dim>35</dim>
					<dim>35</dim>
				</port>
			</output>
		</layer>
		<layer id="323" name="InceptionV3/InceptionV3/Mixed_5c/Branch_3/Conv2d_0b_1x1/Relu" type="ReLU" version="opset1">
			<input>
				<port id="0">
					<dim>1</dim>
					<dim>64</dim>
					<dim>35</dim>
					<dim>35</dim>
				</port>
			</input>
			<output>
				<port id="1" precision="FP32">
					<dim>1</dim>
					<dim>64</dim>
					<dim>35</dim>
					<dim>35</dim>
				</port>
			</output>
		</layer>
		<layer id="324" name="48434847_const" type="Const" version="opset1">
			<data element_type="f32" offset="719912" shape="" size="4"/>
			<output>
				<port id="1" precision="FP32"/>
			</output>
		</layer>
		<layer id="325" name="48444848_const" type="Const" version="opset1">
			<data element_type="f32" offset="719916" shape="" size="4"/>
			<output>
				<port id="1" precision="FP32"/>
			</output>
		</layer>
		<layer id="326" name="48454849_const" type="Const" version="opset1">
			<data element_type="f32" offset="719912" shape="" size="4"/>
			<output>
				<port id="1" precision="FP32"/>
			</output>
		</layer>
		<layer id="327" name="48464850_const" type="Const" version="opset1">
			<data element_type="f32" offset="719916" shape="" size="4"/>
			<output>
				<port id="1" precision="FP32"/>
			</output>
		</layer>
		<layer id="328" name="InceptionV3/InceptionV3/Mixed_5c/concat/fq_input_3" type="FakeQuantize" version="opset1">
			<data levels="256"/>
			<input>
				<port id="0">
					<dim>1</dim>
					<dim>64</dim>
					<dim>35</dim>
					<dim>35</dim>
				</port>
				<port id="1"/>
				<port id="2"/>
				<port id="3"/>
				<port id="4"/>
			</input>
			<output>
				<port id="5" precision="FP32">
					<dim>1</dim>
					<dim>64</dim>
					<dim>35</dim>
					<dim>35</dim>
				</port>
			</output>
		</layer>
		<layer id="329" name="InceptionV3/InceptionV3/Mixed_5c/concat" type="Concat" version="opset1">
			<data axis="1"/>
			<input>
				<port id="0">
					<dim>1</dim>
					<dim>64</dim>
					<dim>35</dim>
					<dim>35</dim>
				</port>
				<port id="1">
					<dim>1</dim>
					<dim>64</dim>
					<dim>35</dim>
					<dim>35</dim>
				</port>
				<port id="2">
					<dim>1</dim>
					<dim>96</dim>
					<dim>35</dim>
					<dim>35</dim>
				</port>
				<port id="3">
					<dim>1</dim>
					<dim>64</dim>
					<dim>35</dim>
					<dim>35</dim>
				</port>
			</input>
			<output>
				<port id="4" precision="FP32">
					<dim>1</dim>
					<dim>288</dim>
					<dim>35</dim>
					<dim>35</dim>
				</port>
			</output>
		</layer>
		<layer id="330" name="InceptionV3/InceptionV3/Mixed_5d/Branch_0/Conv2d_0a_1x1/Conv2D/fq_weights_1/Convert_to_float/Cast_010587_const" type="Const" version="opset1">
			<data element_type="u8" offset="719920" shape="64,288,1,1" size="18432"/>
			<output>
				<port id="1" precision="U8">
					<dim>64</dim>
					<dim>288</dim>
					<dim>1</dim>
					<dim>1</dim>
				</port>
			</output>
		</layer>
		<layer id="331" name="InceptionV3/InceptionV3/Mixed_5d/Branch_0/Conv2d_0a_1x1/Conv2D/fq_weights_1/Convert_to_float" type="Convert" version="opset1">
			<data destination_type="f32"/>
			<input>
				<port id="0">
					<dim>64</dim>
					<dim>288</dim>
					<dim>1</dim>
					<dim>1</dim>
				</port>
			</input>
			<output>
				<port id="1" precision="FP32">
					<dim>64</dim>
					<dim>288</dim>
					<dim>1</dim>
					<dim>1</dim>
				</port>
			</output>
		</layer>
		<layer id="332" name="InceptionV3/InceptionV3/Mixed_5d/Branch_0/Conv2d_0a_1x1/Conv2D/fq_weights_1/Copy/out_low8691_const" type="Const" version="opset1">
			<data element_type="f32" offset="738352" shape="1" size="4"/>
			<output>
				<port id="1" precision="FP32">
					<dim>1</dim>
				</port>
			</output>
		</layer>
		<layer id="333" name="InceptionV3/InceptionV3/Mixed_5d/Branch_0/Conv2d_0a_1x1/Conv2D/fq_weights_1/Copy/out_high8692_const" type="Const" version="opset1">
			<data element_type="f32" offset="900" shape="1" size="4"/>
			<output>
				<port id="1" precision="FP32">
					<dim>1</dim>
				</port>
			</output>
		</layer>
		<layer id="334" name="29012905_const" type="Const" version="opset1">
			<data element_type="f32" offset="738356" shape="64,1,1,1" size="256"/>
			<output>
				<port id="1" precision="FP32">
					<dim>64</dim>
					<dim>1</dim>
					<dim>1</dim>
					<dim>1</dim>
				</port>
			</output>
		</layer>
		<layer id="335" name="29022906_const" type="Const" version="opset1">
			<data element_type="f32" offset="738612" shape="64,1,1,1" size="256"/>
			<output>
				<port id="1" precision="FP32">
					<dim>64</dim>
					<dim>1</dim>
					<dim>1</dim>
					<dim>1</dim>
				</port>
			</output>
		</layer>
		<layer id="336" name="InceptionV3/InceptionV3/Mixed_5d/Branch_0/Conv2d_0a_1x1/Conv2D/fq_weights_1" type="FakeQuantize" version="opset1">
			<data levels="255"/>
			<input>
				<port id="0">
					<dim>64</dim>
					<dim>288</dim>
					<dim>1</dim>
					<dim>1</dim>
				</port>
				<port id="1">
					<dim>1</dim>
				</port>
				<port id="2">
					<dim>1</dim>
				</port>
				<port id="3">
					<dim>64</dim>
					<dim>1</dim>
					<dim>1</dim>
					<dim>1</dim>
				</port>
				<port id="4">
					<dim>64</dim>
					<dim>1</dim>
					<dim>1</dim>
					<dim>1</dim>
				</port>
			</input>
			<output>
				<port id="5" precision="FP32">
					<dim>64</dim>
					<dim>288</dim>
					<dim>1</dim>
					<dim>1</dim>
				</port>
			</output>
		</layer>
		<layer id="337" name="InceptionV3/InceptionV3/Mixed_5d/Branch_0/Conv2d_0a_1x1/Conv2D" type="Convolution" version="opset1">
			<data auto_pad="same_upper" dilations="1,1" output_padding="0,0" pads_begin="0,0" pads_end="0,0" strides="1,1"/>
			<input>
				<port id="0">
					<dim>1</dim>
					<dim>288</dim>
					<dim>35</dim>
					<dim>35</dim>
				</port>
				<port id="1">
					<dim>64</dim>
					<dim>288</dim>
					<dim>1</dim>
					<dim>1</dim>
				</port>
			</input>
			<output>
				<port id="2" precision="FP32">
					<dim>1</dim>
					<dim>64</dim>
					<dim>35</dim>
					<dim>35</dim>
				</port>
			</output>
		</layer>
		<layer id="338" name="data_add_1747817483/copy_const622_const" type="Const" version="opset1">
			<data element_type="f32" offset="738868" shape="1,64,1,1" size="256"/>
			<output>
				<port id="1" precision="FP32">
					<dim>1</dim>
					<dim>64</dim>
					<dim>1</dim>
					<dim>1</dim>
				</port>
			</output>
		</layer>
		<layer id="339" name="InceptionV3/InceptionV3/Mixed_5d/Branch_0/Conv2d_0a_1x1/BatchNorm/FusedBatchNormV3/variance/Fused_Add_" type="Add" version="opset1">
			<input>
				<port id="0">
					<dim>1</dim>
					<dim>64</dim>
					<dim>35</dim>
					<dim>35</dim>
				</port>
				<port id="1">
					<dim>1</dim>
					<dim>64</dim>
					<dim>1</dim>
					<dim>1</dim>
				</port>
			</input>
			<output>
				<port id="2" precision="FP32">
					<dim>1</dim>
					<dim>64</dim>
					<dim>35</dim>
					<dim>35</dim>
				</port>
			</output>
		</layer>
		<layer id="340" name="InceptionV3/InceptionV3/Mixed_5d/Branch_0/Conv2d_0a_1x1/Relu" type="ReLU" version="opset1">
			<input>
				<port id="0">
					<dim>1</dim>
					<dim>64</dim>
					<dim>35</dim>
					<dim>35</dim>
				</port>
			</input>
			<output>
				<port id="1" precision="FP32">
					<dim>1</dim>
					<dim>64</dim>
					<dim>35</dim>
					<dim>35</dim>
				</port>
			</output>
		</layer>
		<layer id="341" name="49734977_const" type="Const" version="opset1">
			<data element_type="f32" offset="739124" shape="" size="4"/>
			<output>
				<port id="1" precision="FP32"/>
			</output>
		</layer>
		<layer id="342" name="49744978_const" type="Const" version="opset1">
			<data element_type="f32" offset="739128" shape="" size="4"/>
			<output>
				<port id="1" precision="FP32"/>
			</output>
		</layer>
		<layer id="343" name="49754979_const" type="Const" version="opset1">
			<data element_type="f32" offset="739124" shape="" size="4"/>
			<output>
				<port id="1" precision="FP32"/>
			</output>
		</layer>
		<layer id="344" name="49764980_const" type="Const" version="opset1">
			<data element_type="f32" offset="739128" shape="" size="4"/>
			<output>
				<port id="1" precision="FP32"/>
			</output>
		</layer>
		<layer id="345" name="InceptionV3/InceptionV3/Mixed_5d/concat/fq_input_0" type="FakeQuantize" version="opset1">
			<data levels="256"/>
			<input>
				<port id="0">
					<dim>1</dim>
					<dim>64</dim>
					<dim>35</dim>
					<dim>35</dim>
				</port>
				<port id="1"/>
				<port id="2"/>
				<port id="3"/>
				<port id="4"/>
			</input>
			<output>
				<port id="5" precision="FP32">
					<dim>1</dim>
					<dim>64</dim>
					<dim>35</dim>
					<dim>35</dim>
				</port>
			</output>
		</layer>
		<layer id="346" name="InceptionV3/InceptionV3/Mixed_5d/Branch_1/Conv2d_0a_1x1/Conv2D/fq_weights_1/Convert_to_float/Cast_010457_const" type="Const" version="opset1">
			<data element_type="u8" offset="739132" shape="48,288,1,1" size="13824"/>
			<output>
				<port id="1" precision="U8">
					<dim>48</dim>
					<dim>288</dim>
					<dim>1</dim>
					<dim>1</dim>
				</port>
			</output>
		</layer>
		<layer id="347" name="InceptionV3/InceptionV3/Mixed_5d/Branch_1/Conv2d_0a_1x1/Conv2D/fq_weights_1/Convert_to_float" type="Convert" version="opset1">
			<data destination_type="f32"/>
			<input>
				<port id="0">
					<dim>48</dim>
					<dim>288</dim>
					<dim>1</dim>
					<dim>1</dim>
				</port>
			</input>
			<output>
				<port id="1" precision="FP32">
					<dim>48</dim>
					<dim>288</dim>
					<dim>1</dim>
					<dim>1</dim>
				</port>
			</output>
		</layer>
		<layer id="348" name="InceptionV3/InceptionV3/Mixed_5d/Branch_1/Conv2d_0a_1x1/Conv2D/fq_weights_1/Copy/out_low9123_const" type="Const" version="opset1">
			<data element_type="f32" offset="752956" shape="1" size="4"/>
			<output>
				<port id="1" precision="FP32">
					<dim>1</dim>
				</port>
			</output>
		</layer>
		<layer id="349" name="InceptionV3/InceptionV3/Mixed_5d/Branch_1/Conv2d_0a_1x1/Conv2D/fq_weights_1/Copy/out_high9124_const" type="Const" version="opset1">
			<data element_type="f32" offset="900" shape="1" size="4"/>
			<output>
				<port id="1" precision="FP32">
					<dim>1</dim>
				</port>
			</output>
		</layer>
		<layer id="350" name="23112315_const" type="Const" version="opset1">
			<data element_type="f32" offset="752960" shape="48,1,1,1" size="192"/>
			<output>
				<port id="1" precision="FP32">
					<dim>48</dim>
					<dim>1</dim>
					<dim>1</dim>
					<dim>1</dim>
				</port>
			</output>
		</layer>
		<layer id="351" name="23122316_const" type="Const" version="opset1">
			<data element_type="f32" offset="753152" shape="48,1,1,1" size="192"/>
			<output>
				<port id="1" precision="FP32">
					<dim>48</dim>
					<dim>1</dim>
					<dim>1</dim>
					<dim>1</dim>
				</port>
			</output>
		</layer>
		<layer id="352" name="InceptionV3/InceptionV3/Mixed_5d/Branch_1/Conv2d_0a_1x1/Conv2D/fq_weights_1" type="FakeQuantize" version="opset1">
			<data levels="255"/>
			<input>
				<port id="0">
					<dim>48</dim>
					<dim>288</dim>
					<dim>1</dim>
					<dim>1</dim>
				</port>
				<port id="1">
					<dim>1</dim>
				</port>
				<port id="2">
					<dim>1</dim>
				</port>
				<port id="3">
					<dim>48</dim>
					<dim>1</dim>
					<dim>1</dim>
					<dim>1</dim>
				</port>
				<port id="4">
					<dim>48</dim>
					<dim>1</dim>
					<dim>1</dim>
					<dim>1</dim>
				</port>
			</input>
			<output>
				<port id="5" precision="FP32">
					<dim>48</dim>
					<dim>288</dim>
					<dim>1</dim>
					<dim>1</dim>
				</port>
			</output>
		</layer>
		<layer id="353" name="InceptionV3/InceptionV3/Mixed_5d/Branch_1/Conv2d_0a_1x1/Conv2D" type="Convolution" version="opset1">
			<data auto_pad="same_upper" dilations="1,1" output_padding="0,0" pads_begin="0,0" pads_end="0,0" strides="1,1"/>
			<input>
				<port id="0">
					<dim>1</dim>
					<dim>288</dim>
					<dim>35</dim>
					<dim>35</dim>
				</port>
				<port id="1">
					<dim>48</dim>
					<dim>288</dim>
					<dim>1</dim>
					<dim>1</dim>
				</port>
			</input>
			<output>
				<port id="2" precision="FP32">
					<dim>1</dim>
					<dim>48</dim>
					<dim>35</dim>
					<dim>35</dim>
				</port>
			</output>
		</layer>
		<layer id="354" name="data_add_1746217467/copy_const627_const" type="Const" version="opset1">
			<data element_type="f32" offset="753344" shape="1,48,1,1" size="192"/>
			<output>
				<port id="1" precision="FP32">
					<dim>1</dim>
					<dim>48</dim>
					<dim>1</dim>
					<dim>1</dim>
				</port>
			</output>
		</layer>
		<layer id="355" name="InceptionV3/InceptionV3/Mixed_5d/Branch_1/Conv2d_0a_1x1/BatchNorm/FusedBatchNormV3/variance/Fused_Add_" type="Add" version="opset1">
			<input>
				<port id="0">
					<dim>1</dim>
					<dim>48</dim>
					<dim>35</dim>
					<dim>35</dim>
				</port>
				<port id="1">
					<dim>1</dim>
					<dim>48</dim>
					<dim>1</dim>
					<dim>1</dim>
				</port>
			</input>
			<output>
				<port id="2" precision="FP32">
					<dim>1</dim>
					<dim>48</dim>
					<dim>35</dim>
					<dim>35</dim>
				</port>
			</output>
		</layer>
		<layer id="356" name="InceptionV3/InceptionV3/Mixed_5d/Branch_1/Conv2d_0a_1x1/Relu" type="ReLU" version="opset1">
			<input>
				<port id="0">
					<dim>1</dim>
					<dim>48</dim>
					<dim>35</dim>
					<dim>35</dim>
				</port>
			</input>
			<output>
				<port id="1" precision="FP32">
					<dim>1</dim>
					<dim>48</dim>
					<dim>35</dim>
					<dim>35</dim>
				</port>
			</output>
		</layer>
		<layer id="357" name="28292833_const" type="Const" version="opset1">
			<data element_type="f32" offset="753536" shape="" size="4"/>
			<output>
				<port id="1" precision="FP32"/>
			</output>
		</layer>
		<layer id="358" name="28302834_const" type="Const" version="opset1">
			<data element_type="f32" offset="753540" shape="" size="4"/>
			<output>
				<port id="1" precision="FP32"/>
			</output>
		</layer>
		<layer id="359" name="28312835_const" type="Const" version="opset1">
			<data element_type="f32" offset="753536" shape="" size="4"/>
			<output>
				<port id="1" precision="FP32"/>
			</output>
		</layer>
		<layer id="360" name="28322836_const" type="Const" version="opset1">
			<data element_type="f32" offset="753540" shape="" size="4"/>
			<output>
				<port id="1" precision="FP32"/>
			</output>
		</layer>
		<layer id="361" name="InceptionV3/InceptionV3/Mixed_5d/Branch_1/Conv2d_0b_5x5/Conv2D/fq_input_0" type="FakeQuantize" version="opset1">
			<data levels="256"/>
			<input>
				<port id="0">
					<dim>1</dim>
					<dim>48</dim>
					<dim>35</dim>
					<dim>35</dim>
				</port>
				<port id="1"/>
				<port id="2"/>
				<port id="3"/>
				<port id="4"/>
			</input>
			<output>
				<port id="5" precision="FP32">
					<dim>1</dim>
					<dim>48</dim>
					<dim>35</dim>
					<dim>35</dim>
				</port>
			</output>
		</layer>
		<layer id="362" name="InceptionV3/InceptionV3/Mixed_5d/Branch_1/Conv2d_0b_5x5/Conv2D/fq_weights_1/Convert_to_float/Cast_010593_const" type="Const" version="opset1">
			<data element_type="u8" offset="753544" shape="64,48,5,5" size="76800"/>
			<output>
				<port id="1" precision="U8">
					<dim>64</dim>
					<dim>48</dim>
					<dim>5</dim>
					<dim>5</dim>
				</port>
			</output>
		</layer>
		<layer id="363" name="InceptionV3/InceptionV3/Mixed_5d/Branch_1/Conv2d_0b_5x5/Conv2D/fq_weights_1/Convert_to_float" type="Convert" version="opset1">
			<data destination_type="f32"/>
			<input>
				<port id="0">
					<dim>64</dim>
					<dim>48</dim>
					<dim>5</dim>
					<dim>5</dim>
				</port>
			</input>
			<output>
				<port id="1" precision="FP32">
					<dim>64</dim>
					<dim>48</dim>
					<dim>5</dim>
					<dim>5</dim>
				</port>
			</output>
		</layer>
		<layer id="364" name="InceptionV3/InceptionV3/Mixed_5d/Branch_1/Conv2d_0b_5x5/Conv2D/fq_weights_1/Copy/out_low8859_const" type="Const" version="opset1">
			<data element_type="f32" offset="830344" shape="1" size="4"/>
			<output>
				<port id="1" precision="FP32">
					<dim>1</dim>
				</port>
			</output>
		</layer>
		<layer id="365" name="InceptionV3/InceptionV3/Mixed_5d/Branch_1/Conv2d_0b_5x5/Conv2D/fq_weights_1/Copy/out_high8860_const" type="Const" version="opset1">
			<data element_type="f32" offset="900" shape="1" size="4"/>
			<output>
				<port id="1" precision="FP32">
					<dim>1</dim>
				</port>
			</output>
		</layer>
		<layer id="366" name="28412845_const" type="Const" version="opset1">
			<data element_type="f32" offset="830348" shape="64,1,1,1" size="256"/>
			<output>
				<port id="1" precision="FP32">
					<dim>64</dim>
					<dim>1</dim>
					<dim>1</dim>
					<dim>1</dim>
				</port>
			</output>
		</layer>
		<layer id="367" name="28422846_const" type="Const" version="opset1">
			<data element_type="f32" offset="830604" shape="64,1,1,1" size="256"/>
			<output>
				<port id="1" precision="FP32">
					<dim>64</dim>
					<dim>1</dim>
					<dim>1</dim>
					<dim>1</dim>
				</port>
			</output>
		</layer>
		<layer id="368" name="InceptionV3/InceptionV3/Mixed_5d/Branch_1/Conv2d_0b_5x5/Conv2D/fq_weights_1" type="FakeQuantize" version="opset1">
			<data levels="255"/>
			<input>
				<port id="0">
					<dim>64</dim>
					<dim>48</dim>
					<dim>5</dim>
					<dim>5</dim>
				</port>
				<port id="1">
					<dim>1</dim>
				</port>
				<port id="2">
					<dim>1</dim>
				</port>
				<port id="3">
					<dim>64</dim>
					<dim>1</dim>
					<dim>1</dim>
					<dim>1</dim>
				</port>
				<port id="4">
					<dim>64</dim>
					<dim>1</dim>
					<dim>1</dim>
					<dim>1</dim>
				</port>
			</input>
			<output>
				<port id="5" precision="FP32">
					<dim>64</dim>
					<dim>48</dim>
					<dim>5</dim>
					<dim>5</dim>
				</port>
			</output>
		</layer>
		<layer id="369" name="InceptionV3/InceptionV3/Mixed_5d/Branch_1/Conv2d_0b_5x5/Conv2D" type="Convolution" version="opset1">
			<data auto_pad="same_upper" dilations="1,1" output_padding="0,0" pads_begin="2,2" pads_end="2,2" strides="1,1"/>
			<input>
				<port id="0">
					<dim>1</dim>
					<dim>48</dim>
					<dim>35</dim>
					<dim>35</dim>
				</port>
				<port id="1">
					<dim>64</dim>
					<dim>48</dim>
					<dim>5</dim>
					<dim>5</dim>
				</port>
			</input>
			<output>
				<port id="2" precision="FP32">
					<dim>1</dim>
					<dim>64</dim>
					<dim>35</dim>
					<dim>35</dim>
				</port>
			</output>
		</layer>
		<layer id="370" name="data_add_1747017475/copy_const632_const" type="Const" version="opset1">
			<data element_type="f32" offset="830860" shape="1,64,1,1" size="256"/>
			<output>
				<port id="1" precision="FP32">
					<dim>1</dim>
					<dim>64</dim>
					<dim>1</dim>
					<dim>1</dim>
				</port>
			</output>
		</layer>
		<layer id="371" name="InceptionV3/InceptionV3/Mixed_5d/Branch_1/Conv2d_0b_5x5/BatchNorm/FusedBatchNormV3/variance/Fused_Add_" type="Add" version="opset1">
			<input>
				<port id="0">
					<dim>1</dim>
					<dim>64</dim>
					<dim>35</dim>
					<dim>35</dim>
				</port>
				<port id="1">
					<dim>1</dim>
					<dim>64</dim>
					<dim>1</dim>
					<dim>1</dim>
				</port>
			</input>
			<output>
				<port id="2" precision="FP32">
					<dim>1</dim>
					<dim>64</dim>
					<dim>35</dim>
					<dim>35</dim>
				</port>
			</output>
		</layer>
		<layer id="372" name="InceptionV3/InceptionV3/Mixed_5d/Branch_1/Conv2d_0b_5x5/Relu" type="ReLU" version="opset1">
			<input>
				<port id="0">
					<dim>1</dim>
					<dim>64</dim>
					<dim>35</dim>
					<dim>35</dim>
				</port>
			</input>
			<output>
				<port id="1" precision="FP32">
					<dim>1</dim>
					<dim>64</dim>
					<dim>35</dim>
					<dim>35</dim>
				</port>
			</output>
		</layer>
		<layer id="373" name="49834987_const" type="Const" version="opset1">
			<data element_type="f32" offset="831116" shape="" size="4"/>
			<output>
				<port id="1" precision="FP32"/>
			</output>
		</layer>
		<layer id="374" name="49844988_const" type="Const" version="opset1">
			<data element_type="f32" offset="831120" shape="" size="4"/>
			<output>
				<port id="1" precision="FP32"/>
			</output>
		</layer>
		<layer id="375" name="49854989_const" type="Const" version="opset1">
			<data element_type="f32" offset="831116" shape="" size="4"/>
			<output>
				<port id="1" precision="FP32"/>
			</output>
		</layer>
		<layer id="376" name="49864990_const" type="Const" version="opset1">
			<data element_type="f32" offset="831120" shape="" size="4"/>
			<output>
				<port id="1" precision="FP32"/>
			</output>
		</layer>
		<layer id="377" name="InceptionV3/InceptionV3/Mixed_5d/concat/fq_input_1" type="FakeQuantize" version="opset1">
			<data levels="256"/>
			<input>
				<port id="0">
					<dim>1</dim>
					<dim>64</dim>
					<dim>35</dim>
					<dim>35</dim>
				</port>
				<port id="1"/>
				<port id="2"/>
				<port id="3"/>
				<port id="4"/>
			</input>
			<output>
				<port id="5" precision="FP32">
					<dim>1</dim>
					<dim>64</dim>
					<dim>35</dim>
					<dim>35</dim>
				</port>
			</output>
		</layer>
		<layer id="378" name="InceptionV3/InceptionV3/Mixed_5d/Branch_2/Conv2d_0a_1x1/Conv2D/fq_weights_1/Convert_to_float/Cast_010471_const" type="Const" version="opset1">
			<data element_type="u8" offset="831124" shape="64,288,1,1" size="18432"/>
			<output>
				<port id="1" precision="U8">
					<dim>64</dim>
					<dim>288</dim>
					<dim>1</dim>
					<dim>1</dim>
				</port>
			</output>
		</layer>
		<layer id="379" name="InceptionV3/InceptionV3/Mixed_5d/Branch_2/Conv2d_0a_1x1/Conv2D/fq_weights_1/Convert_to_float" type="Convert" version="opset1">
			<data destination_type="f32"/>
			<input>
				<port id="0">
					<dim>64</dim>
					<dim>288</dim>
					<dim>1</dim>
					<dim>1</dim>
				</port>
			</input>
			<output>
				<port id="1" precision="FP32">
					<dim>64</dim>
					<dim>288</dim>
					<dim>1</dim>
					<dim>1</dim>
				</port>
			</output>
		</layer>
		<layer id="380" name="InceptionV3/InceptionV3/Mixed_5d/Branch_2/Conv2d_0a_1x1/Conv2D/fq_weights_1/Copy/out_low8707_const" type="Const" version="opset1">
			<data element_type="f32" offset="849556" shape="1" size="4"/>
			<output>
				<port id="1" precision="FP32">
					<dim>1</dim>
				</port>
			</output>
		</layer>
		<layer id="381" name="InceptionV3/InceptionV3/Mixed_5d/Branch_2/Conv2d_0a_1x1/Conv2D/fq_weights_1/Copy/out_high8708_const" type="Const" version="opset1">
			<data element_type="f32" offset="900" shape="1" size="4"/>
			<output>
				<port id="1" precision="FP32">
					<dim>1</dim>
				</port>
			</output>
		</layer>
		<layer id="382" name="35813585_const" type="Const" version="opset1">
			<data element_type="f32" offset="849560" shape="64,1,1,1" size="256"/>
			<output>
				<port id="1" precision="FP32">
					<dim>64</dim>
					<dim>1</dim>
					<dim>1</dim>
					<dim>1</dim>
				</port>
			</output>
		</layer>
		<layer id="383" name="35823586_const" type="Const" version="opset1">
			<data element_type="f32" offset="849816" shape="64,1,1,1" size="256"/>
			<output>
				<port id="1" precision="FP32">
					<dim>64</dim>
					<dim>1</dim>
					<dim>1</dim>
					<dim>1</dim>
				</port>
			</output>
		</layer>
		<layer id="384" name="InceptionV3/InceptionV3/Mixed_5d/Branch_2/Conv2d_0a_1x1/Conv2D/fq_weights_1" type="FakeQuantize" version="opset1">
			<data levels="255"/>
			<input>
				<port id="0">
					<dim>64</dim>
					<dim>288</dim>
					<dim>1</dim>
					<dim>1</dim>
				</port>
				<port id="1">
					<dim>1</dim>
				</port>
				<port id="2">
					<dim>1</dim>
				</port>
				<port id="3">
					<dim>64</dim>
					<dim>1</dim>
					<dim>1</dim>
					<dim>1</dim>
				</port>
				<port id="4">
					<dim>64</dim>
					<dim>1</dim>
					<dim>1</dim>
					<dim>1</dim>
				</port>
			</input>
			<output>
				<port id="5" precision="FP32">
					<dim>64</dim>
					<dim>288</dim>
					<dim>1</dim>
					<dim>1</dim>
				</port>
			</output>
		</layer>
		<layer id="385" name="InceptionV3/InceptionV3/Mixed_5d/Branch_2/Conv2d_0a_1x1/Conv2D" type="Convolution" version="opset1">
			<data auto_pad="same_upper" dilations="1,1" output_padding="0,0" pads_begin="0,0" pads_end="0,0" strides="1,1"/>
			<input>
				<port id="0">
					<dim>1</dim>
					<dim>288</dim>
					<dim>35</dim>
					<dim>35</dim>
				</port>
				<port id="1">
					<dim>64</dim>
					<dim>288</dim>
					<dim>1</dim>
					<dim>1</dim>
				</port>
			</input>
			<output>
				<port id="2" precision="FP32">
					<dim>1</dim>
					<dim>64</dim>
					<dim>35</dim>
					<dim>35</dim>
				</port>
			</output>
		</layer>
		<layer id="386" name="data_add_1743817443/copy_const637_const" type="Const" version="opset1">
			<data element_type="f32" offset="850072" shape="1,64,1,1" size="256"/>
			<output>
				<port id="1" precision="FP32">
					<dim>1</dim>
					<dim>64</dim>
					<dim>1</dim>
					<dim>1</dim>
				</port>
			</output>
		</layer>
		<layer id="387" name="InceptionV3/InceptionV3/Mixed_5d/Branch_2/Conv2d_0a_1x1/BatchNorm/FusedBatchNormV3/variance/Fused_Add_" type="Add" version="opset1">
			<input>
				<port id="0">
					<dim>1</dim>
					<dim>64</dim>
					<dim>35</dim>
					<dim>35</dim>
				</port>
				<port id="1">
					<dim>1</dim>
					<dim>64</dim>
					<dim>1</dim>
					<dim>1</dim>
				</port>
			</input>
			<output>
				<port id="2" precision="FP32">
					<dim>1</dim>
					<dim>64</dim>
					<dim>35</dim>
					<dim>35</dim>
				</port>
			</output>
		</layer>
		<layer id="388" name="InceptionV3/InceptionV3/Mixed_5d/Branch_2/Conv2d_0a_1x1/Relu" type="ReLU" version="opset1">
			<input>
				<port id="0">
					<dim>1</dim>
					<dim>64</dim>
					<dim>35</dim>
					<dim>35</dim>
				</port>
			</input>
			<output>
				<port id="1" precision="FP32">
					<dim>1</dim>
					<dim>64</dim>
					<dim>35</dim>
					<dim>35</dim>
				</port>
			</output>
		</layer>
		<layer id="389" name="35293533_const" type="Const" version="opset1">
			<data element_type="f32" offset="850328" shape="" size="4"/>
			<output>
				<port id="1" precision="FP32"/>
			</output>
		</layer>
		<layer id="390" name="35303534_const" type="Const" version="opset1">
			<data element_type="f32" offset="850332" shape="" size="4"/>
			<output>
				<port id="1" precision="FP32"/>
			</output>
		</layer>
		<layer id="391" name="35313535_const" type="Const" version="opset1">
			<data element_type="f32" offset="850328" shape="" size="4"/>
			<output>
				<port id="1" precision="FP32"/>
			</output>
		</layer>
		<layer id="392" name="35323536_const" type="Const" version="opset1">
			<data element_type="f32" offset="850332" shape="" size="4"/>
			<output>
				<port id="1" precision="FP32"/>
			</output>
		</layer>
		<layer id="393" name="InceptionV3/InceptionV3/Mixed_5d/Branch_2/Conv2d_0b_3x3/Conv2D/fq_input_0" type="FakeQuantize" version="opset1">
			<data levels="256"/>
			<input>
				<port id="0">
					<dim>1</dim>
					<dim>64</dim>
					<dim>35</dim>
					<dim>35</dim>
				</port>
				<port id="1"/>
				<port id="2"/>
				<port id="3"/>
				<port id="4"/>
			</input>
			<output>
				<port id="5" precision="FP32">
					<dim>1</dim>
					<dim>64</dim>
					<dim>35</dim>
					<dim>35</dim>
				</port>
			</output>
		</layer>
		<layer id="394" name="InceptionV3/InceptionV3/Mixed_5d/Branch_2/Conv2d_0b_3x3/Conv2D/fq_weights_1/Convert_to_float/Cast_010569_const" type="Const" version="opset1">
			<data element_type="u8" offset="850336" shape="96,64,3,3" size="55296"/>
			<output>
				<port id="1" precision="U8">
					<dim>96</dim>
					<dim>64</dim>
					<dim>3</dim>
					<dim>3</dim>
				</port>
			</output>
		</layer>
		<layer id="395" name="InceptionV3/InceptionV3/Mixed_5d/Branch_2/Conv2d_0b_3x3/Conv2D/fq_weights_1/Convert_to_float" type="Convert" version="opset1">
			<data destination_type="f32"/>
			<input>
				<port id="0">
					<dim>96</dim>
					<dim>64</dim>
					<dim>3</dim>
					<dim>3</dim>
				</port>
			</input>
			<output>
				<port id="1" precision="FP32">
					<dim>96</dim>
					<dim>64</dim>
					<dim>3</dim>
					<dim>3</dim>
				</port>
			</output>
		</layer>
		<layer id="396" name="InceptionV3/InceptionV3/Mixed_5d/Branch_2/Conv2d_0b_3x3/Conv2D/fq_weights_1/Copy/out_low9235_const" type="Const" version="opset1">
…
		<edge from-layer="968" from-port="2" to-layer="970" to-port="0"/>
		<edge from-layer="969" from-port="1" to-layer="970" to-port="1"/>
		<edge from-layer="970" from-port="2" to-layer="971" to-port="0"/>
		<edge from-layer="971" from-port="1" to-layer="976" to-port="0"/>
		<edge from-layer="972" from-port="1" to-layer="976" to-port="1"/>
		<edge from-layer="973" from-port="1" to-layer="976" to-port="2"/>
		<edge from-layer="974" from-port="1" to-layer="976" to-port="3"/>
		<edge from-layer="975" from-port="1" to-layer="976" to-port="4"/>
		<edge from-layer="977" from-port="1" to-layer="978" to-port="0"/>
		<edge from-layer="978" from-port="1" to-layer="983" to-port="0"/>
		<edge from-layer="979" from-port="1" to-layer="983" to-port="1"/>
		<edge from-layer="980" from-port="1" to-layer="983" to-port="2"/>
		<edge from-layer="981" from-port="1" to-layer="983" to-port="3"/>
		<edge from-layer="982" from-port="1" to-layer="983" to-port="4"/>
		<edge from-layer="976" from-port="5" to-layer="984" to-port="0"/>
		<edge from-layer="983" from-port="5" to-layer="984" to-port="1"/>
		<edge from-layer="984" from-port="2" to-layer="986" to-port="0"/>
		<edge from-layer="985" from-port="1" to-layer="986" to-port="1"/>
		<edge from-layer="986" from-port="2" to-layer="987" to-port="0"/>
		<edge from-layer="987" from-port="1" to-layer="992" to-port="0"/>
		<edge from-layer="988" from-port="1" to-layer="992" to-port="1"/>
		<edge from-layer="989" from-port="1" to-layer="992" to-port="2"/>
		<edge from-layer="990" from-port="1" to-layer="992" to-port="3"/>
		<edge from-layer="991" from-port="1" to-layer="992" to-port="4"/>
		<edge from-layer="848" from-port="4" to-layer="993" to-port="0"/>
		<edge from-layer="993" from-port="1" to-layer="998" to-port="0"/>
		<edge from-layer="994" from-port="1" to-layer="998" to-port="1"/>
		<edge from-layer="995" from-port="1" to-layer="998" to-port="2"/>
		<edge from-layer="996" from-port="1" to-layer="998" to-port="3"/>
		<edge from-layer="997" from-port="1" to-layer="998" to-port="4"/>
		<edge from-layer="999" from-port="1" to-layer="1000" to-port="0"/>
		<edge from-layer="1000" from-port="1" to-layer="1005" to-port="0"/>
		<edge from-layer="1001" from-port="1" to-layer="1005" to-port="1"/>
		<edge from-layer="1002" from-port="1" to-layer="1005" to-port="2"/>
		<edge from-layer="1003" from-port="1" to-layer="1005" to-port="3"/>
		<edge from-layer="1004" from-port="1" to-layer="1005" to-port="4"/>
		<edge from-layer="998" from-port="5" to-layer="1006" to-port="0"/>
		<edge from-layer="1005" from-port="5" to-layer="1006" to-port="1"/>
		<edge from-layer="1006" from-port="2" to-layer="1008" to-port="0"/>
		<edge from-layer="1007" from-port="1" to-layer="1008" to-port="1"/>
		<edge from-layer="1008" from-port="2" to-layer="1009" to-port="0"/>
		<edge from-layer="1009" from-port="1" to-layer="1014" to-port="0"/>
		<edge from-layer="1010" from-port="1" to-layer="1014" to-port="1"/>
		<edge from-layer="1011" from-port="1" to-layer="1014" to-port="2"/>
		<edge from-layer="1012" from-port="1" to-layer="1014" to-port="3"/>
		<edge from-layer="1013" from-port="1" to-layer="1014" to-port="4"/>
		<edge from-layer="864" from-port="5" to-layer="1015" to-port="0"/>
		<edge from-layer="912" from-port="5" to-layer="1015" to-port="1"/>
		<edge from-layer="992" from-port="5" to-layer="1015" to-port="2"/>
		<edge from-layer="1014" from-port="5" to-layer="1015" to-port="3"/>
		<edge from-layer="1016" from-port="1" to-layer="1017" to-port="0"/>
		<edge from-layer="1017" from-port="1" to-layer="1022" to-port="0"/>
		<edge from-layer="1018" from-port="1" to-layer="1022" to-port="1"/>
		<edge from-layer="1019" from-port="1" to-layer="1022" to-port="2"/>
		<edge from-layer="1020" from-port="1" to-layer="1022" to-port="3"/>
		<edge from-layer="1021" from-port="1" to-layer="1022" to-port="4"/>
		<edge from-layer="1015" from-port="4" to-layer="1023" to-port="0"/>
		<edge from-layer="1022" from-port="5" to-layer="1023" to-port="1"/>
		<edge from-layer="1023" from-port="2" to-layer="1025" to-port="0"/>
		<edge from-layer="1024" from-port="1" to-layer="1025" to-port="1"/>
		<edge from-layer="1025" from-port="2" to-layer="1026" to-port="0"/>
		<edge from-layer="1026" from-port="1" to-layer="1031" to-port="0"/>
		<edge from-layer="1027" from-port="1" to-layer="1031" to-port="1"/>
		<edge from-layer="1028" from-port="1" to-layer="1031" to-port="2"/>
		<edge from-layer="1029" from-port="1" to-layer="1031" to-port="3"/>
		<edge from-layer="1030" from-port="1" to-layer="1031" to-port="4"/>
		<edge from-layer="1032" from-port="1" to-layer="1033" to-port="0"/>
		<edge from-layer="1033" from-port="1" to-layer="1038" to-port="0"/>
		<edge from-layer="1034" from-port="1" to-layer="1038" to-port="1"/>
		<edge from-layer="1035" from-port="1" to-layer="1038" to-port="2"/>
		<edge from-layer="1036" from-port="1" to-layer="1038" to-port="3"/>
		<edge from-layer="1037" from-port="1" to-layer="1038" to-port="4"/>
		<edge from-layer="1015" from-port="4" to-layer="1039" to-port="0"/>
		<edge from-layer="1038" from-port="5" to-layer="1039" to-port="1"/>
		<edge from-layer="1039" from-port="2" to-layer="1041" to-port="0"/>
		<edge from-layer="1040" from-port="1" to-layer="1041" to-port="1"/>
		<edge from-layer="1041" from-port="2" to-layer="1042" to-port="0"/>
		<edge from-layer="1042" from-port="1" to-layer="1047" to-port="0"/>
		<edge from-layer="1043" from-port="1" to-layer="1047" to-port="1"/>
		<edge from-layer="1044" from-port="1" to-layer="1047" to-port="2"/>
		<edge from-layer="1045" from-port="1" to-layer="1047" to-port="3"/>
		<edge from-layer="1046" from-port="1" to-layer="1047" to-port="4"/>
		<edge from-layer="1048" from-port="1" to-layer="1049" to-port="0"/>
		<edge from-layer="1049" from-port="1" to-layer="1054" to-port="0"/>
		<edge from-layer="1050" from-port="1" to-layer="1054" to-port="1"/>
		<edge from-layer="1051" from-port="1" to-layer="1054" to-port="2"/>
		<edge from-layer="1052" from-port="1" to-layer="1054" to-port="3"/>
		<edge from-layer="1053" from-port="1" to-layer="1054" to-port="4"/>
		<edge from-layer="1047" from-port="5" to-layer="1055" to-port="0"/>
		<edge from-layer="1054" from-port="5" to-layer="1055" to-port="1"/>
		<edge from-layer="1055" from-port="2" to-layer="1057" to-port="0"/>
		<edge from-layer="1056" from-port="1" to-layer="1057" to-port="1"/>
		<edge from-layer="1057" from-port="2" to-layer="1058" to-port="0"/>
		<edge from-layer="1058" from-port="1" to-layer="1063" to-port="0"/>
		<edge from-layer="1059" from-port="1" to-layer="1063" to-port="1"/>
		<edge from-layer="1060" from-port="1" to-layer="1063" to-port="2"/>
		<edge from-layer="1061" from-port="1" to-layer="1063" to-port="3"/>
		<edge from-layer="1062" from-port="1" to-layer="1063" to-port="4"/>
		<edge from-layer="1064" from-port="1" to-layer="1065" to-port="0"/>
		<edge from-layer="1065" from-port="1" to-layer="1070" to-port="0"/>
		<edge from-layer="1066" from-port="1" to-layer="1070" to-port="1"/>
		<edge from-layer="1067" from-port="1" to-layer="1070" to-port="2"/>
		<edge from-layer="1068" from-port="1" to-layer="1070" to-port="3"/>
		<edge from-layer="1069" from-port="1" to-layer="1070" to-port="4"/>
		<edge from-layer="1063" from-port="5" to-layer="1071" to-port="0"/>
		<edge from-layer="1070" from-port="5" to-layer="1071" to-port="1"/>
		<edge from-layer="1071" from-port="2" to-layer="1073" to-port="0"/>
		<edge from-layer="1072" from-port="1" to-layer="1073" to-port="1"/>
		<edge from-layer="1073" from-port="2" to-layer="1074" to-port="0"/>
		<edge from-layer="1074" from-port="1" to-layer="1079" to-port="0"/>
		<edge from-layer="1075" from-port="1" to-layer="1079" to-port="1"/>
		<edge from-layer="1076" from-port="1" to-layer="1079" to-port="2"/>
		<edge from-layer="1077" from-port="1" to-layer="1079" to-port="3"/>
		<edge from-layer="1078" from-port="1" to-layer="1079" to-port="4"/>
		<edge from-layer="1080" from-port="1" to-layer="1081" to-port="0"/>
		<edge from-layer="1081" from-port="1" to-layer="1086" to-port="0"/>
		<edge from-layer="1082" from-port="1" to-layer="1086" to-port="1"/>
		<edge from-layer="1083" from-port="1" to-layer="1086" to-port="2"/>
		<edge from-layer="1084" from-port="1" to-layer="1086" to-port="3"/>
		<edge from-layer="1085" from-port="1" to-layer="1086" to-port="4"/>
		<edge from-layer="1015" from-port="4" to-layer="1087" to-port="0"/>
		<edge from-layer="1086" from-port="5" to-layer="1087" to-port="1"/>
		<edge from-layer="1087" from-port="2" to-layer="1089" to-port="0"/>
		<edge from-layer="1088" from-port="1" to-layer="1089" to-port="1"/>
		<edge from-layer="1089" from-port="2" to-layer="1090" to-port="0"/>
		<edge from-layer="1090" from-port="1" to-layer="1095" to-port="0"/>
		<edge from-layer="1091" from-port="1" to-layer="1095" to-port="1"/>
		<edge from-layer="1092" from-port="1" to-layer="1095" to-port="2"/>
		<edge from-layer="1093" from-port="1" to-layer="1095" to-port="3"/>
		<edge from-layer="1094" from-port="1" to-layer="1095" to-port="4"/>
		<edge from-layer="1096" from-port="1" to-layer="1097" to-port="0"/>
		<edge from-layer="1097" from-port="1" to-layer="1102" to-port="0"/>
		<edge from-layer="1098" from-port="1" to-layer="1102" to-port="1"/>
		<edge from-layer="1099" from-port="1" to-layer="1102" to-port="2"/>
		<edge from-layer="1100" from-port="1" to-layer="1102" to-port="3"/>
		<edge from-layer="1101" from-port="1" to-layer="1102" to-port="4"/>
		<edge from-layer="1095" from-port="5" to-layer="1103" to-port="0"/>
		<edge from-layer="1102" from-port="5" to-layer="1103" to-port="1"/>
		<edge from-layer="1103" from-port="2" to-layer="1105" to-port="0"/>
		<edge from-layer="1104" from-port="1" to-layer="1105" to-port="1"/>
		<edge from-layer="1105" from-port="2" to-layer="1106" to-port="0"/>
		<edge from-layer="1106" from-port="1" to-layer="1111" to-port="0"/>
		<edge from-layer="1107" from-port="1" to-layer="1111" to-port="1"/>
		<edge from-layer="1108" from-port="1" to-layer="1111" to-port="2"/>
		<edge from-layer="1109" from-port="1" to-layer="1111" to-port="3"/>
		<edge from-layer="1110" from-port="1" to-layer="1111" to-port="4"/>
		<edge from-layer="1112" from-port="1" to-layer="1113" to-port="0"/>
		<edge from-layer="1113" from-port="1" to-layer="1118" to-port="0"/>
		<edge from-layer="1114" from-port="1" to-layer="1118" to-port="1"/>
		<edge from-layer="1115" from-port="1" to-layer="1118" to-port="2"/>
		<edge from-layer="1116" from-port="1" to-layer="1118" to-port="3"/>
		<edge from-layer="1117" from-port="1" to-layer="1118" to-port="4"/>
		<edge from-layer="1111" from-port="5" to-layer="1119" to-port="0"/>
		<edge from-layer="1118" from-port="5" to-layer="1119" to-port="1"/>
		<edge from-layer="1119" from-port="2" to-layer="1121" to-port="0"/>
		<edge from-layer="1120" from-port="1" to-layer="1121" to-port="1"/>
		<edge from-layer="1121" from-port="2" to-layer="1122" to-port="0"/>
		<edge from-layer="1122" from-port="1" to-layer="1127" to-port="0"/>
		<edge from-layer="1123" from-port="1" to-layer="1127" to-port="1"/>
		<edge from-layer="1124" from-port="1" to-layer="1127" to-port="2"/>
		<edge from-layer="1125" from-port="1" to-layer="1127" to-port="3"/>
		<edge from-layer="1126" from-port="1" to-layer="1127" to-port="4"/>
		<edge from-layer="1128" from-port="1" to-layer="1129" to-port="0"/>
		<edge from-layer="1129" from-port="1" to-layer="1134" to-port="0"/>
		<edge from-layer="1130" from-port="1" to-layer="1134" to-port="1"/>
		<edge from-layer="1131" from-port="1" to-layer="1134" to-port="2"/>
		<edge from-layer="1132" from-port="1" to-layer="1134" to-port="3"/>
		<edge from-layer="1133" from-port="1" to-layer="1134" to-port="4"/>
		<edge from-layer="1127" from-port="5" to-layer="1135" to-port="0"/>
		<edge from-layer="1134" from-port="5" to-layer="1135" to-port="1"/>
		<edge from-layer="1135" from-port="2" to-layer="1137" to-port="0"/>
		<edge from-layer="1136" from-port="1" to-layer="1137" to-port="1"/>
		<edge from-layer="1137" from-port="2" to-layer="1138" to-port="0"/>
		<edge from-layer="1138" from-port="1" to-layer="1143" to-port="0"/>
		<edge from-layer="1139" from-port="1" to-layer="1143" to-port="1"/>
		<edge from-layer="1140" from-port="1" to-layer="1143" to-port="2"/>
		<edge from-layer="1141" from-port="1" to-layer="1143" to-port="3"/>
		<edge from-layer="1142" from-port="1" to-layer="1143" to-port="4"/>
		<edge from-layer="1144" from-port="1" to-layer="1145" to-port="0"/>
		<edge from-layer="1145" from-port="1" to-layer="1150" to-port="0"/>
		<edge from-layer="1146" from-port="1" to-layer="1150" to-port="1"/>
		<edge from-layer="1147" from-port="1" to-layer="1150" to-port="2"/>
		<edge from-layer="1148" from-port="1" to-layer="1150" to-port="3"/>
		<edge from-layer="1149" from-port="1" to-layer="1150" to-port="4"/>
		<edge from-layer="1143" from-port="5" to-layer="1151" to-port="0"/>
		<edge from-layer="1150" from-port="5" to-layer="1151" to-port="1"/>
		<edge from-layer="1151" from-port="2" to-layer="1153" to-port="0"/>
		<edge from-layer="1152" from-port="1" to-layer="1153" to-port="1"/>
		<edge from-layer="1153" from-port="2" to-layer="1154" to-port="0"/>
		<edge from-layer="1154" from-port="1" to-layer="1159" to-port="0"/>
		<edge from-layer="1155" from-port="1" to-layer="1159" to-port="1"/>
		<edge from-layer="1156" from-port="1" to-layer="1159" to-port="2"/>
		<edge from-layer="1157" from-port="1" to-layer="1159" to-port="3"/>
		<edge from-layer="1158" from-port="1" to-layer="1159" to-port="4"/>
		<edge from-layer="1015" from-port="4" to-layer="1160" to-port="0"/>
		<edge from-layer="1160" from-port="1" to-layer="1165" to-port="0"/>
		<edge from-layer="1161" from-port="1" to-layer="1165" to-port="1"/>
		<edge from-layer="1162" from-port="1" to-layer="1165" to-port="2"/>
		<edge from-layer="1163" from-port="1" to-layer="1165" to-port="3"/>
		<edge from-layer="1164" from-port="1" to-layer="1165" to-port="4"/>
		<edge from-layer="1166" from-port="1" to-layer="1167" to-port="0"/>
		<edge from-layer="1167" from-port="1" to-layer="1172" to-port="0"/>
		<edge from-layer="1168" from-port="1" to-layer="1172" to-port="1"/>
		<edge from-layer="1169" from-port="1" to-layer="1172" to-port="2"/>
		<edge from-layer="1170" from-port="1" to-layer="1172" to-port="3"/>
		<edge from-layer="1171" from-port="1" to-layer="1172" to-port="4"/>
		<edge from-layer="1165" from-port="5" to-layer="1173" to-port="0"/>
		<edge from-layer="1172" from-port="5" to-layer="1173" to-port="1"/>
		<edge from-layer="1173" from-port="2" to-layer="1175" to-port="0"/>
		<edge from-layer="1174" from-port="1" to-layer="1175" to-port="1"/>
		<edge from-layer="1175" from-port="2" to-layer="1176" to-port="0"/>
		<edge from-layer="1176" from-port="1" to-layer="1181" to-port="0"/>
		<edge from-layer="1177" from-port="1" to-layer="1181" to-port="1"/>
		<edge from-layer="1178" from-port="1" to-layer="1181" to-port="2"/>
		<edge from-layer="1179" from-port="1" to-layer="1181" to-port="3"/>
		<edge from-layer="1180" from-port="1" to-layer="1181" to-port="4"/>
		<edge from-layer="1031" from-port="5" to-layer="1182" to-port="0"/>
		<edge from-layer="1079" from-port="5" to-layer="1182" to-port="1"/>
		<edge from-layer="1159" from-port="5" to-layer="1182" to-port="2"/>
		<edge from-layer="1181" from-port="5" to-layer="1182" to-port="3"/>
		<edge from-layer="1183" from-port="1" to-layer="1184" to-port="0"/>
		<edge from-layer="1184" from-port="1" to-layer="1189" to-port="0"/>
		<edge from-layer="1185" from-port="1" to-layer="1189" to-port="1"/>
		<edge from-layer="1186" from-port="1" to-layer="1189" to-port="2"/>
		<edge from-layer="1187" from-port="1" to-layer="1189" to-port="3"/>
		<edge from-layer="1188" from-port="1" to-layer="1189" to-port="4"/>
		<edge from-layer="1182" from-port="4" to-layer="1190" to-port="0"/>
		<edge from-layer="1189" from-port="5" to-layer="1190" to-port="1"/>
		<edge from-layer="1190" from-port="2" to-layer="1192" to-port="0"/>
		<edge from-layer="1191" from-port="1" to-layer="1192" to-port="1"/>
		<edge from-layer="1192" from-port="2" to-layer="1193" to-port="0"/>
		<edge from-layer="1193" from-port="1" to-layer="1198" to-port="0"/>
		<edge from-layer="1194" from-port="1" to-layer="1198" to-port="1"/>
		<edge from-layer="1195" from-port="1" to-layer="1198" to-port="2"/>
		<edge from-layer="1196" from-port="1" to-layer="1198" to-port="3"/>
		<edge from-layer="1197" from-port="1" to-layer="1198" to-port="4"/>
		<edge from-layer="1199" from-port="1" to-layer="1200" to-port="0"/>
		<edge from-layer="1200" from-port="1" to-layer="1205" to-port="0"/>
		<edge from-layer="1201" from-port="1" to-layer="1205" to-port="1"/>
		<edge from-layer="1202" from-port="1" to-layer="1205" to-port="2"/>
		<edge from-layer="1203" from-port="1" to-layer="1205" to-port="3"/>
		<edge from-layer="1204" from-port="1" to-layer="1205" to-port="4"/>
		<edge from-layer="1198" from-port="5" to-layer="1206" to-port="0"/>
		<edge from-layer="1205" from-port="5" to-layer="1206" to-port="1"/>
		<edge from-layer="1206" from-port="2" to-layer="1208" to-port="0"/>
		<edge from-layer="1207" from-port="1" to-layer="1208" to-port="1"/>
		<edge from-layer="1208" from-port="2" to-layer="1209" to-port="0"/>
		<edge from-layer="1209" from-port="1" to-layer="1214" to-port="0"/>
		<edge from-layer="1210" from-port="1" to-layer="1214" to-port="1"/>
		<edge from-layer="1211" from-port="1" to-layer="1214" to-port="2"/>
		<edge from-layer="1212" from-port="1" to-layer="1214" to-port="3"/>
		<edge from-layer="1213" from-port="1" to-layer="1214" to-port="4"/>
		<edge from-layer="1215" from-port="1" to-layer="1216" to-port="0"/>
		<edge from-layer="1216" from-port="1" to-layer="1221" to-port="0"/>
		<edge from-layer="1217" from-port="1" to-layer="1221" to-port="1"/>
		<edge from-layer="1218" from-port="1" to-layer="1221" to-port="2"/>
		<edge from-layer="1219" from-port="1" to-layer="1221" to-port="3"/>
		<edge from-layer="1220" from-port="1" to-layer="1221" to-port="4"/>
		<edge from-layer="1182" from-port="4" to-layer="1222" to-port="0"/>
		<edge from-layer="1221" from-port="5" to-layer="1222" to-port="1"/>
		<edge from-layer="1222" from-port="2" to-layer="1224" to-port="0"/>
		<edge from-layer="1223" from-port="1" to-layer="1224" to-port="1"/>
		<edge from-layer="1224" from-port="2" to-layer="1225" to-port="0"/>
		<edge from-layer="1225" from-port="1" to-layer="1230" to-port="0"/>
		<edge from-layer="1226" from-port="1" to-layer="1230" to-port="1"/>
		<edge from-layer="1227" from-port="1" to-layer="1230" to-port="2"/>
		<edge from-layer="1228" from-port="1" to-layer="1230" to-port="3"/>
		<edge from-layer="1229" from-port="1" to-layer="1230" to-port="4"/>
		<edge from-layer="1231" from-port="1" to-layer="1232" to-port="0"/>
		<edge from-layer="1232" from-port="1" to-layer="1237" to-port="0"/>
		<edge from-layer="1233" from-port="1" to-layer="1237" to-port="1"/>
		<edge from-layer="1234" from-port="1" to-layer="1237" to-port="2"/>
		<edge from-layer="1235" from-port="1" to-layer="1237" to-port="3"/>
		<edge from-layer="1236" from-port="1" to-layer="1237" to-port="4"/>
		<edge from-layer="1230" from-port="5" to-layer="1238" to-port="0"/>
		<edge from-layer="1237" from-port="5" to-layer="1238" to-port="1"/>
		<edge from-layer="1238" from-port="2" to-layer="1240" to-port="0"/>
		<edge from-layer="1239" from-port="1" to-layer="1240" to-port="1"/>
		<edge from-layer="1240" from-port="2" to-layer="1241" to-port="0"/>
		<edge from-layer="1241" from-port="1" to-layer="1246" to-port="0"/>
		<edge from-layer="1242" from-port="1" to-layer="1246" to-port="1"/>
		<edge from-layer="1243" from-port="1" to-layer="1246" to-port="2"/>
		<edge from-layer="1244" from-port="1" to-layer="1246" to-port="3"/>
		<edge from-layer="1245" from-port="1" to-layer="1246" to-port="4"/>
		<edge from-layer="1247" from-port="1" to-layer="1248" to-port="0"/>
		<edge from-layer="1248" from-port="1" to-layer="1253" to-port="0"/>
		<edge from-layer="1249" from-port="1" to-layer="1253" to-port="1"/>
		<edge from-layer="1250" from-port="1" to-layer="1253" to-port="2"/>
		<edge from-layer="1251" from-port="1" to-layer="1253" to-port="3"/>
		<edge from-layer="1252" from-port="1" to-layer="1253" to-port="4"/>
		<edge from-layer="1246" from-port="5" to-layer="1254" to-port="0"/>
		<edge from-layer="1253" from-port="5" to-layer="1254" to-port="1"/>
		<edge from-layer="1254" from-port="2" to-layer="1256" to-port="0"/>
		<edge from-layer="1255" from-port="1" to-layer="1256" to-port="1"/>
		<edge from-layer="1256" from-port="2" to-layer="1257" to-port="0"/>
		<edge from-layer="1257" from-port="1" to-layer="1262" to-port="0"/>
		<edge from-layer="1258" from-port="1" to-layer="1262" to-port="1"/>
		<edge from-layer="1259" from-port="1" to-layer="1262" to-port="2"/>
		<edge from-layer="1260" from-port="1" to-layer="1262" to-port="3"/>
		<edge from-layer="1261" from-port="1" to-layer="1262" to-port="4"/>
		<edge from-layer="1263" from-port="1" to-layer="1264" to-port="0"/>
		<edge from-layer="1264" from-port="1" to-layer="1269" to-port="0"/>
		<edge from-layer="1265" from-port="1" to-layer="1269" to-port="1"/>
		<edge from-layer="1266" from-port="1" to-layer="1269" to-port="2"/>
		<edge from-layer="1267" from-port="1" to-layer="1269" to-port="3"/>
		<edge from-layer="1268" from-port="1" to-layer="1269" to-port="4"/>
		<edge from-layer="1262" from-port="5" to-layer="1270" to-port="0"/>
		<edge from-layer="1269" from-port="5" to-layer="1270" to-port="1"/>
		<edge from-layer="1270" from-port="2" to-layer="1272" to-port="0"/>
		<edge from-layer="1271" from-port="1" to-layer="1272" to-port="1"/>
		<edge from-layer="1272" from-port="2" to-layer="1273" to-port="0"/>
		<edge from-layer="1273" from-port="1" to-layer="1278" to-port="0"/>
		<edge from-layer="1274" from-port="1" to-layer="1278" to-port="1"/>
		<edge from-layer="1275" from-port="1" to-layer="1278" to-port="2"/>
		<edge from-layer="1276" from-port="1" to-layer="1278" to-port="3"/>
		<edge from-layer="1277" from-port="1" to-layer="1278" to-port="4"/>
		<edge from-layer="1182" from-port="4" to-layer="1279" to-port="0"/>
		<edge from-layer="1214" from-port="5" to-layer="1280" to-port="0"/>
		<edge from-layer="1278" from-port="5" to-layer="1280" to-port="1"/>
		<edge from-layer="1279" from-port="1" to-layer="1280" to-port="2"/>
		<edge from-layer="1281" from-port="1" to-layer="1282" to-port="0"/>
		<edge from-layer="1282" from-port="1" to-layer="1287" to-port="0"/>
		<edge from-layer="1283" from-port="1" to-layer="1287" to-port="1"/>
		<edge from-layer="1284" from-port="1" to-layer="1287" to-port="2"/>
		<edge from-layer="1285" from-port="1" to-layer="1287" to-port="3"/>
		<edge from-layer="1286" from-port="1" to-layer="1287" to-port="4"/>
		<edge from-layer="1280" from-port="3" to-layer="1288" to-port="0"/>
		<edge from-layer="1287" from-port="5" to-layer="1288" to-port="1"/>
		<edge from-layer="1288" from-port="2" to-layer="1290" to-port="0"/>
		<edge from-layer="1289" from-port="1" to-layer="1290" to-port="1"/>
		<edge from-layer="1290" from-port="2" to-layer="1291" to-port="0"/>
		<edge from-layer="1291" from-port="1" to-layer="1296" to-port="0"/>
		<edge from-layer="1292" from-port="1" to-layer="1296" to-port="1"/>
		<edge from-layer="1293" from-port="1" to-layer="1296" to-port="2"/>
		<edge from-layer="1294" from-port="1" to-layer="1296" to-port="3"/>
		<edge from-layer="1295" from-port="1" to-layer="1296" to-port="4"/>
		<edge from-layer="1297" from-port="1" to-layer="1298" to-port="0"/>
		<edge from-layer="1298" from-port="1" to-layer="1303" to-port="0"/>
		<edge from-layer="1299" from-port="1" to-layer="1303" to-port="1"/>
		<edge from-layer="1300" from-port="1" to-layer="1303" to-port="2"/>
		<edge from-layer="1301" from-port="1" to-layer="1303" to-port="3"/>
		<edge from-layer="1302" from-port="1" to-layer="1303" to-port="4"/>
		<edge from-layer="1280" from-port="3" to-layer="1304" to-port="0"/>
		<edge from-layer="1303" from-port="5" to-layer="1304" to-port="1"/>
		<edge from-layer="1304" from-port="2" to-layer="1306" to-port="0"/>
		<edge from-layer="1305" from-port="1" to-layer="1306" to-port="1"/>
		<edge from-layer="1306" from-port="2" to-layer="1307" to-port="0"/>
		<edge from-layer="1307" from-port="1" to-layer="1312" to-port="0"/>
		<edge from-layer="1308" from-port="1" to-layer="1312" to-port="1"/>
		<edge from-layer="1309" from-port="1" to-layer="1312" to-port="2"/>
		<edge from-layer="1310" from-port="1" to-layer="1312" to-port="3"/>
		<edge from-layer="1311" from-port="1" to-layer="1312" to-port="4"/>
		<edge from-layer="1313" from-port="1" to-layer="1314" to-port="0"/>
		<edge from-layer="1314" from-port="1" to-layer="1319" to-port="0"/>
		<edge from-layer="1315" from-port="1" to-layer="1319" to-port="1"/>
		<edge from-layer="1316" from-port="1" to-layer="1319" to-port="2"/>
		<edge from-layer="1317" from-port="1" to-layer="1319" to-port="3"/>
		<edge from-layer="1318" from-port="1" to-layer="1319" to-port="4"/>
		<edge from-layer="1312" from-port="5" to-layer="1320" to-port="0"/>
		<edge from-layer="1319" from-port="5" to-layer="1320" to-port="1"/>
		<edge from-layer="1320" from-port="2" to-layer="1322" to-port="0"/>
		<edge from-layer="1321" from-port="1" to-layer="1322" to-port="1"/>
		<edge from-layer="1322" from-port="2" to-layer="1323" to-port="0"/>
		<edge from-layer="1323" from-port="1" to-layer="1328" to-port="0"/>
		<edge from-layer="1324" from-port="1" to-layer="1328" to-port="1"/>
		<edge from-layer="1325" from-port="1" to-layer="1328" to-port="2"/>
		<edge from-layer="1326" from-port="1" to-layer="1328" to-port="3"/>
		<edge from-layer="1327" from-port="1" to-layer="1328" to-port="4"/>
		<edge from-layer="1329" from-port="1" to-layer="1330" to-port="0"/>
		<edge from-layer="1330" from-port="1" to-layer="1335" to-port="0"/>
		<edge from-layer="1331" from-port="1" to-layer="1335" to-port="1"/>
		<edge from-layer="1332" from-port="1" to-layer="1335" to-port="2"/>
		<edge from-layer="1333" from-port="1" to-layer="1335" to-port="3"/>
		<edge from-layer="1334" from-port="1" to-layer="1335" to-port="4"/>
		<edge from-layer="1312" from-port="5" to-layer="1336" to-port="0"/>
		<edge from-layer="1335" from-port="5" to-layer="1336" to-port="1"/>
		<edge from-layer="1336" from-port="2" to-layer="1338" to-port="0"/>
		<edge from-layer="1337" from-port="1" to-layer="1338" to-port="1"/>
		<edge from-layer="1338" from-port="2" to-layer="1339" to-port="0"/>
		<edge from-layer="1339" from-port="1" to-layer="1344" to-port="0"/>
		<edge from-layer="1340" from-port="1" to-layer="1344" to-port="1"/>
		<edge from-layer="1341" from-port="1" to-layer="1344" to-port="2"/>
		<edge from-layer="1342" from-port="1" to-layer="1344" to-port="3"/>
		<edge from-layer="1343" from-port="1" to-layer="1344" to-port="4"/>
		<edge from-layer="1328" from-port="5" to-layer="1345" to-port="0"/>
		<edge from-layer="1344" from-port="5" to-layer="1345" to-port="1"/>
		<edge from-layer="1346" from-port="1" to-layer="1347" to-port="0"/>
		<edge from-layer="1347" from-port="1" to-layer="1352" to-port="0"/>
		<edge from-layer="1348" from-port="1" to-layer="1352" to-port="1"/>
		<edge from-layer="1349" from-port="1" to-layer="1352" to-port="2"/>
		<edge from-layer="1350" from-port="1" to-layer="1352" to-port="3"/>
		<edge from-layer="1351" from-port="1" to-layer="1352" to-port="4"/>
		<edge from-layer="1280" from-port="3" to-layer="1353" to-port="0"/>
		<edge from-layer="1352" from-port="5" to-layer="1353" to-port="1"/>
		<edge from-layer="1353" from-port="2" to-layer="1355" to-port="0"/>
		<edge from-layer="1354" from-port="1" to-layer="1355" to-port="1"/>
		<edge from-layer="1355" from-port="2" to-layer="1356" to-port="0"/>
		<edge from-layer="1356" from-port="1" to-layer="1361" to-port="0"/>
		<edge from-layer="1357" from-port="1" to-layer="1361" to-port="1"/>
		<edge from-layer="1358" from-port="1" to-layer="1361" to-port="2"/>
		<edge from-layer="1359" from-port="1" to-layer="1361" to-port="3"/>
		<edge from-layer="1360" from-port="1" to-layer="1361" to-port="4"/>
		<edge from-layer="1362" from-port="1" to-layer="1363" to-port="0"/>
		<edge from-layer="1363" from-port="1" to-layer="1368" to-port="0"/>
		<edge from-layer="1364" from-port="1" to-layer="1368" to-port="1"/>
		<edge from-layer="1365" from-port="1" to-layer="1368" to-port="2"/>
		<edge from-layer="1366" from-port="1" to-layer="1368" to-port="3"/>
		<edge from-layer="1367" from-port="1" to-layer="1368" to-port="4"/>
		<edge from-layer="1361" from-port="5" to-layer="1369" to-port="0"/>
		<edge from-layer="1368" from-port="5" to-layer="1369" to-port="1"/>
		<edge from-layer="1369" from-port="2" to-layer="1371" to-port="0"/>
		<edge from-layer="1370" from-port="1" to-layer="1371" to-port="1"/>
		<edge from-layer="1371" from-port="2" to-layer="1372" to-port="0"/>
		<edge from-layer="1372" from-port="1" to-layer="1377" to-port="0"/>
		<edge from-layer="1373" from-port="1" to-layer="1377" to-port="1"/>
		<edge from-layer="1374" from-port="1" to-layer="1377" to-port="2"/>
		<edge from-layer="1375" from-port="1" to-layer="1377" to-port="3"/>
		<edge from-layer="1376" from-port="1" to-layer="1377" to-port="4"/>
		<edge from-layer="1378" from-port="1" to-layer="1379" to-port="0"/>
		<edge from-layer="1379" from-port="1" to-layer="1384" to-port="0"/>
		<edge from-layer="1380" from-port="1" to-layer="1384" to-port="1"/>
		<edge from-layer="1381" from-port="1" to-layer="1384" to-port="2"/>
		<edge from-layer="1382" from-port="1" to-layer="1384" to-port="3"/>
		<edge from-layer="1383" from-port="1" to-layer="1384" to-port="4"/>
		<edge from-layer="1377" from-port="5" to-layer="1385" to-port="0"/>
		<edge from-layer="1384" from-port="5" to-layer="1385" to-port="1"/>
		<edge from-layer="1385" from-port="2" to-layer="1387" to-port="0"/>
		<edge from-layer="1386" from-port="1" to-layer="1387" to-port="1"/>
		<edge from-layer="1387" from-port="2" to-layer="1388" to-port="0"/>
		<edge from-layer="1388" from-port="1" to-layer="1393" to-port="0"/>
		<edge from-layer="1389" from-port="1" to-layer="1393" to-port="1"/>
		<edge from-layer="1390" from-port="1" to-layer="1393" to-port="2"/>
		<edge from-layer="1391" from-port="1" to-layer="1393" to-port="3"/>
		<edge from-layer="1392" from-port="1" to-layer="1393" to-port="4"/>
		<edge from-layer="1394" from-port="1" to-layer="1395" to-port="0"/>
		<edge from-layer="1395" from-port="1" to-layer="1400" to-port="0"/>
		<edge from-layer="1396" from-port="1" to-layer="1400" to-port="1"/>
		<edge from-layer="1397" from-port="1" to-layer="1400" to-port="2"/>
		<edge from-layer="1398" from-port="1" to-layer="1400" to-port="3"/>
		<edge from-layer="1399" from-port="1" to-layer="1400" to-port="4"/>
		<edge from-layer="1377" from-port="5" to-layer="1401" to-port="0"/>
		<edge from-layer="1400" from-port="5" to-layer="1401" to-port="1"/>
		<edge from-layer="1401" from-port="2" to-layer="1403" to-port="0"/>
		<edge from-layer="1402" from-port="1" to-layer="1403" to-port="1"/>
		<edge from-layer="1403" from-port="2" to-layer="1404" to-port="0"/>
		<edge from-layer="1404" from-port="1" to-layer="1409" to-port="0"/>
		<edge from-layer="1405" from-port="1" to-layer="1409" to-port="1"/>
		<edge from-layer="1406" from-port="1" to-layer="1409" to-port="2"/>
		<edge from-layer="1407" from-port="1" to-layer="1409" to-port="3"/>
		<edge from-layer="1408" from-port="1" to-layer="1409" to-port="4"/>
		<edge from-layer="1393" from-port="5" to-layer="1410" to-port="0"/>
		<edge from-layer="1409" from-port="5" to-layer="1410" to-port="1"/>
		<edge from-layer="1280" from-port="3" to-layer="1411" to-port="0"/>
		<edge from-layer="1411" from-port="1" to-layer="1416" to-port="0"/>
		<edge from-layer="1412" from-port="1" to-layer="1416" to-port="1"/>
		<edge from-layer="1413" from-port="1" to-layer="1416" to-port="2"/>
		<edge from-layer="1414" from-port="1" to-layer="1416" to-port="3"/>
		<edge from-layer="1415" from-port="1" to-layer="1416" to-port="4"/>
		<edge from-layer="1417" from-port="1" to-layer="1418" to-port="0"/>
		<edge from-layer="1418" from-port="1" to-layer="1423" to-port="0"/>
		<edge from-layer="1419" from-port="1" to-layer="1423" to-port="1"/>
		<edge from-layer="1420" from-port="1" to-layer="1423" to-port="2"/>
		<edge from-layer="1421" from-port="1" to-layer="1423" to-port="3"/>
		<edge from-layer="1422" from-port="1" to-layer="1423" to-port="4"/>
		<edge from-layer="1416" from-port="5" to-layer="1424" to-port="0"/>
		<edge from-layer="1423" from-port="5" to-layer="1424" to-port="1"/>
		<edge from-layer="1424" from-port="2" to-layer="1426" to-port="0"/>
		<edge from-layer="1425" from-port="1" to-layer="1426" to-port="1"/>
		<edge from-layer="1426" from-port="2" to-layer="1427" to-port="0"/>
		<edge from-layer="1427" from-port="1" to-layer="1432" to-port="0"/>
		<edge from-layer="1428" from-port="1" to-layer="1432" to-port="1"/>
		<edge from-layer="1429" from-port="1" to-layer="1432" to-port="2"/>
		<edge from-layer="1430" from-port="1" to-layer="1432" to-port="3"/>
		<edge from-layer="1431" from-port="1" to-layer="1432" to-port="4"/>
		<edge from-layer="1296" from-port="5" to-layer="1433" to-port="0"/>
		<edge from-layer="1345" from-port="2" to-layer="1433" to-port="1"/>
		<edge from-layer="1410" from-port="2" to-layer="1433" to-port="2"/>
		<edge from-layer="1432" from-port="5" to-layer="1433" to-port="3"/>
		<edge from-layer="1434" from-port="1" to-layer="1435" to-port="0"/>
		<edge from-layer="1435" from-port="1" to-layer="1440" to-port="0"/>
		<edge from-layer="1436" from-port="1" to-layer="1440" to-port="1"/>
		<edge from-layer="1437" from-port="1" to-layer="1440" to-port="2"/>
		<edge from-layer="1438" from-port="1" to-layer="1440" to-port="3"/>
		<edge from-layer="1439" from-port="1" to-layer="1440" to-port="4"/>
		<edge from-layer="1433" from-port="4" to-layer="1441" to-port="0"/>
		<edge from-layer="1440" from-port="5" to-layer="1441" to-port="1"/>
		<edge from-layer="1441" from-port="2" to-layer="1443" to-port="0"/>
		<edge from-layer="1442" from-port="1" to-layer="1443" to-port="1"/>
		<edge from-layer="1443" from-port="2" to-layer="1444" to-port="0"/>
		<edge from-layer="1444" from-port="1" to-layer="1449" to-port="0"/>
		<edge from-layer="1445" from-port="1" to-layer="1449" to-port="1"/>
		<edge from-layer="1446" from-port="1" to-layer="1449" to-port="2"/>
		<edge from-layer="1447" from-port="1" to-layer="1449" to-port="3"/>
		<edge from-layer="1448" from-port="1" to-layer="1449" to-port="4"/>
		<edge from-layer="1450" from-port="1" to-layer="1451" to-port="0"/>
		<edge from-layer="1451" from-port="1" to-layer="1456" to-port="0"/>
		<edge from-layer="1452" from-port="1" to-layer="1456" to-port="1"/>
		<edge from-layer="1453" from-port="1" to-layer="1456" to-port="2"/>
		<edge from-layer="1454" from-port="1" to-layer="1456" to-port="3"/>
		<edge from-layer="1455" from-port="1" to-layer="1456" to-port="4"/>
		<edge from-layer="1433" from-port="4" to-layer="1457" to-port="0"/>
		<edge from-layer="1456" from-port="5" to-layer="1457" to-port="1"/>
		<edge from-layer="1457" from-port="2" to-layer="1459" to-port="0"/>
		<edge from-layer="1458" from-port="1" to-layer="1459" to-port="1"/>
		<edge from-layer="1459" from-port="2" to-layer="1460" to-port="0"/>
		<edge from-layer="1460" from-port="1" to-layer="1465" to-port="0"/>
		<edge from-layer="1461" from-port="1" to-layer="1465" to-port="1"/>
		<edge from-layer="1462" from-port="1" to-layer="1465" to-port="2"/>
		<edge from-layer="1463" from-port="1" to-layer="1465" to-port="3"/>
		<edge from-layer="1464" from-port="1" to-layer="1465" to-port="4"/>
		<edge from-layer="1466" from-port="1" to-layer="1467" to-port="0"/>
		<edge from-layer="1467" from-port="1" to-layer="1472" to-port="0"/>
		<edge from-layer="1468" from-port="1" to-layer="1472" to-port="1"/>
		<edge from-layer="1469" from-port="1" to-layer="1472" to-port="2"/>
		<edge from-layer="1470" from-port="1" to-layer="1472" to-port="3"/>
		<edge from-layer="1471" from-port="1" to-layer="1472" to-port="4"/>
		<edge from-layer="1465" from-port="5" to-layer="1473" to-port="0"/>
		<edge from-layer="1472" from-port="5" to-layer="1473" to-port="1"/>
		<edge from-layer="1473" from-port="2" to-layer="1475" to-port="0"/>
		<edge from-layer="1474" from-port="1" to-layer="1475" to-port="1"/>
		<edge from-layer="1475" from-port="2" to-layer="1476" to-port="0"/>
		<edge from-layer="1476" from-port="1" to-layer="1481" to-port="0"/>
		<edge from-layer="1477" from-port="1" to-layer="1481" to-port="1"/>
		<edge from-layer="1478" from-port="1" to-layer="1481" to-port="2"/>
		<edge from-layer="1479" from-port="1" to-layer="1481" to-port="3"/>
		<edge from-layer="1480" from-port="1" to-layer="1481" to-port="4"/>
		<edge from-layer="1482" from-port="1" to-layer="1483" to-port="0"/>
		<edge from-layer="1483" from-port="1" to-layer="1488" to-port="0"/>
		<edge from-layer="1484" from-port="1" to-layer="1488" to-port="1"/>
		<edge from-layer="1485" from-port="1" to-layer="1488" to-port="2"/>
		<edge from-layer="1486" from-port="1" to-layer="1488" to-port="3"/>
		<edge from-layer="1487" from-port="1" to-layer="1488" to-port="4"/>
		<edge from-layer="1465" from-port="5" to-layer="1489" to-port="0"/>
		<edge from-layer="1488" from-port="5" to-layer="1489" to-port="1"/>
		<edge from-layer="1489" from-port="2" to-layer="1491" to-port="0"/>
		<edge from-layer="1490" from-port="1" to-layer="1491" to-port="1"/>
		<edge from-layer="1491" from-port="2" to-layer="1492" to-port="0"/>
		<edge from-layer="1492" from-port="1" to-layer="1497" to-port="0"/>
		<edge from-layer="1493" from-port="1" to-layer="1497" to-port="1"/>
		<edge from-layer="1494" from-port="1" to-layer="1497" to-port="2"/>
		<edge from-layer="1495" from-port="1" to-layer="1497" to-port="3"/>
		<edge from-layer="1496" from-port="1" to-layer="1497" to-port="4"/>
		<edge from-layer="1481" from-port="5" to-layer="1498" to-port="0"/>
		<edge from-layer="1497" from-port="5" to-layer="1498" to-port="1"/>
		<edge from-layer="1499" from-port="1" to-layer="1500" to-port="0"/>
		<edge from-layer="1500" from-port="1" to-layer="1505" to-port="0"/>
		<edge from-layer="1501" from-port="1" to-layer="1505" to-port="1"/>
		<edge from-layer="1502" from-port="1" to-layer="1505" to-port="2"/>
		<edge from-layer="1503" from-port="1" to-layer="1505" to-port="3"/>
		<edge from-layer="1504" from-port="1" to-layer="1505" to-port="4"/>
		<edge from-layer="1433" from-port="4" to-layer="1506" to-port="0"/>
		<edge from-layer="1505" from-port="5" to-layer="1506" to-port="1"/>
		<edge from-layer="1506" from-port="2" to-layer="1508" to-port="0"/>
		<edge from-layer="1507" from-port="1" to-layer="1508" to-port="1"/>
		<edge from-layer="1508" from-port="2" to-layer="1509" to-port="0"/>
		<edge from-layer="1509" from-port="1" to-layer="1514" to-port="0"/>
		<edge from-layer="1510" from-port="1" to-layer="1514" to-port="1"/>
		<edge from-layer="1511" from-port="1" to-layer="1514" to-port="2"/>
		<edge from-layer="1512" from-port="1" to-layer="1514" to-port="3"/>
		<edge from-layer="1513" from-port="1" to-layer="1514" to-port="4"/>
		<edge from-layer="1515" from-port="1" to-layer="1516" to-port="0"/>
		<edge from-layer="1516" from-port="1" to-layer="1521" to-port="0"/>
		<edge from-layer="1517" from-port="1" to-layer="1521" to-port="1"/>
		<edge from-layer="1518" from-port="1" to-layer="1521" to-port="2"/>
		<edge from-layer="1519" from-port="1" to-layer="1521" to-port="3"/>
		<edge from-layer="1520" from-port="1" to-layer="1521" to-port="4"/>
		<edge from-layer="1514" from-port="5" to-layer="1522" to-port="0"/>
		<edge from-layer="1521" from-port="5" to-layer="1522" to-port="1"/>
		<edge from-layer="1522" from-port="2" to-layer="1524" to-port="0"/>
		<edge from-layer="1523" from-port="1" to-layer="1524" to-port="1"/>
		<edge from-layer="1524" from-port="2" to-layer="1525" to-port="0"/>
		<edge from-layer="1525" from-port="1" to-layer="1530" to-port="0"/>
		<edge from-layer="1526" from-port="1" to-layer="1530" to-port="1"/>
		<edge from-layer="1527" from-port="1" to-layer="1530" to-port="2"/>
		<edge from-layer="1528" from-port="1" to-layer="1530" to-port="3"/>
		<edge from-layer="1529" from-port="1" to-layer="1530" to-port="4"/>
		<edge from-layer="1531" from-port="1" to-layer="1532" to-port="0"/>
		<edge from-layer="1532" from-port="1" to-layer="1537" to-port="0"/>
		<edge from-layer="1533" from-port="1" to-layer="1537" to-port="1"/>
		<edge from-layer="1534" from-port="1" to-layer="1537" to-port="2"/>
		<edge from-layer="1535" from-port="1" to-layer="1537" to-port="3"/>
		<edge from-layer="1536" from-port="1" to-layer="1537" to-port="4"/>
		<edge from-layer="1530" from-port="5" to-layer="1538" to-port="0"/>
		<edge from-layer="1537" from-port="5" to-layer="1538" to-port="1"/>
		<edge from-layer="1538" from-port="2" to-layer="1540" to-port="0"/>
		<edge from-layer="1539" from-port="1" to-layer="1540" to-port="1"/>
		<edge from-layer="1540" from-port="2" to-layer="1541" to-port="0"/>
		<edge from-layer="1541" from-port="1" to-layer="1546" to-port="0"/>
		<edge from-layer="1542" from-port="1" to-layer="1546" to-port="1"/>
		<edge from-layer="1543" from-port="1" to-layer="1546" to-port="2"/>
		<edge from-layer="1544" from-port="1" to-layer="1546" to-port="3"/>
		<edge from-layer="1545" from-port="1" to-layer="1546" to-port="4"/>
		<edge from-layer="1547" from-port="1" to-layer="1548" to-port="0"/>
		<edge from-layer="1548" from-port="1" to-layer="1553" to-port="0"/>
		<edge from-layer="1549" from-port="1" to-layer="1553" to-port="1"/>
		<edge from-layer="1550" from-port="1" to-layer="1553" to-port="2"/>
		<edge from-layer="1551" from-port="1" to-layer="1553" to-port="3"/>
		<edge from-layer="1552" from-port="1" to-layer="1553" to-port="4"/>
		<edge from-layer="1530" from-port="5" to-layer="1554" to-port="0"/>
		<edge from-layer="1553" from-port="5" to-layer="1554" to-port="1"/>
		<edge from-layer="1554" from-port="2" to-layer="1556" to-port="0"/>
		<edge from-layer="1555" from-port="1" to-layer="1556" to-port="1"/>
		<edge from-layer="1556" from-port="2" to-layer="1557" to-port="0"/>
		<edge from-layer="1557" from-port="1" to-layer="1562" to-port="0"/>
		<edge from-layer="1558" from-port="1" to-layer="1562" to-port="1"/>
		<edge from-layer="1559" from-port="1" to-layer="1562" to-port="2"/>
		<edge from-layer="1560" from-port="1" to-layer="1562" to-port="3"/>
		<edge from-layer="1561" from-port="1" to-layer="1562" to-port="4"/>
		<edge from-layer="1546" from-port="5" to-layer="1563" to-port="0"/>
		<edge from-layer="1562" from-port="5" to-layer="1563" to-port="1"/>
		<edge from-layer="1433" from-port="4" to-layer="1564" to-port="0"/>
		<edge from-layer="1564" from-port="1" to-layer="1569" to-port="0"/>
		<edge from-layer="1565" from-port="1" to-layer="1569" to-port="1"/>
		<edge from-layer="1566" from-port="1" to-layer="1569" to-port="2"/>
		<edge from-layer="1567" from-port="1" to-layer="1569" to-port="3"/>
		<edge from-layer="1568" from-port="1" to-layer="1569" to-port="4"/>
		<edge from-layer="1570" from-port="1" to-layer="1571" to-port="0"/>
		<edge from-layer="1571" from-port="1" to-layer="1576" to-port="0"/>
		<edge from-layer="1572" from-port="1" to-layer="1576" to-port="1"/>
		<edge from-layer="1573" from-port="1" to-layer="1576" to-port="2"/>
		<edge from-layer="1574" from-port="1" to-layer="1576" to-port="3"/>
		<edge from-layer="1575" from-port="1" to-layer="1576" to-port="4"/>
		<edge from-layer="1569" from-port="5" to-layer="1577" to-port="0"/>
		<edge from-layer="1576" from-port="5" to-layer="1577" to-port="1"/>
		<edge from-layer="1577" from-port="2" to-layer="1579" to-port="0"/>
		<edge from-layer="1578" from-port="1" to-layer="1579" to-port="1"/>
		<edge from-layer="1579" from-port="2" to-layer="1580" to-port="0"/>
		<edge from-layer="1580" from-port="1" to-layer="1585" to-port="0"/>
		<edge from-layer="1581" from-port="1" to-layer="1585" to-port="1"/>
		<edge from-layer="1582" from-port="1" to-layer="1585" to-port="2"/>
		<edge from-layer="1583" from-port="1" to-layer="1585" to-port="3"/>
		<edge from-layer="1584" from-port="1" to-layer="1585" to-port="4"/>
		<edge from-layer="1449" from-port="5" to-layer="1586" to-port="0"/>
		<edge from-layer="1498" from-port="2" to-layer="1586" to-port="1"/>
		<edge from-layer="1563" from-port="2" to-layer="1586" to-port="2"/>
		<edge from-layer="1585" from-port="5" to-layer="1586" to-port="3"/>
		<edge from-layer="1586" from-port="4" to-layer="1587" to-port="0"/>
		<edge from-layer="1587" from-port="1" to-layer="1592" to-port="0"/>
		<edge from-layer="1588" from-port="1" to-layer="1592" to-port="1"/>
		<edge from-layer="1589" from-port="1" to-layer="1592" to-port="2"/>
		<edge from-layer="1590" from-port="1" to-layer="1592" to-port="3"/>
		<edge from-layer="1591" from-port="1" to-layer="1592" to-port="4"/>
		<edge from-layer="1593" from-port="1" to-layer="1594" to-port="0"/>
		<edge from-layer="1594" from-port="1" to-layer="1599" to-port="0"/>
		<edge from-layer="1595" from-port="1" to-layer="1599" to-port="1"/>
		<edge from-layer="1596" from-port="1" to-layer="1599" to-port="2"/>
		<edge from-layer="1597" from-port="1" to-layer="1599" to-port="3"/>
		<edge from-layer="1598" from-port="1" to-layer="1599" to-port="4"/>
		<edge from-layer="1592" from-port="5" to-layer="1600" to-port="0"/>
		<edge from-layer="1599" from-port="5" to-layer="1600" to-port="1"/>
		<edge from-layer="1600" from-port="2" to-layer="1602" to-port="0"/>
		<edge from-layer="1601" from-port="1" to-layer="1602" to-port="1"/>
		<edge from-layer="1602" from-port="2" to-layer="1604" to-port="0"/>
		<edge from-layer="1603" from-port="1" to-layer="1604" to-port="1"/>
		<edge from-layer="1604" from-port="2" to-layer="1606" to-port="0"/>
		<edge from-layer="1605" from-port="1" to-layer="1606" to-port="1"/>
		<edge from-layer="1606" from-port="2" to-layer="1607" to-port="0"/>
	</edges>
	<meta_data>
		<MO_version value="unknown version"/>
		<cli_parameters>
			<blobs_as_inputs value="True"/>
			<caffe_parser_path value="DIR"/>
			<data_type value="FP32"/>
			<disable_nhwc_to_nchw value="False"/>
			<disable_omitting_optional value="False"/>
			<disable_resnet_optimization value="False"/>
			<disable_weights_compression value="False"/>
			<enable_concat_optimization value="False"/>
			<enable_flattening_nested_params value="False"/>
			<enable_ssd_gluoncv value="False"/>
			<extensions value="DIR"/>
			<framework value="tf"/>
			<freeze_placeholder_with_value value="{}"/>
			<generate_deprecated_IR_V2 value="False"/>
			<generate_deprecated_IR_V7 value="False"/>
			<generate_experimental_IR_V10 value="True"/>
			<input_model value="DIR/inception_v3.pb"/>
			<input_model_is_text value="False"/>
			<input_shape value="(1, 299, 299, 3)"/>
			<k value="DIR/CustomLayersMapping.xml"/>
			<keep_quantize_ops_in_IR value="True"/>
			<keep_shape_ops value="False"/>
			<legacy_mxnet_model value="False"/>
			<log_level value="ERROR"/>
			<mean_scale_values value="[(array([127.5, 127.5, 127.5]), None)]"/>
			<mean_values value="(127.5, 127.5, 127.5)"/>
			<model_name value="inception_v3"/>
			<move_to_preprocess value="False"/>
			<output_dir value="DIR"/>
			<placeholder_data_types value="{}"/>
			<placeholder_shapes value="[  1 299 299   3]"/>
			<progress value="False"/>
			<remove_memory value="False"/>
			<remove_output_softmax value="False"/>
			<reverse_input_channels value="True"/>
			<save_params_from_nd value="False"/>
			<scale value="127.5"/>
			<scale_values value="()"/>
			<silent value="False"/>
			<stream_output value="False"/>
			<unset unset_cli_parameters="batch, counts, disable_fusing, disable_gfusing, finegrain_fusing, input, input_checkpoint, input_meta_graph, input_proto, input_symbol, mean_file, mean_file_offsets, nd_prefix_name, output, pretrained_model_name, saved_model_dir, saved_model_tags, tensorboard_logdir, tensorflow_custom_layer_libraries, tensorflow_custom_operations_config_update, tensorflow_object_detection_api_pipeline_config, tensorflow_use_custom_operations_config, transformations_config"/>
		</cli_parameters>
	</meta_data>
	<quantization_parameters>
		<config>{
		'compression': {
			'target_device': 'CPU',
			'algorithms': [
				{
					'name': 'AccuracyAwareQuantization',
					'params': {
						'preset': 'performance',
						'stat_subset_size': 300,
						'metric_subset_ratio': 0.2,
						'max_iter_num': 20,
						'maximal_drop': 0.01,
						'drop_type': 'relative',
						'metrics': [
							{
								'name': 'accuracy @ top1',
								'baseline_value': 0.7749
							},
							{
								'name': 'accuracy @ top5',
								'baseline_value': 0.9368
							}
						]
					}
				}
			]
		},
		'engine': {
			'models': [
				{
					'name': 'inception_v3',
					'launchers': [
						{
							'framework': 'dlsdk',
							'device': 'CPU',
							'adapter': 'classification'
						}
					],
					'datasets': [
						{
							'name': 'ImageNet2012_bkgr',
							'data_source': 'PATH',
							'annotation': 'PATH',
							'dataset_meta': 'PATH',
							'annotation_conversion': {
								'converter': 'imagenet',
								'annotation_file': 'PATH',
								'labels_file': 'PATH',
								'has_background': true
							},
							'metrics': [
								{
									'name': 'accuracy @ top1',
									'type': 'accuracy',
									'top_k': 1
								},
								{
									'name': 'accuracy @ top5',
									'type': 'accuracy',
									'top_k': 5
								}
							],
							'preprocessing': [
								{
									'type': 'resize',
									'size': 320
								},
								{
									'type': 'crop',
									'size': 299
								}
							]
						}
					]
				}
			],
			'stat_requests_number': null,
			'eval_requests_number': null,
			'type': 'accuracy_checker'
		}
	}</config>
		<version value="1.0"/>
		<cli_params value="{'evaluate': False, 'output_dir': 'PATH', 'direct_dump': True, 'log_level': 'DEBUG', 'pbar': False, 'keep_uncompressed_weights': False}"/>
	</quantization_parameters>
</net>
